Assets/ML-Agents/config/results/tank_beta_0.001_1_layers_32_batch_size_buffer_4096/AgentTank.onnx (onnx, 309310 bytes, 12 tensors)

discrete_action_output_shape f4 [1, 2]
0	0x40000000	2.0
1	0x40000000	2.0

network_body._body_endoder.seq_layers.0.weight f4 [256, 34]
0	0x3e7ec8f9	0.24881352
1	0xbe5832fe	-0.21113202
2	0xbd1122fc	-0.035433754
3	0xbd7dc238	-0.0619528
4	0x3e543b41	0.20725729
5	0xbc9c917c	-0.019112341
6	0xbd988b21	-0.07448412
7	0xbe0153eb	-0.12629668
8	0xbd6ab357	-0.057299938
9	0xbf03e0e7	-0.5151505
10	0xbcd4efed	-0.025993312
11	0xbd99f9c7	-0.07518344
12	0xbe63b8af	-0.2223842
13	0x3e576cd5	0.2103761
14	0xbc987a13	-0.018612897
15	0xbd1a0484	-0.037601963
16	0x3c96bdcc	0.01840105
17	0x3de9f540	0.11423731
18	0x3e03d927	0.12875806
19	0xbc8f0de6	-0.017462682
20	0x3cd20c48	0.025640622
21	0x3e67f3cd	0.22651596
22	0xbe5385b1	-0.20656468
23	0x3e2c663f	0.16835879
24	0x3e8d5fd4	0.27612174
25	0x3daf5b5e	0.08562349
26	0x3e379c3b	0.17930691
27	0x3e398078	0.18115413
28	0x3db8b6e6	0.0901926
29	0x3de6fb62	0.11278416
30	0xbd71bc87	-0.059017684
31	0x3dd01939	0.10161061
32	0xbdbd0590	-0.092295766
33	0xbdac012b	-0.0839866
34	0x38d7a0a6	0.00010281922
35	0x3e29b351	0.1657231
36	0xbdb8300b	-0.089935385
37	0xbddb04d4	-0.1069428
38	0x3dad8f37	0.08474582
39	0xbe37016a	-0.17871633
40	0xbd4df574	-0.05028291
41	0x3df89301	0.12137414
42	0x3cfadca2	0.030622784
43	0x3c835d59	0.016035723
44	0xbe18a365	-0.1490608
45	0xbdc95637	-0.09830897
46	0xbe588375	-0.21143897
47	0xbce61031	-0.028083893
48	0x3ea846f8	0.32866645
49	0xbe05e8af	-0.13077043
50	0x3c9e02ec	0.019288503
51	0x3e83399e	0.25629896
52	0x3e800215	0.25001588
53	0xbd8c5aa2	-0.06853224
54	0x3d082ddc	0.03324686
55	0xbe38d182	-0.18048671
56	0xbdfc1a5e	-0.12309717
57	0x3e5e5742	0.21712974
58	0x3de10f63	0.10989263
59	0xbe3af49c	-0.18257374
60	0xbcee3518	-0.029078051
61	0xbc9bc316	-0.019013923
62	0x3dd6d4bc	0.104897946
63	0xbbb380c1	-0.005477995
64	0xbcd30a09	-0.025761621
65	0xbc82701b	-0.015922597
66	0xbdbe7931	-0.09300459
67	0x3e96adf0	0.2942958
68	0x3e96a547	0.29422972
69	0x3e9a854a	0.30179816
70	0x3dbfb7a2	0.09361197
71	0xbdca93f8	-0.09891504
72	0x3c3e84ae	0.011628313
73	0xbc44423b	-0.011978681
74	0xbe838208	-0.25685143
75	0x3d71a679	0.05899665
76	0x3e9978c2	0.29974943
77	0x3e46e32b	0.19422595
78	0xbe9ae75e	-0.30254644
79	0xbcf3d445	-0.029764304
80	0xbe912d7b	-0.2835501
81	0xbdb08cfd	-0.086206414
82	0x3df46777	0.11933797
83	0xbc7c2ec7	-0.015392012
84	0x3e1c9a38	0.15293205
85	0xbc661387	-0.014042742
86	0x3e5cbb96	0.21555933
87	0xbe2b5e76	-0.16735253
88	0x3def089b	0.11671563
89	0xbe740ad7	-0.2383226
90	0x3eb2acd9	0.34897497
91	0x3e2d12e4	0.16901737
92	0x3e8050c6	0.25061625
93	0xbdc36116	-0.09540002
94	0xbe3bb8d2	-0.18332222
95	0x3e23ca43	0.15995125
96	0xbe4d412a	-0.2004439
97	0xbcfe6214	-0.031052627
98	0x3e924f29	0.2857602
99	0x3e57d92b	0.21078937
100	0xbe42fc23	-0.19041495
101	0x3e8dfb9f	0.27731034
102	0xbb63b8bb	-0.003474756
103	0x3ce16504	0.027513988
104	0x3de422c5	0.11139444
105	0x3e83c4fc	0.25736225
106	0xbe5bd6ea	-0.21468702
107	0xbdcbced9	-0.099515624
108	0x3e651518	0.22371328
109	0xbe7a680b	-0.24453752
110	0xbd5c1621	-0.05373204
111	0x3d620de3	0.055189025
112	0xbd9bae55	-0.076016106
113	0x3d2798fb	0.040917378
114	0x3e833f30	0.25634146
115	0xbc1c6fdd	-0.009548155
116	0x3c20ca55	0.009813865
117	0x3e2eb3f3	0.17060833
118	0xbe7a91ee	-0.2446973
119	0x3d275ed2	0.040861912
120	0x3e571d99	0.21007384
121	0x3d94f3ae	0.07273041
122	0x3eedaab4	0.464193
123	0xbd4262a4	-0.047457352
124	0xbf2564f3	-0.6460716
125	0x3d4ac532	0.049504466
126	0xbe794f8f	-0.24346755
127	0x3e1d80c4	0.15381151
128	0xbe690452	-0.22755554
129	0xbc5a1fe5	-0.013313268
130	0x39eae520	0.0004480267
131	0xbdf56160	-0.119814634
132	0x3db4edca	0.08834417
133	0x3b2721c3	0.0025502301
134	0xbd617337	-0.055041518
135	0xbd082d10	-0.0332461
136	0xbdb1ca31	-0.08681143
137	0x3b258545	0.0025256437
138	0x3e1e18ca	0.15439144
139	0x3d8ff6e4	0.070295125
140	0xbe1ab4b3	-0.15107994
141	0x3c508eb3	0.012729335
142	0x3e800178	0.2500112
143	0x3e2ecdb0	0.17070651
144	0x3cec44dc	0.028841428
145	0xbcf08356	-0.0293595
146	0x3d68b532	0.056813426
147	0xbe7c5d0c	-0.2464487
148	0xbe8cd8b3	-0.27509078
149	0xbdaf5a40	-0.08562136
150	0x3ee2298b	0.4417232
151	0xbde930d5	-0.11386267
152	0xbebc12b5	-0.36733022
153	0x3f017531	0.50569445
154	0xbe66b5e2	-0.2253032
155	0xbe926c60	-0.2859831
156	0xbf042449	-0.51617867
157	0x3e295b56	0.16538748
158	0xbe031c10	-0.12803674
159	0xbbea3133	-0.0071469783
160	0xbebb3b64	-0.3656875
161	0x3ed0c1d7	0.40772888
162	0x3db44e1b	0.0880396
163	0x3d8eb597	0.06968229
164	0xbeeb15cb	-0.45915064
165	0x3d25d886	0.040489696
166	0x3bb9e297	0.0056727636
167	0x3db1c964	0.0868099
168	0xbe81eb6f	-0.25374934
169	0x3e1e6c6e	0.1547105
170	0xbe00cb67	-0.12577592
171	0xbd42749d	-0.047474492
172	0xbec180a8	-0.3779347
173	0x3e654f9b	0.22393648
174	0xbe8b3426	-0.27188224
175	0x3e39d9b6	0.18149456
176	0xbe71e388	-0.23621953
177	0x3a7a7285	0.0009553808
178	0xbb0173c6	-0.0019752844
179	0xbd380eac	-0.044935867
180	0x3e9dea6d	0.30842915
181	0x3dccad46	0.09993987
182	0x3da58225	0.08081464
183	0xbdf3ae9b	-0.11898538
184	0x3e03907e	0.12848088
185	0xbdfd67d6	-0.12373321
186	0xbdf9aa04	-0.12190631
187	0x3e16e69f	0.14736412
188	0x3c2304a6	0.009949839
189	0x3db0b2aa	0.086278275
190	0xbe638264	-0.22217709
191	0xbd9715ed	-0.07377229
192	0x3da73e27	0.081661515
193	0x3dd7fa93	0.1054584
194	0x3e983435	0.2972733
195	0xbc880144	-0.016602166
196	0xbe36f2d2	-0.17866066
197	0xbd0a774b	-0.033805173
198	0x3e199d5a	0.15001431
199	0x3e34b5b3	0.17647438
200	0x3ece8ab7	0.40340206
201	0xbe4e88e7	-0.20169412
202	0x3df17c73	0.11791315
203	0x3dd21822	0.10258509
204	0xbe8611b4	-0.2618538
205	0xbe02fda2	-0.12792066
206	0xbd9129f4	-0.0708808
207	0xbe154331	-0.14576413
208	0x3e026bbc	0.1273641
209	0xbb668834	-0.0035176398
210	0x3e883264	0.26600945
211	0x3d0e68e8	0.034768015
212	0xbe1c45ff	-0.15261076
213	0xbeaf33a5	-0.3421909
214	0xbe78681f	-0.24258469
215	0x3d084e9e	0.0332781
216	0x3e04509a	0.12921372
217	0x3d61e7c9	0.05515269
218	0xbe956b09	-0.29183224
219	0xbe8cce1a	-0.27500993
220	0x3db231e1	0.0870092
221	0x3deb4ca0	0.114892244
222	0x3e33baa9	0.17551674
223	0x3c3b9116	0.011448165
224	0xbd0402a3	-0.032229077
225	0x3e27d558	0.16389978
226	0x3e9f2405	0.31082168
227	0x3d97083b	0.07374617
228	0xbce16b91	-0.027517112
229	0x3d988329	0.07446892
230	0x3d841c8c	0.064507574
231	0xbd6b3ff4	-0.057434037
232	0x3db7f64b	0.089825235
233	0xbe331bf1	-0.17491128
234	0x3bf6952a	0.007525106
235	0x3acbcd4c	0.0015548854
236	0xbddbefb6	-0.107390806
237	0x3eaedc57	0.3415248
238	0x3ded43fc	0.115852326
239	0x3e457314	0.1928218
240	0x3e52d7ac	0.20590085
241	0x3d633392	0.055469103
242	0x3e72ca88	0.23710072
243	0x3ea73ba8	0.32662702
244	0x3e6891fb	0.22711937
245	0x3d9016d1	0.07035602
246	0x3e6dcbe0	0.23222303
247	0xbc5d6eb5	-0.013515164
248	0xbd7adf9e	-0.061248414
249	0x3d8a6a86	0.06758599
250	0x3b5580aa	0.003257791
251	0xbd907ec4	-0.070554286
252	0xbc1ae41f	-0.009453802
253	0x3d863c66	0.06554489
254	0x3e19bb3c	0.1501283
255	0xbe2c1c06	-0.16807565

network_body._body_endoder.seq_layers.0.bias f4 [256]
0	0xbd18924d	-0.0372489
1	0xbc6a55ee	-0.014302714
2	0x3d73fc7d	0.059566963
3	0x3a734f02	0.00092814874
4	0x3d567d6a	0.052365698
5	0x3c348e69	0.011020281
6	0x3d2b9ccb	0.041897576
7	0x3cc003ed	0.023439372
8	0xbd048985	-0.03235771
9	0x3d08f37b	0.033435326
10	0x3cc6461f	0.024203358
11	0x3bb5bfbf	0.0055465396
12	0x3a877633	0.0010334909
13	0x3decdd66	0.11565666
14	0x3bb7b9c4	0.005606862
15	0x3bfe62ec	0.0077632573
16	0xbc7bffaa	-0.015380779
17	0x3c5d307d	0.01350033
18	0x3b0a303d	0.002108588
19	0x3b33721a	0.0027381242
20	0x3db9273d	0.09040687
21	0x3d50fd49	0.0510228
22	0xbb812d64	-0.0039421786
23	0x3d91dbae	0.07121979
24	0x3ce0beba	0.027434696
25	0x3d2b309a	0.041794397
26	0xbc08f42d	-0.008358997
27	0xba1ecdf9	-0.0006057914
28	0xba1e9afb	-0.00060503156
29	0xbc3e38d8	-0.011610232
30	0x3d0f8580	0.035039425
31	0x3c6936ca	0.014234254
32	0x3d12bfb8	0.03582737
33	0x3c5f6cb8	0.01363676
34	0xbcdfa9c3	-0.027302628
35	0x3a0f24ad	0.0005460482
36	0xbc9bab6a	-0.019002635
37	0xbbc44970	-0.0059901997
38	0x3d3f3026	0.046676777
39	0xbc66d4c3	-0.014088812
40	0xbbd92371	-0.0066265394
41	0x3d76b19f	0.060227986
42	0x3ccfb78c	0.025356077
43	0x3c2fb10f	0.010723366
44	0x3d2ed3d0	0.04268247
45	0x3c690946	0.014223402
46	0x3d49d67f	0.049276825
47	0x3d14560f	0.036214884
48	0x3db00360	0.08594394
49	0x3c443a93	0.011976856
50	0xbbcb9289	-0.0062125367
51	0x3d6c31fb	0.057664853
52	0x3a6a42ee	0.0008936365
53	0x3d327a9a	0.043573953
54	0x3d2bfd98	0.041989893
55	0x3d05d9b7	0.032678332
56	0x3d103b17	0.035212602
57	0x3ab4dff1	0.001379965
58	0x3c7fcca8	0.015612759
59	0x3d8b0c5e	0.06789468
60	0x3d55919a	0.05214081
61	0xbcd7e9bd	-0.026356572
62	0xbcb46555	-0.022020975
63	0xbc78419a	-0.015152359
64	0x3c81156f	0.01575729
65	0x3dc27bcb	0.09496268
66	0xbccf0291	-0.025269778
67	0xbbad15f7	-0.0052821594
68	0xbd0f469d	-0.03497945
69	0xbc305ac0	-0.010763824
70	0x3a58f79f	0.00082766445
71	0x3d028069	0.031860743
72	0x3c89b580	0.016810179
73	0xbc7ac034	-0.015304614
74	0x3c8cbdde	0.01718038
75	0xbbc662a8	-0.006054241
76	0x3cccd3b0	0.025003284
77	0xbc38aed2	-0.011272149
78	0xbc12503e	-0.008930264
79	0x3da543ef	0.08069598
80	0x3d9adc9d	0.0756161
81	0x3cb1a980	0.02168727
82	0x3cf97ee0	0.030456007
83	0x39f200fc	0.0004615857
84	0x3d6fc207	0.05853465
85	0x3a6aa548	0.00089510204
86	0xbd017ea3	-0.03161491
87	0x3c31aaf2	0.010843979
88	0xbd7339aa	-0.059381165
89	0x3c17d55b	0.0092671765
90	0x3d3441a1	0.0440079
91	0xbbc2149a	-0.005922866
92	0x3d6d4f52	0.057936974
93	0x3a985dd3	0.0011624641
94	0xbb85ca5e	-0.004082962
95	0x3cca9110	0.024727374
96	0x3d1580f8	0.036499947
97	0xbc9c55e9	-0.019083934
98	0x3d8827e3	0.06648233
99	0xbb2e028a	-0.0026551806
100	0xbc34b825	-0.011030232
101	0xbcd3ce24	-0.025855131
102	0xbd128799	-0.035773847
103	0x3ce2369c	0.02761393
104	0xbce7aa7e	-0.02827954
105	0x3cf2559e	0.029581841
106	0x3d863fb4	0.06555119
107	0x3cf3cb0f	0.029759912
108	0x3c136d7a	0.008998269
109	0x3cac0a7e	0.021001097
110	0x3d710596	0.058843218
111	0x3c8a2a2f	0.016865818
112	0x3c0b7fd3	0.008514362
113	0x3d28f0de	0.041245334
114	0x3ca84767	0.02054186
115	0x3d038548	0.03210953
116	0x3ba3593f	0.004985004
117	0xbccb422f	-0.024811832
118	0x3d1be852	0.038063355
119	0xbd00bd9d	-0.03143083
120	0x3d28ad32	0.041180797
121	0x3c8bb3fc	0.017053597
122	0xbb8a4cab	-0.0042205653
123	0x3c8db6b8	0.017299041
124	0x3de340ca	0.11096342
125	0xbd8cc978	-0.068743646
126	0xba512672	-0.0007978446
127	0xbc2c0304	-0.010498766
128	0xbdae83f0	-0.08521259
129	0x3d0453d4	0.032306507
130	0x3d309837	0.043113913
131	0x3d7f7eef	0.062376913
132	0x3d3a762a	0.045522846
133	0x3c7b61c4	0.015343133
134	0x3d7b40cb	0.06134109
135	0x3ca7fb6b	0.020505628
136	0xbbc7d2cd	-0.0060981275
137	0x3d185b1d	0.037196267
138	0x3bace1e9	0.005275954
139	0x3d57cac6	0.052683614
140	0x3da65d3c	0.08123252
141	0x3d207e52	0.03918297
142	0x3e055940	0.13022327
143	0x3c20deb3	0.009818721
144	0xbd8f6c23	-0.07003047
145	0xbbdd69eb	-0.006757011
146	0x3d80e3f3	0.06293478
147	0x3d0e9073	0.034805726
148	0x3be48b53	0.0069746166
149	0xbd0e5b14	-0.034754828
150	0x3d16da93	0.036829542
151	0x3cebc8d4	0.028782286
152	0xbd382ce6	-0.044964693
153	0x3d283a62	0.041071303
154	0xbd7679cb	-0.060174745
155	0x3c54f261	0.012997241
156	0xbccbaa3b	-0.024861446
157	0x3b85aba0	0.004079297
158	0x3dac426b	0.08411106
159	0xbc64472f	-0.013932987
160	0x3c38ffe1	0.011291475
161	0x3c18f15a	0.009334886
162	0x3d50f776	0.051017247
163	0xbd8f11a4	-0.069857866
164	0x3bf490cb	0.0074635497
165	0xbd1dc8b8	-0.0385215
166	0xbd378aec	-0.04481022
167	0x3b9e1005	0.004823687
168	0x3d5c6925	0.05381121
169	0x3b2b6c36	0.0026157028
170	0xbbfb5c81	-0.0076709394
171	0xbcf19492	-0.02948979
172	0x3d6a9eb6	0.057280265
173	0xbd5b4047	-0.053528097
174	0x3c95a225	0.018265793
175	0x3d0ea26e	0.034822874
176	0xbc1c57fc	-0.0095424615
177	0x3d170f8b	0.036880057
178	0x3ce6eb78	0.028188452
179	0x3cf80d2a	0.030279715
180	0x3d89d66c	0.06730351
181	0x3d01b767	0.031669047
182	0xbc6cd010	-0.014453903
183	0x3db86c73	0.0900506
184	0xbce68e68	-0.028144076
185	0x3bcf76c1	0.0063312952
186	0x3c90e605	0.017687807
187	0xbd4d615b	-0.050141674
188	0xbcda7d72	-0.026671145
189	0x3de60ee1	0.11233307
190	0xbd7b5034	-0.061355785
191	0x3cfdc483	0.030977493
192	0xbcab77ba	-0.020931114
193	0xbc72aa11	-0.014811055
194	0x3d18e289	0.037325416
195	0x3cd80e0d	0.026373887
196	0xbd21cf36	-0.039504252
197	0x3c4436f9	0.011975997
198	0x3c6974a8	0.014249004
199	0xbbe55a06	-0.006999257
200	0x3d7cb6e1	0.061697844
201	0x3d810d50	0.06301367
202	0x3b823cd3	0.003974536
203	0xbb0cab57	-0.0021464431
204	0xbd6f4e29	-0.05842415
205	0xbd1c20b8	-0.03811714
206	0xbc51aade	-0.012797086
207	0x3bd964c4	0.0066343267
208	0x3c828bd6	0.01593582
209	0xba7ea4d2	-0.0009713891
210	0xbaa23682	-0.0012375864
211	0x3cfc10e3	0.030769771
212	0xbceb5d65	-0.028731057
213	0x3cfdfa35	0.031003097
214	0x3d99e182	0.07513715
215	0x3b61d614	0.0034459876
216	0xbd45a430	-0.048252285
217	0x3d45bb6f	0.048274454
218	0x3d43ba17	0.04778489
219	0x3ccdb8cb	0.02511253
220	0x3c207d8b	0.009795557
221	0x3b4f59b6	0.0031639165
222	0x3da9e927	0.082964234
223	0x3c08be8c	0.008346211
224	0x3cd5a850	0.026081234
225	0x3d042b91	0.03226811
226	0xbcf4b6f0	-0.029872388
227	0x3cb61140	0.022225022
228	0x3d7337cb	0.05937938
229	0x3d68095a	0.056649543
230	0x3cfe68bc	0.0310558
231	0xbc64b6c3	-0.013959589
232	0xbb8d978b	-0.004321044
233	0x3dde3e91	0.10851777
234	0x3d00c8dc	0.031441554
235	0x3ccfdd7b	0.025374165
236	0x3ca11b7a	0.019666422
237	0x3c699c29	0.014258423
238	0x3d298be6	0.041393183
239	0xbc174e79	-0.009235018
240	0x3da3eaf3	0.080037974
241	0x3d50eec9	0.051008973
242	0x3dab2d71	0.08358277
243	0x3cb51d7e	0.02210879
244	0x3d9b7e72	0.07592477
245	0x3bcb263f	0.0061996276
246	0xbba82cca	-0.0051322924
247	0x3cec9ef3	0.028884387
248	0x3c5073a8	0.012722887
249	0x3d12dd5a	0.03585563
250	0x3d1dde43	0.038542043
251	0xba2ef68c	-0.00066743116
252	0x3ce33792	0.027736459
253	0x3d463a4c	0.04839544
254	0x3d6dd55b	0.0580648
255	0x3d5c716f	0.053819116

network_body._body_endoder.seq_layers.2.weight f4 [256, 256]
0	0xbd272df4	-0.04081531
1	0x3db7f087	0.08981424
2	0x3df7fe26	0.12109022
3	0xbda9e73d	-0.08296058
4	0x3dad6df4	0.084682375
5	0x3c7bdcd9	0.015372478
6	0x3caf9899	0.021435069
7	0xbca5a97a	-0.020222414
8	0xbdb44fe9	-0.08804304
9	0x3dfd7699	0.12376136
10	0x3d119eac	0.035551712
11	0x3d7c0240	0.061525583
12	0xbe053f46	-0.13012418
13	0x3d2d0b39	0.04224703
14	0xbdbf2de5	-0.093349256
15	0x3d4a47ba	0.04938481
16	0x3d580c29	0.05274597
17	0x3c95326f	0.018212525
18	0x3bc73cc0	0.00608024
19	0x3da91f97	0.082579784
20	0xbdfa091b	-0.12208768
21	0x3de14473	0.10999384
22	0x3d02a1ae	0.03189247
23	0x3d9136a9	0.07090504
24	0xbe11a110	-0.14221597
25	0x3d704271	0.058657113
26	0xbdb259e4	-0.087085515
27	0xbc9982ef	-0.018739192
28	0xbb804e30	-0.0039155707
29	0xbdadf2e0	-0.0849359
30	0xbbcc9328	-0.0062431283
31	0x3d8d9ea7	0.06915026
32	0x3d5e6e7a	0.054304577
33	0xbcd01b2a	-0.025403578
34	0xbd9c0ca8	-0.076196015
35	0xbce378fc	-0.02776765
36	0xbd603586	-0.054738544
37	0xbdb5c529	-0.08875496
38	0x3d587c35	0.052852828
39	0xbe3d660b	-0.18495958
40	0x3cddfbba	0.027097572
41	0xbd29c4f9	-0.041447613
42	0xbd51211f	-0.051056977
43	0x3daf3c64	0.085564405
44	0x3d283642	0.04106737
45	0xbe102ad9	-0.14078845
46	0x3c8203b4	0.015870906
47	0x3e13f181	0.14447595
48	0x3c6cb623	0.014447722
49	0x3dc81211	0.09769071
50	0xbcf650b2	-0.030067775
51	0xbd294084	-0.041321293
52	0x3da6912c	0.08133158
53	0xbd518849	-0.051155362
54	0x3d6b97ef	0.057517942
55	0x3e3100cf	0.17285465
56	0xbe2a9bcd	-0.16660996
57	0x3bf78d6c	0.0075547006
58	0x3ca01775	0.019542435
59	0xbcf4a36a	-0.029863078
60	0x3e2aa538	0.16664588
61	0x3d8027ea	0.06257613
62	0x3d168e13	0.036756586
63	0xbc5aeb0c	-0.013361704
64	0x3dd74958	0.10512036
65	0xbd3c97d3	-0.04604323
66	0x3cf3b2c9	0.029748337
67	0xbda4fa87	-0.08055597
68	0xbd67021a	-0.05639849
69	0xbc462fbf	-0.0120963445
70	0xbd498de8	-0.049207598
71	0xbd1bf8e9	-0.038079176
72	0xbcafc24a	-0.021454949
73	0xbdf22472	-0.11823358
74	0x3db65d86	0.08904557
75	0x3c7ea5f1	0.015542493
76	0x3e37adeb	0.17937438
77	0xbb0c279a	-0.002138591
78	0x3d406738	0.046973437
79	0xbd395780	-0.045249462
80	0xbcfef007	-0.031120313
81	0x3d0f0ca3	0.03492416
82	0x3e1b9d43	0.1519671
83	0xbd1b6c9a	-0.037945367
84	0x39b349fd	0.00034196666
85	0x3d3e6bc9	0.04648951
86	0xbd24b432	-0.04021091
87	0xbdfd9eb3	-0.12383785
88	0xbda25837	-0.07926982
89	0xbdbdbe28	-0.09264785
90	0xbd561a27	-0.052271035
91	0xbd18f9c5	-0.037347574
92	0xbc0e2e4c	-0.00867803
93	0xbe837576	-0.25675553
94	0x3be1306a	0.0068722265
95	0x3d99cb5c	0.07509491
96	0x3da9dedd	0.08294461
97	0xbd2fd1f6	-0.042924844
98	0xbd054543	-0.032536756
99	0x3e00d5d2	0.12581566
100	0x3d38c28c	0.04510741
101	0xbca20543	-0.0197779
102	0x3daa5ba6	0.08318262
103	0x3db0c0ed	0.08630548
104	0xbc385db6	-0.011252811
105	0x3e15920b	0.14606492
106	0x3ba54407	0.00504351
107	0x3d7d0bf6	0.061778985
108	0xbd3f5d99	-0.04672012
109	0xbdaae11f	-0.0834372
110	0x3c995758	0.018718407
111	0x3d8fa309	0.07013518
112	0x3d7a431e	0.061099164
113	0xbdffd796	-0.12492292
114	0xbdb37850	-0.08763182
115	0x3bb037bc	0.005377738
116	0xbd5f363f	-0.054495092
117	0x3af7f069	0.0018916252
118	0xbda6da7b	-0.081471406
119	0xbd80e203	-0.06293108
120	0x3b5e066a	0.0033878335
121	0xbdc3c3fe	-0.09558867
122	0xbd51f276	-0.05125662
123	0x3dcd1ba3	0.10015037
124	0x3e119344	0.14216334
125	0x3d5be99a	0.053689577
126	0xbde19c6d	-0.11016164
127	0xbd873578	-0.06601995
128	0x3d84e0f8	0.06488222
129	0xbe15f158	-0.14642847
130	0x3d8cedb9	0.068812795
131	0x39f7af5a	0.00047242158
132	0x3d3b0de5	0.045667548
133	0x3e06c721	0.13161899
134	0x3d8b3880	0.06797886
135	0x3d0b6acb	0.034037393
136	0xbe1c3706	-0.15255365
137	0xbdbc8a35	-0.092060484
138	0xbddc139c	-0.10745928
139	0x3cb96c5f	0.022634683
140	0x3d80b7bf	0.06285047
141	0xbdfb8a6d	-0.12282262
142	0xbda80f06	-0.082059905
143	0xbd1e8004	-0.038696304
144	0xbdb6eca8	-0.08931857
145	0xbe251195	-0.16119988
146	0xbdc899c5	-0.09794954
147	0xbcafb2dc	-0.021447591
148	0xbbc6af76	-0.006063397
149	0x3da89816	0.08232133
150	0x3dde220d	0.108463384
151	0x3d941bd9	0.07231874
152	0xbc026ee0	-0.007961005
153	0x3d3079e3	0.04308499
154	0xbd623d36	-0.055234157
155	0xbd74502d	-0.059646774
156	0xbcf81bce	-0.030286696
157	0x3e258191	0.16162707
158	0x3e027621	0.12740375
159	0x3cb6e5b5	0.02232633
160	0x39f894f5	0.00047413228
161	0xbde5f36f	-0.11228072
162	0x3cb0817d	0.02154612
163	0x3ccb4661	0.024813833
164	0xbe3efe09	-0.18651594
165	0xbc2ce50e	-0.010552658
166	0xbdeb7664	-0.114971906
167	0xbe34f452	-0.17671326
168	0xbda7fc77	-0.08202451
169	0xbdc21377	-0.09476369
170	0x3d513e91	0.05108506
171	0x3dff66d7	0.12470787
172	0xbd848169	-0.064699955
173	0xbdd6e5e2	-0.104930654
174	0xbe2e7a95	-0.17038949
175	0x3cacfadf	0.021115718
176	0x3d9c3580	0.07627392
177	0x3d58d740	0.052939653
178	0x3c87e006	0.016586315
179	0x3cf55839	0.029949294
180	0x3e1a001c	0.15039104
181	0x3cc40ce6	0.023931932
182	0x3da15b98	0.07878798
183	0x3ca8cfbf	0.020606874
184	0xbd52c34f	-0.051455792
185	0x3ddc4bd7	0.10756653
186	0x3dae9a22	0.08525492
187	0x3d847f97	0.06469648
188	0x3ccde8fc	0.02513551
189	0xbb141c78	-0.0022599977
190	0x3e19b7c0	0.15011501
191	0x3e0b4bed	0.13603182
192	0xbda03f39	-0.07824559
193	0x3cc6c042	0.024261598
194	0xbdb1ddc0	-0.086848736
195	0x3dfc0fca	0.12307699
196	0xbdc4e6de	-0.09614347
197	0x3d58da72	0.0529427
198	0xbd1e75fa	-0.03868673
199	0xbca565ad	-0.020190084
200	0x3e2dd4ee	0.16975757
201	0xbe1dfa7a	-0.1542758
202	0xbe9b3fb5	-0.30322042
203	0xbd627b31	-0.055293266
204	0xbd04124b	-0.032244008
205	0xbd13abc3	-0.036052477
206	0x3d7c8f33	0.061660003
207	0xbdb21601	-0.08695603
208	0x3cd1305c	0.025535755
209	0xbd7c41b7	-0.061586108
210	0x3d3813c1	0.044940714
211	0x3d1ef770	0.038810194
212	0xbd8f7602	-0.0700493
213	0x3dc03b02	0.09386255
214	0xbe65db4d	-0.22446938
215	0xbcdde519	-0.027086781
216	0x3e10e3c9	0.14149393
217	0xbd4ed9a9	-0.050500546
218	0xbd37ed6d	-0.04490416
219	0x3e12359d	0.14278264
220	0xbe131703	-0.14364247
221	0x3c82a85c	0.01594942
222	0x3d04f291	0.03245789
223	0x3d4ee05e	0.050506942
224	0xbd868e02	-0.065700546
225	0xbdb6c5ed	-0.0892447
226	0x3d7daf2a	0.061934628
227	0x3d830696	0.063977405
228	0x3e291c34	0.16514665
229	0x3e2dd083	0.16974072
230	0x3c4636e7	0.012098051
231	0x3d1a8603	0.03772546
232	0xbc3d9a4a	-0.01157243
233	0x3e0210fb	0.1270179
234	0xbdaddd7b	-0.0848951
235	0xbe33736a	-0.17524496
236	0x3bef22e1	0.007297859
237	0xbc9c557e	-0.019083735
238	0x3e48e03f	0.19616793
239	0xbdc7e270	-0.097599864
240	0x3d28e377	0.041232552
241	0x3e08be2c	0.13353795
242	0x3d7b7cf0	0.061398447
243	0xbbb43417	-0.0054993737
244	0x3dc7582e	0.09733616
245	0xbe1e2386	-0.15443239
246	0xbd6d3acd	-0.057917405
247	0x3dbe53c8	0.09293324
248	0xbce627e9	-0.028095203
249	0xbe0441d2	-0.12915733
250	0xbc9158e8	-0.01774259
251	0xbdbf282b	-0.09333833
252	0x3cb68c57	0.022283716
253	0x3ca0c251	0.019623907
254	0x3d1734fe	0.03691577
255	0xbd35e369	-0.04440633

network_body._body_endoder.seq_layers.2.bias f4 [256]
0	0x39976ca6	0.00028881914
1	0xbd01ca94	-0.031687334
2	0x3cf71126	0.030159544
3	0xbcb21485	-0.0217383
4	0xbba79067	-0.0051136496
5	0xbccb5c3d	-0.024824256
6	0xbcc985fe	-0.024600025
7	0x3cadeb94	0.021230496
8	0xbc42b5b7	-0.0118841445
9	0xbc6d3aa0	-0.014479309
10	0x3c56f01b	0.013118769
11	0xbcae31f5	-0.021264056
12	0x3c3e6473	0.011620629
13	0x3c463ee5	0.012099956
14	0x3d0a6074	0.03378339
15	0xbc3b101b	-0.011417414
16	0xbb2b5451	-0.0026142786
17	0xbbc5cd1e	-0.0060364148
18	0xbcac17b4	-0.021007396
19	0xbd08a0b0	-0.03335637
20	0xbc134273	-0.008988011
21	0x3b9dc3a1	0.0048145805
22	0xbd09890d	-0.033577967
23	0xbb75fd90	-0.0037535168
24	0xbd24753d	-0.04015087
25	0xbd326771	-0.04355568
26	0xbce7ad8a	-0.028280992
27	0xbc87b364	-0.016565032
28	0xbbca81b3	-0.006180012
29	0xbcf5aaf7	-0.029988749
30	0xbc85ef7b	-0.016349545
31	0xbb5a7954	-0.0033336477
32	0xbca9de53	-0.020735895
33	0x3d699f5b	0.05703674
34	0xbc83fffd	-0.016113276
35	0xbcf49a72	-0.029858802
36	0x3b787f98	0.0037917849
37	0xbd7f9517	-0.062398043
38	0x3c85af32	0.016318891
39	0x3c0994a0	0.008397251
40	0xbca114cf	-0.019663243
41	0xbc8d8c15	-0.01727871
42	0x3b7af70e	0.0038294229
43	0xbca40f7e	-0.020026919
44	0x3ca0fb4c	0.019651078
45	0x3ab8f123	0.001410995
46	0xbd127ea7	-0.035765316
47	0xbcd76714	-0.026294269
48	0x3c5e450f	0.01356627
49	0xbcd5df4a	-0.02610745
50	0xbcfa8889	-0.030582683
51	0xbb645fe6	-0.00348472
52	0xbc9eec15	-0.019399682
53	0xbc96fc08	-0.018430725
54	0xb9df7ba3	-0.0004262599
55	0xbca864e7	-0.020555926
56	0xbbf7954b	-0.007555639
57	0xbca7f662	-0.020503227
58	0xbd03717a	-0.03209064
59	0xbb4c7bea	-0.0031201788
60	0xbcedd228	-0.029030874
61	0x3bdb2945	0.0066882693
62	0x3cedd197	0.029030604
63	0x3d69c10f	0.05706888
64	0xbcadf2ba	-0.021233905
65	0xbc35435f	-0.011063426
66	0x3d4adf02	0.049529083
67	0xbc6fa83e	-0.014627514
68	0xbd0a598f	-0.033776816
69	0xbcaea2cf	-0.021317868
70	0xbd2e0e67	-0.042494204
71	0x3a18eb30	0.00058333855
72	0xbd80fc6a	-0.06298144
73	0xbcf2d286	-0.029641401
74	0x3bd30568	0.0064398535
75	0x3c6f606b	0.01461039
76	0xbba173e6	-0.0049271462
77	0xbc890caf	-0.01672968
78	0x3c8d9157	0.017281218
79	0x3b8c18f0	0.0042754337
80	0xbbf4dd34	-0.0074726585
81	0xbd0bd909	-0.034142528
82	0x3cb52d7b	0.022116413
83	0xbc2aadb8	-0.010417394
84	0xbab190ed	-0.001354722
85	0xbc1c7c22	-0.00955108
86	0xbd3a1923	-0.04543413
87	0xbb9e0df8	-0.0048234425
88	0xbd2095eb	-0.039205473
89	0x3c4b711c	0.012417104
90	0x3cb3c530	0.021944612
91	0x3b163bef	0.0022923907
92	0x3c29cf63	0.010364386
93	0x3c1af536	0.009457877
94	0xbd0bcce1	-0.034130935
95	0xba87d61b	-0.0010363491
96	0x3be85efb	0.0070914007
97	0xbdce15a1	-0.10062719
98	0xbd01daa2	-0.031702645
99	0xbc5a8b07	-0.013338811
100	0xbca92dab	-0.020651659
101	0xbd14a1d5	-0.036287148
102	0x3c2012a9	0.009770074
103	0xbd18b14b	-0.037278455
104	0xbc56a026	-0.013099706
105	0xbbc18265	-0.005905437
106	0x3dbe9019	0.09304828
107	0xbcd39e7e	-0.02583241
108	0xbcd91555	-0.02649943
109	0xbccde1b8	-0.025132045
110	0x3bdb3bd8	0.0066904835
111	0x3c7ae0cd	0.015312386
112	0x3b4fe7db	0.003172389
113	0xbbcbb9ac	-0.006217202
114	0xbd0f371f	-0.034964677
115	0x3d221457	0.03957018
116	0xbd50067f	-0.050787445
117	0xbce253f1	-0.027627917
118	0xbd0930f4	-0.03349395
119	0xbc9d8167	-0.019226743
120	0xbd32d39f	-0.04365885
121	0x3bf70020	0.0075378567
122	0xba94cd86	-0.0011352755
123	0x3ac12fc7	0.001473897
124	0xbbd7e529	-0.0065885973
125	0x3c3a964e	0.0113883745
126	0xbd90ff6f	-0.0707997
127	0xbc1f7cd6	-0.009734353
128	0xbc8add1c	-0.016951136
129	0xbd3f8391	-0.04675633
130	0xbd217d4f	-0.039426144
131	0xbca6edfa	-0.020377148
132	0xbcf359f1	-0.029705973
133	0xbc0deff2	-0.008663164
134	0xbc47b87b	-0.01218998
135	0xbb801f2e	-0.003909967
136	0xbcc805b0	-0.024416775
137	0xbd26ed38	-0.040753573
138	0x3ccca876	0.024982672
139	0x3c87e9ce	0.016590979
140	0x3bd524db	0.0065046377
141	0x3bede8e3	0.0072604283
142	0xbd18c1d4	-0.037294224
143	0xbd326e43	-0.043562185
144	0xbd7ecd0f	-0.062207278
145	0xbabd8b1b	-0.0014461012
146	0xba4ba269	-0.00077680364
147	0xbcceaaf5	-0.025228003
148	0xbd29e1aa	-0.041474976
149	0xbd8d7864	-0.06907728
150	0x3cc32425	0.023820946
151	0x3d0f8b80	0.035045147
152	0x3b308040	0.0026931912
153	0xbb2377c3	-0.002494321
154	0xbce8da46	-0.028424393
155	0xbbe23f6c	-0.006904533
156	0x3c7241a2	0.014786156
157	0x3d2dc4a5	0.042423863
158	0x3cd3d0b5	0.025856355
159	0xbd14a411	-0.03628928
160	0xbcb228fd	-0.02174806
161	0x3cd9a48a	0.026567716
162	0x3a65f02d	0.0008771446
163	0xbd25b85e	-0.04045903
164	0x3cef9bfc	0.029249184
165	0xbd757370	-0.059924543
166	0xbaee29d3	-0.0018170424
167	0xbd24e6f0	-0.0402593
168	0xbbc0edb6	-0.0058877124
169	0x3c8be9d5	0.017079273
170	0x3c4df296	0.012570044
171	0xbd05573f	-0.032553907
172	0x3ca9c73e	0.020724889
173	0x39b6a761	0.00034838452
174	0xbd25fdc5	-0.040525217
175	0xbd064483	-0.03278018
176	0x3d096202	0.033540733
177	0xbc16b04a	-0.009197304
178	0xbd631622	-0.05544103
179	0xbc19c94f	-0.009386375
180	0x3c503298	0.012707375
181	0x3bbbc1f3	0.0057299077
182	0xbd18045c	-0.037113532
183	0xbd20b15c	-0.039231643
184	0x3d0b435f	0.033999797
185	0x3ba3deaa	0.005000909
186	0xbcfc55b3	-0.030802583
187	0xba62edf0	-0.0008656671
188	0xbd2741f6	-0.04083439
189	0xbc71fe58	-0.014770113
190	0x3b1a4676	0.0023540533
191	0x3d5a0efa	0.05323694
192	0xbb4832a0	-0.0030547753
193	0xbcc49987	-0.023998989
194	0xbc4e8103	-0.012604001
195	0xbc821772	-0.01588032
196	0x3bd38db1	0.0064561
197	0x3cffe50c	0.031237148
198	0xbc8e65c7	-0.017382516
199	0xbc72217b	-0.01477849
200	0x3cbebc49	0.02328314
201	0xbc57f209	-0.013180264
202	0xbd8a717f	-0.06759929
203	0xbca59c7d	-0.020216221
204	0xbba2a805	-0.004963877
205	0xbc73d6f5	-0.014882793
206	0x3d03b004	0.032150283
207	0xbcb46597	-0.022021098
208	0xbc946830	-0.018116087
209	0x3bce788c	0.0063009914
210	0x3cc984b7	0.024599416
211	0x3d6650c9	0.056229386
212	0x3cbc84b0	0.02301249
213	0xbcb86868	-0.022510722
214	0xbcd5ed73	-0.026114201
215	0xbcd341ad	-0.025788153
216	0x3c287e9f	0.010284095
217	0xbcc6d2ee	-0.024270501
218	0x3c91fa6b	0.017819604
219	0xbccf5f00	-0.025313854
220	0xbbe31285	-0.006929698
221	0x3ce1ccd5	0.027563492
222	0xbb9fafa9	-0.0048732352
223	0xbc94822b	-0.018128475
224	0xbc9de375	-0.019273499
225	0x3cbb89e8	0.022892907
226	0xbb0d5952	-0.0021568132
227	0xbce185ba	-0.027529586
228	0xbb9b5377	-0.0047401744
229	0x3ca47677	0.02007602
230	0xbd2d3a38	-0.04229185
231	0xbb86d6a6	-0.0041149436
232	0xbcda04d5	-0.026613632
233	0xbd0d9b80	-0.034572124
234	0xbd13b8f8	-0.03606507
235	0xbd3fb1ce	-0.046800427
236	0x3c82b8a3	0.015957182
237	0x3d01abed	0.0316581
238	0xbb90a303	-0.0044139638
239	0x3baa4518	0.005196225
240	0xbb1af2bc	-0.0023643216
241	0xbc0b8243	-0.0085149435
242	0xbd06bd2e	-0.03289526
243	0xbd18fcd5	-0.037350494
244	0x3ae350cb	0.0017342804
245	0xbc901097	-0.017586036
246	0xbca9fda9	-0.020750837
247	0xbc5cf26c	-0.013485532
248	0xbcdc94bd	-0.026926393
249	0xbbc73620	-0.0060794502
250	0xbc1f0cd7	-0.009707651
251	0x3cebeaba	0.02879845
252	0x3c5e1b2c	0.013556283
253	0xbc272019	-0.010200524
254	0xbd6f8df4	-0.058484986
255	0xbbd5d768	-0.0065259226

action_model._continuous_distribution.log_sigma f4 [1, 2]
0	0xbed0fd75	-0.40818372
1	0xbedd2c03	-0.4319764

action_model._continuous_distribution.mu.weight f4 [2, 256]
0	0xbd2287e2	-0.03968037
1	0xbd235442	-0.039875276
2	0x3c527e00	0.012847424
3	0xbd247722	-0.040152676
4	0xbd12425b	-0.035707813
5	0xbdaace79	-0.08340163
6	0xbd09a99e	-0.033609025
7	0x3ca4a756	0.020099323
8	0x3b7d83f3	0.0038683384
9	0x3d3e7f32	0.04650802
10	0xbd493268	-0.049120337
11	0x3d841c10	0.06450665
12	0xbd4804c2	-0.048832662
13	0x3c8362bb	0.01603829
14	0x3d25e083	0.040497314
15	0x3db11af5	0.0864772
16	0x3c716b42	0.014735045
17	0x3c3b32e5	0.011425708
18	0xbd14ac11	-0.036296908
19	0xbd246324	-0.04013361
20	0x3d3136cc	0.04326515
21	0xbdb802bf	-0.08984899
22	0xbc9636cc	-0.018336676
23	0x3cbc1dd7	0.022963447
24	0xbdc624f8	-0.0967502
25	0xbd89cac6	-0.06728129
26	0xbd315c27	-0.043300774
27	0x3c4227ac	0.011850279
28	0xbc424366	-0.011856889
29	0xbd0e2e6b	-0.034712236
30	0x3ce6130e	0.028085258
31	0xbcca3b91	-0.024686607
32	0x3d46d57e	0.048543446
33	0xbdcf537a	-0.10123344
34	0xbd51da5d	-0.051233638
35	0xbd607eda	-0.054808475
36	0xbdce337a	-0.10068412
37	0x3ba3a8fc	0.0049945097
38	0xbba40ac7	-0.0050061676
39	0xbcfcd8f6	-0.030865174
40	0xbd375e8a	-0.044767894
41	0x39dd647c	0.00042227271
42	0x3dbc0a2d	0.091816284
43	0xbdbd34e4	-0.09238604
44	0xbe0278a2	-0.1274133
45	0xbc9c7f41	-0.019103648
46	0x3c18102d	0.0092812
47	0x3d18c52a	0.037297405
48	0xbd636c67	-0.055523302
49	0xbda63a29	-0.08116562
50	0xbcca3801	-0.024684908
51	0xbd269895	-0.040672857
52	0xbd05aadb	-0.032633644
53	0xbd7c8438	-0.06164953
54	0xbdb57a2f	-0.08861195
55	0xbd2f7c99	-0.042843435
56	0xbb7695b5	-0.0037625853
57	0xbd4754f7	-0.048665013
58	0xbde30e64	-0.11086729
59	0x3b9192cb	0.004442548
60	0xbd0d2539	-0.034459326
61	0x3e1586ec	0.1460225
62	0xbdee7346	-0.116430804
63	0x3d33e78c	0.043921992
64	0xbdce0665	-0.100598134
65	0xbdec4ae2	-0.1153772
66	0x3c96ad7a	0.018393267
67	0xbd8f2145	-0.069887675
68	0xbd0e36ec	-0.034720346
69	0xbddb1442	-0.10697223
70	0xbb5bb449	-0.0033524206
71	0xbd245ee8	-0.040129572
72	0xbe046e8d	-0.12932797
73	0xbd397b05	-0.045283336
74	0x3ced0840	0.028934598
75	0x3d3fa60e	0.04678922
76	0xbbbc7b6f	-0.005752019
77	0xbc3982a2	-0.011322649
78	0xba805204	-0.0009790068
79	0xbd678054	-0.056518868
80	0xbc255c3d	-0.010092792
81	0xbdeca0f9	-0.115541406
82	0x3d33d2ff	0.043902393
83	0x3c441b6a	0.011969427
84	0xbda1c330	-0.07898557
85	0xbc268402	-0.010163309
86	0xbc570148	-0.013122864
87	0x3cc99398	0.024606511
88	0xbcdaa6b8	-0.026690826
89	0xbb0e1e80	-0.002168566
90	0xbbc5b447	-0.0060334536
91	0xbc120f24	-0.008914743
92	0x3d59f2dd	0.053210128
93	0x3afcfc0e	0.0019301192
94	0xbcac5151	-0.021034868
95	0xbc6686b1	-0.014070199
96	0x3ca1ea20	0.01976496
97	0xbd01fe23	-0.031736504
98	0xbd2a954b	-0.041646283
99	0x3db644bd	0.088998295
100	0x3d9d59c5	0.07683138
101	0xbd1c7788	-0.03819993
102	0x3cdaa80a	0.026691455
103	0xbd4b44b0	-0.049626052
104	0xbdda4354	-0.10657373
105	0xbd1187ee	-0.035530023
106	0x3d8971ab	0.067111336
107	0xbd5cd9df	-0.053918716
108	0xbcc5c54d	-0.024141932
109	0xbd55b128	-0.052170902
110	0xbc3c33cc	-0.011486959
111	0x3c64acf2	0.013957249
112	0x3d00e7a4	0.03147091
113	0x3b3f244c	0.0029165922
114	0xbda26314	-0.07929054
115	0x3deaf3d2	0.11472286
116	0xbcc436b5	-0.023951868
117	0x3d6fc560	0.05853784
118	0xbd8affbe	-0.0678706
119	0xbc7b569b	-0.015340473
120	0x3d4ca639	0.04996321
121	0xbd15fefb	-0.03662012
122	0x3bfb2836	0.0076647056
123	0xbc359341	-0.011082471
124	0x3cb6069a	0.022219945
125	0x3d97f9cd	0.074206926
126	0xbc0ab28e	-0.008465422
127	0xbda8b4f5	-0.0823764
128	0xbda3a0da	-0.079896644
129	0x3c901e55	0.017592588
130	0xbdbc6b72	-0.09200181
131	0xbd12d787	-0.035850074
132	0xba60bba4	-0.00085728825
133	0xbc3d31b5	-0.011547496
134	0xbd013a92	-0.031549998
135	0x3c5e918d	0.013584507
136	0xbd087aaf	-0.033320125
137	0xbcf759fb	-0.030194273
138	0x3c8edc2e	0.017438974
139	0x3bc31b36	0.0059541715
140	0x3d51525e	0.051103942
141	0x3c6d3e3b	0.014480169
142	0x3c50422f	0.012711092
143	0xbc48e29a	-0.012261057
144	0xbc8ef77e	-0.017451998
145	0x3b6848fd	0.0035443895
146	0xbd96568f	-0.073407285
147	0xbd53b83c	-0.05168937
148	0xbcde78d0	-0.027157217
149	0x3d110a4d	0.035410214
150	0xbc4d2eac	-0.0125233345
151	0xbc4cee8a	-0.012508044
152	0xbcd4e29a	-0.025986958
153	0xbc2439bb	-0.01002353
154	0xbc5a4cfb	-0.013324018
155	0xbdd32f51	-0.10311759
156	0x3ba633bf	0.0050720866
157	0x3dedc8ae	0.11610542
158	0x3ca02b3e	0.01955187
159	0xbdb24c91	-0.0870601
160	0xbd92394b	-0.07139834
161	0x3de4c107	0.111696295
162	0xbce9f919	-0.028561162
163	0xbd502312	-0.050814696
164	0x3d75b975	0.05999132
165	0xbc43f7fd	-0.0119609805
166	0x3c194b2b	0.0093563
167	0xbd6dbda2	-0.058042176
168	0xbb2a417a	-0.0025978968
169	0xbbb467ec	-0.0055055525
170	0xbd0da1f8	-0.034578294
171	0xbcb4f22a	-0.02208813
172	0x3c5cad00	0.013468981
173	0x3bf7df98	0.0075644962
174	0xbcdd6769	-0.027026849
175	0xbcacd8a9	-0.021099405
176	0x3bafa8ec	0.005360713
177	0xbd4f6db0	-0.050641716
178	0xbd867b54	-0.06566492
179	0xbd8de84d	-0.069290735
180	0x3c9db615	0.019251863
181	0x39bee603	0.00036410996
182	0x3c008144	0.007843319
183	0xbc802318	-0.015641734
184	0x3c891d93	0.016737735
185	0x3c4a6416	0.012352964
186	0xbd1d854c	-0.0384572
187	0x3ccfca9c	0.025365166
188	0xbd813cfc	-0.0631046
189	0xbcb13abd	-0.021634454
190	0x3ba36568	0.004986454
191	0x3daa78d7	0.083238296
192	0xbda9ce17	-0.08291262
193	0xbdcfed39	-0.101526685
194	0xbcdb45ed	-0.026766742
195	0xbc61738d	-0.01376046
196	0x3db56ae6	0.0885828
197	0x3c7440d0	0.014908031
198	0xbde292cc	-0.110631555
199	0x3c46bfc8	0.012130685
200	0xbc597224	-0.013271842
201	0x3c07fd00	0.008300066
202	0xbad956f9	-0.0016581706
203	0xbd832a91	-0.06404603
204	0x3ce97782	0.028499369
205	0xbbf5a001	-0.0074958806
206	0x3b29f931	0.0025935883
207	0x3c2cdcf7	0.010550729
208	0xbc93214a	-0.01796021
209	0x3c5513ef	0.013005241
210	0x3c82b397	0.015954776
211	0x3d326675	0.043554742
212	0x3c5deb69	0.013544896
213	0x3dbc4e4d	0.09194622
214	0xbdf650b8	-0.12027115
215	0x3b432a25	0.0029779759
216	0xbcd48a39	-0.025944816
217	0xbd61ec83	-0.055157196
218	0x3c4df1ac	0.012569826
219	0xbd864ee8	-0.06558019
220	0xbb0bf4b3	-0.002135557
221	0x3c52c4bd	0.012864289
222	0xbdf65608	-0.12028128
223	0xbd5837a0	-0.052787423
224	0x3bfa0a03	0.007630588
225	0x3c72ad3a	0.014811808
226	0x3cf21406	0.029550564
227	0xbdbc856c	-0.09205136
228	0xbc8a90de	-0.016914781
229	0xbd224e72	-0.039625593
230	0xbd897d93	-0.067134045
231	0xbcf88ba7	-0.030340029
232	0xbda0572c	-0.07829127
233	0xbd07c3d5	-0.033145744
234	0xbc1ce735	-0.009576608
235	0xbd9ec0a9	-0.07751591
236	0xbc50020c	-0.0126958005
237	0x3c9545f7	0.018221838
238	0xbdc5a080	-0.096497536
239	0x3d59b630	0.053152263
240	0x3cbc9f00	0.023025036
241	0xbd0d87f1	-0.034553472
242	0xbd776c66	-0.06040611
243	0xbd6e38ae	-0.058159523
244	0xbc872e34	-0.016501524
245	0x3cedc9e2	0.02902693
246	0xbcd1e194	-0.02562026
247	0x3ca53e53	0.02017132
248	0xbe064bfc	-0.13114923
249	0x3c9c398e	0.019070413
250	0x3cdcdc1d	0.026960427
251	0xbc711c9a	-0.014716292
252	0x3b76d09e	0.0037660967
253	0xbd935e2b	-0.071956955
254	0xbc810464	-0.015749164
255	0xbdcfddfc	-0.10149762

action_model._continuous_distribution.mu.bias f4 [2]
0	0x3cf188cf	0.02948418
1	0x3c4852d3	0.012226778

action_model._discrete_distribution.branches.0.weight f4 [2, 256]
0	0xbcb9c9f2	-0.022679303
1	0x3dcc86f8	0.09986681
2	0x3e92067e	0.28520578
3	0x3aaf083d	0.0013353896
4	0x3e382013	0.17980985
5	0x3d5ee1b3	0.054414462
6	0x3b362f48	0.0027799178
7	0x3db1da6f	0.08684241
8	0x3ded1896	0.11576955
9	0x3c75eae1	0.015009613
10	0x3ccd0302	0.025025848
11	0xbca92275	-0.020646313
12	0xbd1ccaf3	-0.038279485
13	0xbbdbf983	-0.0067130937
14	0x3ccfa275	0.02534602
15	0x3ce7964d	0.028269911
16	0x3e85cf9e	0.26134962
17	0x3d9daf63	0.07699468
18	0xbd6caa8b	-0.05777983
19	0xbd8c132e	-0.06839596
20	0x3d0e95d4	0.034810856
21	0xbe5ac3a2	-0.2136369
22	0xbcfe984d	-0.031078482
23	0x3de29cf5	0.110650934
24	0xbb7d47ec	-0.0038647605
25	0x3cbd9d59	0.023146318
26	0xbdc5bf37	-0.09655612
27	0x3d5ce469	0.053928766
28	0x3dea212c	0.11432108
29	0xbde432d4	-0.11142507
30	0x3d27efba	0.041000105
31	0x3d69a1f0	0.0570392
32	0xbcfacd73	-0.030615544
33	0xbdfdd967	-0.12394982
34	0xbdfb8390	-0.12280953
35	0xbc5c87ff	-0.013460158
36	0xbd61cf61	-0.055129413
37	0xbc51bf1d	-0.012801913
38	0xba070c4e	-0.0005151675
39	0x3bc8ed12	0.0061317766
40	0x3d2dd86f	0.042442735
41	0x3bc0d5af	0.005884848
42	0xbda7a4a3	-0.08185699
43	0xbd9f49ec	-0.07777771
44	0x3dca709f	0.09884762
45	0xbd18ca80	-0.037302494
46	0x3ddeb4e4	0.10874346
47	0xbe4de2f4	-0.20106107
48	0x3ce36a54	0.027760662
49	0xbd40e3b5	-0.04709216
50	0xbc10f435	-0.008847286
51	0x3e034751	0.12820174
52	0x3d8375d0	0.06418955
53	0xbd223040	-0.039596796
54	0x3d9d352a	0.07676156
55	0x3d891f0a	0.06695373
56	0x3d7087d9	0.058723304
57	0x3c861144	0.016365655
58	0xbd9634cf	-0.07334291
59	0x3d287d60	0.041135192
60	0x3df4ca9a	0.11952706
61	0x3d0d90df	0.034561988
62	0x3cd69e41	0.026198508
63	0x3bb558b1	0.0055342545
64	0xbc9f1115	-0.019417325
65	0x3dabee4e	0.083950624
66	0xbd149a18	-0.036279768
67	0xbcc7e577	-0.02440141
68	0x3c048173	0.008087504
69	0x3ccb3364	0.024804778
70	0x3b9c6128	0.004772324
71	0x3db2cf56	0.087309524
72	0xbe62716d	-0.22113581
73	0x3dc6c56f	0.09705626
74	0xbda3e574	-0.08002749
75	0xbe231561	-0.15926124
76	0xbd3d1cee	-0.046170168
77	0x3dc642db	0.096807204
78	0x3e5e17c4	0.21688753
79	0xbd41c942	-0.047311075
80	0x3de5268f	0.11188995
81	0xbd8f91f8	-0.07010263
82	0xbda262c1	-0.07928992
83	0x3e1853cd	0.14875717
84	0x3a8516d9	0.0010153904
85	0xbdad69cb	-0.08467444
86	0xbb01fd61	-0.0019834863
87	0x3d78ceb9	0.06074402
88	0x3d9953e9	0.07486708
89	0x3e397d8b	0.18114297
90	0x3d31d507	0.04341605
91	0x3e5d3736	0.21603093
92	0xbcf41ccd	-0.02979889
93	0x3e687c8e	0.22703764
94	0xbd136acc	-0.03599052
95	0xbc4210f4	-0.011844862
96	0xbbe269f8	-0.006909605
97	0xbe00d5d3	-0.12581567
98	0x3d9cbfd3	0.07653775
99	0x3d6ce311	0.057833735
100	0xbd8eb504	-0.0696812
101	0x3ae43e68	0.0017413618
102	0x3e2104ba	0.1572446
103	0xba899b7b	-0.0010498607
104	0xbd7e57f7	-0.06209561
105	0x3da30e47	0.079617076
106	0xbd18a52f	-0.037266906
107	0xbdf00908	-0.117204726
108	0xbc70299a	-0.014658356
109	0xbda06275	-0.07831279
110	0xbe03d14a	-0.12872806
111	0x3e2f8b8e	0.1714308
112	0x3d5a7ef0	0.053343713
113	0xbd07c23c	-0.03314422
114	0xbce74c37	-0.028234584
115	0xbd0ebaaa	-0.034845985
116	0xbe461150	-0.19342542
117	0xbdecebda	-0.115684226
118	0xbe0187e2	-0.12649491
119	0x3c05d503	0.008168462
120	0xbbd0d001	-0.0063724522
121	0xbd31f27d	-0.043444145
122	0x3e19052f	0.14943384
123	0x3dc0cf16	0.094144985
124	0xbcb1f841	-0.021724822
125	0xbde695d0	-0.11259043
126	0xbd85fced	-0.065423824
127	0x3cdb63e6	0.026781034
128	0xbdf8fd53	-0.12157693
129	0x3c4a521b	0.012348677
130	0xbd80c5cf	-0.06287729
131	0x3c856673	0.016284203
132	0xbd63c7ed	-0.055610586
133	0x3dd92ed3	0.10604634
134	0x3daf970c	0.08573732
135	0x3def6608	0.11689383
136	0x3d19bc17	0.037532892
137	0xbd8d8c90	-0.06911576
138	0x3eb8f64a	0.36125404
139	0x3e5b23d0	0.2140038
140	0x3dd0b8e3	0.10191514
141	0x3e3623ce	0.17787096
142	0x3b93f479	0.0045152274
143	0xbd4618e6	-0.04836359
144	0xbdcdd77d	-0.10050867
145	0x3ddc5c46	0.10759787
146	0x3d0a41bd	0.0337541
147	0x3db49589	0.08817584
148	0xbd845b46	-0.064627215
149	0xbd9523f0	-0.07282245
150	0xbc9429c9	-0.018086331
151	0xbcc40ea4	-0.023932762
152	0xbcf66191	-0.03007582
153	0x3dcaac70	0.09896171
154	0x3d9b4bac	0.07582793
155	0x3d2af166	0.04173412
156	0x3e06c2ee	0.13160297
157	0x3b64cd7e	0.0034912522
158	0x3e859116	0.26087254
159	0xbd1df1f9	-0.03856084
160	0xbcb4df2f	-0.022079078
161	0x3d4a7a05	0.049432773
162	0xbd8feee5	-0.070279874
163	0xbdad1af9	-0.0845241
164	0xbd811e53	-0.06304612
165	0xbdaa4b8f	-0.08315193
166	0x3dcf24af	0.10114419
167	0x3cfbe23c	0.030747525
168	0x3d190da7	0.037366536
169	0x3dadb70e	0.084821805
170	0x3c30e0cf	0.010795786
171	0x3c96037a	0.018312205
172	0x3d02f224	0.031969205
173	0x3e91ea1c	0.28498924
174	0x3d0702e6	0.03296175
175	0xbd95e4ea	-0.073190525
176	0x3ea16de7	0.3152916
177	0x3d571095	0.05250605
178	0xbd4ae791	-0.049537245
179	0x3d643125	0.05571093
180	0x3ccccd2a	0.025000174
181	0x3e26e8fc	0.16299814
182	0xbe2db747	-0.16964446
183	0x3e0fee55	0.1405576
184	0xbdcfa6ac	-0.10139212
185	0x3d892d44	0.06698087
186	0xbdd10ccf	-0.10207521
187	0x3e316cfc	0.1732673
188	0x3c928f41	0.017890574
189	0x3d86b7df	0.065780394
190	0x3e546319	0.20740928
191	0xbe06bfef	-0.13159154
192	0x3d95f85f	0.07322764
193	0xbd68a8a1	-0.056801442
194	0xbd2b2460	-0.041782737
195	0x3a70aa50	0.0009180652
196	0x3d949f62	0.07256962
197	0x3eb48bd3	0.35262927
198	0x3d85f59f	0.06540989
199	0x3e4d6aa8	0.20060217
200	0x3d5de1a9	0.054170284
201	0x3d05b729	0.03264538
202	0xbe2ab668	-0.16671145
203	0xbde91ef9	-0.11382861
204	0xbde0b93e	-0.10972832
205	0x3d3909a0	0.045175195
206	0x3d6b224e	0.057405762
207	0x3e20ee15	0.15715821
208	0x3dccf52c	0.100077
209	0x3e15a830	0.1461494
210	0x3e401007	0.18756114
211	0x3d886d4b	0.06661471
212	0x3cd29e9f	0.025710402
213	0xbd0f8945	-0.03504302
214	0xbd8e70da	-0.069551185
215	0x3b5b1dea	0.0033434578
216	0xbdcf6a38	-0.101276815
217	0xbc90a8d5	-0.01765863
218	0x3e90de0c	0.28294408
219	0x3c7b04e6	0.015320992
220	0x3d9db234	0.07700005
221	0x3d8983e2	0.06714608
222	0xbd526bcc	-0.051372334
223	0xbe17e434	-0.14833146
224	0x3cb282a1	0.021790804
225	0xbcf9581b	-0.03043752
226	0xbdba7643	-0.09104588
227	0xbd9b3b69	-0.07579691
228	0x3d214d4c	0.039380357
229	0xbd8d6395	-0.069037594
230	0xbcc9558e	-0.024576928
231	0xbd0c8896	-0.034309946
232	0xbdece032	-0.11566199
233	0xbbb5ab67	-0.0055441144
234	0xbcc9cb15	-0.02463297
235	0xbcc1b86b	-0.023647508
236	0x3e3944f0	0.18092704
237	0x3d048279	0.03235099
238	0xbdc73120	-0.09726167
239	0x3d226cf9	0.039654706
240	0x3e666c0d	0.22502156
241	0x3d933c81	0.071892746
242	0xbd2a6a65	-0.041605372
243	0x3b424303	0.0029641993
244	0x3dd4e18b	0.103945814
245	0xbc9ec776	-0.01938222
246	0x3e21105a	0.15728894
247	0x3e142455	0.14466985
248	0xbcd89617	-0.026438756
249	0xbde1c5e1	-0.110240705
250	0x3e474fe4	0.1946407
251	0x3e3bc9da	0.18338719
252	0x3dd6f59f	0.10496067
253	0xbc99a3f6	-0.01875494
254	0xbdc62edf	-0.09676909
255	0x3cb96acc	0.022633933

action_model._discrete_distribution.branches.0.bias f4 [2]
0	0x3dc7e7fa	0.09761043
1	0xbdc7e403	-0.09760287

action_model._discrete_distribution.branches.1.weight f4 [2, 256]
0	0xbdbb3b51	-0.09142173
1	0xbcf6f17e	-0.03014445
2	0x3c6570b7	0.014003924
3	0x3da67e94	0.081296116
4	0x3d792100	0.060822487
5	0xbe232f7d	-0.15936084
6	0x3b852ccc	0.004064178
7	0x3dd6d7d8	0.10490388
8	0x3b9231ed	0.004461518
9	0xbc4a2137	-0.012337021
10	0x3d81f9c0	0.06346464
11	0xbd2e260d	-0.042516757
12	0x3d0ac108	0.033875495
13	0xbddd76f9	-0.10813708
14	0x3dadded3	0.08489766
15	0xbe323db9	-0.17406358
16	0x3c79feed	0.015258533
17	0x3d94318d	0.072360136
18	0x3dbf9c3e	0.09355973
19	0x3cf248a6	0.029575657
20	0x3d148835	0.03626271
21	0xbc409675	-0.011754622
22	0x3cd13510	0.025537997
23	0x3ca97612	0.020686183
24	0x3b765969	0.0037589914
25	0x3d269a99	0.04067478
26	0xbd93e674	-0.0722169
27	0xbd642238	-0.055696696
28	0x3db63241	0.08896304
29	0xbdb3c29a	-0.08777352
30	0xbd66bc56	-0.056331955
31	0xbd9f60d4	-0.077821404
32	0xbde6b5c4	-0.11265138
33	0x3e462318	0.19349325
34	0xbd2ca73e	-0.042151682
35	0xbbd4727b	-0.0064833737
36	0x3d3111dc	0.043229923
37	0xbd3bce60	-0.04585111
38	0x3e179fe8	0.14807093
39	0xbb72ad3e	-0.003702953
40	0x3d66e06c	0.05636637
41	0xbdb9e72d	-0.090772964
42	0xbc607ff0	-0.013702378
43	0x3b94b5ce	0.0045382744
44	0xbb9de915	-0.0048190453
45	0xbdf16b50	-0.11788046
46	0xbd163451	-0.036670987
47	0xbdbadcd2	-0.091241494
48	0x3d49a421	0.04922879
49	0xbdce3649	-0.10068948
50	0xbbc18c44	-0.0059066135
51	0xbbb02007	-0.0053749117
52	0x3d98e696	0.07465856
53	0x3da224e0	0.079171896
54	0xbd80b37c	-0.06284234
55	0xbdd1da62	-0.10246731
56	0x3bde86a0	0.006790951
57	0xbd5139f0	-0.051080644
58	0xbb20f0d7	-0.0024557614
59	0xbd419887	-0.047264602
60	0xbb1479cf	-0.0022655611
61	0xbdbdf29c	-0.0927479
62	0xbd416d3f	-0.047223326
63	0x3e769077	0.24078546
64	0xbe075069	-0.13214268
65	0x3ae7d271	0.0017686618
66	0x3e13c139	0.14429177
67	0xbd95ea8d	-0.07320128
68	0x3de9d72b	0.11417993
69	0xbda1ca0e	-0.07899867
70	0xbd555166	-0.05207958
71	0x3d7e78e8	0.062127024
72	0xbd5cbec7	-0.053892877
73	0xbc87372b	-0.016505798
74	0xbdd6bad6	-0.10484855
75	0xbda2326e	-0.07919775
76	0x3e0ead89	0.13933386
77	0x3ae60df5	0.0017551767
78	0x3cd149a8	0.025547817
79	0xbc2269b2	-0.009912895
80	0x3d88e75e	0.06684755
81	0xbc9c7135	-0.01909695
82	0xbd169df2	-0.036771722
83	0x3c62dd25	0.01384667
84	0xbca2766f	-0.019831864
85	0xbade50f8	-0.0016961386
86	0xbd87e6f5	-0.066358484
87	0x3db5b241	0.0887189
88	0x3be433fd	0.0069642053
89	0x3d599a90	0.053125918
90	0x3dcff1ae	0.101535186
91	0x3c77b13c	0.01511794
92	0xbc712ccf	-0.014720156
93	0x3caa34e9	0.020777183
94	0x3b9af853	0.0047293096
95	0xbd74f405	-0.059803028
96	0xbd5f5335	-0.05452271
97	0xbcb8c483	-0.022554642
98	0xbd89b797	-0.0672447
99	0xbd67d45d	-0.05659901
100	0xbcdba9d2	-0.026814375
101	0xbc7ddcf7	-0.015494577
102	0xbcdf44f2	-0.027254555
103	0xbcd2b91c	-0.025723033
104	0xbd19e56a	-0.037572302
105	0xbd52bdef	-0.051450666
106	0x3e1a278e	0.15054151
107	0x3d9b905b	0.07595893
108	0x3c9cb2d8	0.019128248
109	0x3cf4cc82	0.029882673
110	0xbd0f70f9	-0.03501985
111	0x3d109ae6	0.035303973
112	0x3d1ddbf9	0.03853986
113	0x3d03ccc4	0.0321777
114	0xbde2ef47	-0.11080795
115	0x3db23db7	0.087031774
116	0xbcbb0078	-0.022827372
117	0xbdda3f3c	-0.10656592
118	0xbdf41205	-0.119174995
119	0xbd264694	-0.040594652
120	0xbdb0715b	-0.08615371
121	0x3d14538b	0.036212485
122	0x3c9182a7	0.017762495
123	0x3dedabd8	0.11605042
124	0xbdeb430c	-0.114873976
125	0xbca762fa	-0.020432938
126	0xbd9f17d7	-0.07768219
127	0xbd4ecf39	-0.05049059
128	0xbdf5098f	-0.11964714
129	0x3d938635	0.07203332
130	0xbd0ed8e2	-0.034874804
131	0x3c9d8127	0.019226624
132	0xbcc79544	-0.024363168
133	0x3d8111c1	0.063022144
134	0xbb278330	-0.0025560372
135	0x3dc16e5a	0.09444876
136	0x3d37b87e	0.04485368
137	0xbcf4f592	-0.029902253
138	0xbb7f791f	-0.0038982106
139	0x3d0a3141	0.03373838
140	0x3dc85aea	0.097829655
141	0x3c93f0a8	0.01805909
142	0xbd9bf0cd	-0.076142885
143	0x3cd5d382	0.026101831
144	0xbdaa99c9	-0.083301134
145	0x3d831853	0.06401124
146	0x3da55b71	0.08074082
147	0xbd066cdc	-0.03281866
148	0xbda6bec0	-0.081418514
149	0xbe45adf3	-0.19304638
150	0x3d9a206a	0.07525714
151	0x3e692e75	0.22771628
152	0xbcda5105	-0.026649961
153	0x3d37e4f1	0.04489607
154	0x3d26bc4e	0.040706925
155	0xbd9324c9	-0.071847506
156	0x3d3b8b7c	0.04578732
157	0x3e0008e8	0.12503397
158	0x3d2236e8	0.039603144
159	0x3c563404	0.013073925
160	0xbd7fba83	-0.06243373
161	0x3d98e5ee	0.074657306
162	0x3e4f2def	0.20232366
163	0xbd948135	-0.07251207
164	0x3dfee996	0.12446897
165	0xbd10a268	-0.035311133
166	0x3d916631	0.070995696
167	0xbd961434	-0.07328072
168	0x3b831b9c	0.004001094
169	0x3dae745a	0.08518286
170	0x3e101b98	0.14073026
171	0x3c15a6a2	0.009133967
172	0x3d72137f	0.059100624
173	0xba4d7089	-0.00078368984
174	0xbd42e080	-0.04757738
175	0xbdee183a	-0.116257146
176	0xba2c5d7e	-0.0006575211
177	0xbe01dae6	-0.1268116
178	0xbd0ffb0b	-0.035151523
179	0xbcd8a996	-0.026448052
180	0x3d1c79ae	0.03820198
181	0x3d0aaf23	0.03385843
182	0xbd431cd4	-0.047634915
183	0xbdbbec0c	-0.09175882
184	0xbccbf4d8	-0.024897024
185	0x3c568f80	0.0130957365
186	0x3cb23af9	0.021756636
187	0xbceeec34	-0.029165365
188	0x3cfa11e6	0.030526113
189	0x3d138a3e	0.03602051
190	0x3d4d6308	0.05014327
191	0xbe22f8d5	-0.15915234
192	0x3dcf0f3e	0.10110329
193	0xba9a5b34	-0.0011776448
194	0xbc1da037	-0.009620718
195	0x3d65e235	0.05612393
196	0xbd28f394	-0.04124792
197	0x3cd3d4f9	0.02585839
198	0x3cc5e909	0.024158971
199	0xbcedeebc	-0.029044501
200	0x3e259c5a	0.16172925
201	0x3daf0c0b	0.08547219
202	0xbd717c35	-0.058956344
203	0xbc459f94	-0.012061972
204	0xbdf232c3	-0.11826088
205	0x3d21ab82	0.039470203
206	0x3e3b3c0a	0.18284622
207	0xbaf338ce	-0.0018556358
208	0xbd8acab4	-0.06776944
209	0x3d01ec6c	0.03171961
210	0x3d4e6752	0.050391503
211	0x3e4729dd	0.19449563
212	0x3e473fa5	0.19457872
213	0xbdd0a830	-0.10188329
214	0xbd6fdc5b	-0.058559757
215	0xbba3ad14	-0.0049949978
216	0xbdc9109e	-0.098176226
217	0xbc26292d	-0.010141653
218	0x3c9a226b	0.01881524
219	0xbd7383ea	-0.059451975
220	0x3e4cf5af	0.20015596
221	0x3dc67542	0.09690334
222	0x3d3459ed	0.044031072
223	0x3cb2ee75	0.02184222
224	0x3c1b0362	0.009461256
225	0xbcfd9037	-0.030952556
226	0xbdc1b6e1	-0.094587095
227	0x3c3641bc	0.011124071
228	0x3e5ba7af	0.21450685
229	0xbdeab594	-0.114604145
230	0xbc673845	-0.014112537
231	0x3db80cc8	0.08986813
232	0xbd5eebef	-0.054424223
233	0xbd0eb928	-0.034844548
234	0xbcc45103	-0.02396441
235	0xbd573b88	-0.052547008
236	0x3d790fc1	0.06080604
237	0x3e230104	0.15918356
238	0xbd58c437	-0.0529215
239	0xbc9f4aa3	-0.01944477
240	0x3c85c155	0.01632754
241	0x3de79ad9	0.11308832
242	0xbd6b2f81	-0.05741835
243	0xbdfe2f0f	-0.124113195
244	0x3d6f4d45	0.0584233
245	0xbcc54779	-0.024081932
246	0x3b533db2	0.0032232818
247	0xbc39ca54	-0.011339743
248	0x3bac0aab	0.005250295
249	0xbe3d8367	-0.18507157
250	0xbceb7a77	-0.02874492
251	0x3e14fdf8	0.14550006
252	0x3d9491fb	0.07254406
253	0xbdddef79	-0.108366914
254	0xbd40c529	-0.047063027
255	0xbd4c9bf3	-0.049953412

action_model._discrete_distribution.branches.1.bias f4 [2]
0	0x3d47f44c	0.048816964
1	0xbd47f37c	-0.04881619
