Assets/ML-Agents/config/results/tank_256hu/AgentTank/AgentTank-5002166.onnx (onnx, 309310 bytes, 12 tensors)

discrete_action_output_shape f4 [1, 2]
00000000: 0000 0040 0000 0040
2.0 2.0

network_body._body_endoder.seq_layers.0.weight f4 [256, 34]
00000000: 7460 0cbe 2e84 9dbe 6393 ea3e 6453 07be
00000010: a91d d03e d7e9 c23e 0f4b eebd 0912 2d3e
00000020: 3ba3 393e 2948 28be b60d 953d d245 9c3d
00000030: 1d1d 3bbf 49d5 903d 937f cb3c 7f9b c13d
00000040: 02a4 5f3e 63cb 61bd 1624 5a3e bcd6 903c
00000050: 7029 80be ed1c af3c eacd 00be 8648 903d
00000060: 6a75 fc3e 3ddc 263f 252e 42be 52d1 61be
00000070: 1365 bfbd dc21 c0bd d820 26bd 7185 593e
00000080: 6b40 7b3e 3445 41be 99d4 013f c14e c03e
00000090: a1c6 debc 0f11 803e d6dc 193e 28de f53d
000000a0: 23a5 7abe 669e a43d eb03 233e f6e4 12be
000000b0: 45a5 f1bd e558 1a3e b357 6ebd da82 123e
000000c0: 92fa dabd eca2 bc3c b373 8a3e a237 a1be
000000d0: 7052 c7bd 1077 75bd 46fb d73d 7ed4 87be
000000e0: 8c85 ec3d 188e 6abe c162 89be ed44 73be
000000f0: 2a7b 053e 7a71 003f e7c7 2c3e 9023 ab3d
00000100: c21a f1bd a417 563e 15c5 abbd dff6 c93e
00000110: bc93 d5be 20a5 3c3e 0045 cd3b 6fde 7f3e
00000120: c0dd 2abe cfcd 913b 3b85 873e b16b d83d
00000130: 5045 02be 4169 66be ebf1 343e 0370 f2bd
00000140: 2b1c d43d 33a5 d73e 50c0 b7bd 4e58 02bf
00000150: a3ba 3ebe ca78 2f3e b65e a6bc b3d0 693d
00000160: a0a5 cd3d b07f 9bbd 0599 bebe 4ea5 b4bc
00000170: 8643 9a3e 570d 0fbe fcba d63d 472f 8dbd
00000180: fa52 903e e0af 20bc bcce 043e e630 023c
00000190: 55ea b83d c921 58bc 018d 8dbd dac5 313d
000001a0: ad98 893d 75a5 93bd fd4a 163e 1ccf 7dbc
000001b0: 1e90 8d3e e66d e9bd 2f1d 2e3e f874 123e
000001c0: 21af 28be 694c 743b 54b1 6bbe 5eeb 203e
000001d0: 00c0 57bc b907 73be 8c15 02bf 2163 cb3c
000001e0: eaa6 ba3e 71ed 223e 1b1e 27bd e9fb 1a3e
000001f0: bbb0 68bd 9e6c c13e b6c0 90bd 720a 8d3e
00000200: 5f31 11be 236a a73d 3bf5 823e f5b0 01bd
00000210: 7d72 c73c b507 e4be 749f 9abe a4af 17bc
00000220: 63d7 873d fa6c 4a3d 4097 843e 3f70 673e
00000230: 3eac 0e3e 2382 d33d 9188 b9bd 506e 2e3e
00000240: df84 c23d a716 d33e c688 e638 c609 ea3d
00000250: 1986 2dbe 2f11 473d 8b38 fa3d 9615 a23e
00000260: 9249 87bd b056 f23e 0eda 823e b5b2 603d
00000270: d5e5 3cbe 75a2 943c cf1d 8dbd 103f 8a3e
00000280: 56f7 88be f020 aa3e c458 993e 8e55 09be
00000290: 34ed f53e 5bd5 f1bd cf42 8cbe 9784 6ebe
000002a0: 69c9 85bc df4d ea3e bbad 30be 6f1b 633e
000002b0: fec7 2ebe 8381 0dbe 611b 3d3d 1f29 00be
000002c0: bb50 c23e ab9a 243d 4251 2f3e 75f4 32be
000002d0: e56d c2bc f96c 103d e474 903e 83aa f63c
000002e0: 9d21 a8be 325b 11be 91c8 a03e cdc6 483d
000002f0: e1cb f23d 53bb 99be 9406 173e 3c99 e63d
00000300: 5ab8 e83d 7973 6d3e 88bd 8cbe ff59 de3d
00000310: fc4d f13e fc7b 8b3e da18 9f3e 3678 773e
00000320: e8ae cbbd 575e b73e e239 24bc b6f7 103f
00000330: 8f4a 78be 49df ac3e 02d3 cabd 3fce 5c3e
00000340: b4dd 783e 720c bf3d 3326 cfbe eb62 16be
00000350: 1831 17be e764 803e d97d 19bd fc1c 3dbe
00000360: 19b6 c8bd 19b7 0d3e 8b07 3d3c e499 743d
00000370: 37f5 233e fd9a 9fbd 7bcd 973d c539 533e
00000380: 6832 03be 5d0f 05be 2778 dd3e 28cc 983e
00000390: 823e 883e 06c6 72be b5ed b83c 9af2 163e
000003a0: 913c 1abe 9f48 9fbe 0aa0 263c 3ed5 453e
000003b0: 2281 28be 56ae 44be 3799 56be 21bc d23c
000003c0: 14f2 edbd 5f70 e9bd 924d 88be d2db c63e
000003d0: e908 183e 8758 d9bc c9f6 5d3e 0284 c4bd
000003e0: 39e4 68bb bf78 f93d 0c9c 94be 0c59 95be
000003f0: f37e 873e b0b4 fb3e 141a 10be d556 a5be
-0.13708669 -0.30764908 0.45815572 -0.13215405 0.4064763 0.3806903 -0.1163541 0.16901411
0.18128674 -0.16433777 0.07278006 0.07630505 -0.730913 0.07071931 0.024841106 0.09453487
0.21839908 -0.055125605 0.21302828 0.017680518 -0.25031614 0.021376098 -0.1257855 0.07045083
0.4930833 0.65179807 -0.18962915 -0.22052506 -0.0934545 -0.09381458 -0.040558666 0.2124231
0.24536292 -0.18874055 0.50715023 0.37560084 -0.027194323 0.25013015 0.15025648 0.120052636
-0.24477057 0.080380246 0.15919463 -0.14345154 -0.11799101 0.15072973 -0.058189105 0.14307728
-0.10692324 0.023026906 0.27041396 -0.31487757 -0.097325206 -0.059928 0.105459735 -0.26529306
0.115489095 -0.22905767 -0.26833156 -0.23756762 0.13035265 0.5017315 0.16873132 0.083563924
-0.11772682 0.20907456 -0.083872 0.3944616 -0.41714275 0.18422365 0.006264329 0.24987195
-0.16686153 0.004449583 0.26468834 0.105674155 -0.12721753 -0.22501089 0.1767041 -0.11837771
0.10356935 0.42118225 -0.089722276 -0.5091599 -0.18625884 0.17135921 -0.020308834 0.057083797
0.10041356 -0.07592714 -0.3722612 -0.02205148 0.3012964 -0.13969932 0.10484883 -0.06893783
0.28188306 -0.009807557 0.12969488 0.007946229 0.0902907 -0.013191649 -0.0691166 0.043401577
0.06718574 -0.07209293 0.14677043 -0.015491273 0.27649015 -0.113979146 0.1700332 0.14302433
-0.16473056 0.003727699 -0.23016864 0.15714785 -0.013168335 -0.23733415 -0.5081413 0.024827542
0.3645547 0.15910889 -0.040800195 0.15135159 -0.05680917 0.3777818 -0.07068007 0.27547032
-0.1417899 0.08174541 0.2557772 -0.0316629 0.024346584 -0.4453713 -0.30199778 -0.009258185
0.06632879 0.049420334 0.25896645 0.22601412 0.13932893 0.10327556 -0.09059251 0.17034268
0.094979994 0.4122822 0.00010992731 0.114276454 -0.16945685 0.048600372 0.12217816 0.31657094
-0.06605829 0.47331762 0.25556988 0.05485793 -0.18447049 0.018143872 -0.06890451 0.27001238
-0.26751202 0.33228254 0.29950535 -0.13411543 0.48032534 -0.118082725 -0.2739472 -0.23292767
-0.016331391 0.45762536 -0.17253773 0.22178434 -0.17068478 -0.13818936 0.04616869 -0.12515686
0.37952217 0.040186565 0.17120841 -0.17476065 -0.023734042 0.035260174 0.2821418 0.030110603
-0.32838145 -0.14194945 0.3140302 0.049017716 0.11855293 -0.3002573 0.14748603 0.11259696
0.11363287 0.2318858 -0.2748835 0.10857009 0.4712981 0.2724303 0.31073648 0.2416695
-0.0994547 0.35814163 -0.010023566 0.56627977 -0.24247192 0.33764103 -0.09903528 0.21563052
0.24303323 0.09328546 -0.4045883 -0.14686172 -0.14764822 0.25076982 -0.037473533 -0.18468088
-0.09800357 0.13839377 0.011537443 0.059717074 0.16011511 -0.077932335 0.07412239 0.20627506
-0.12812197 -0.12994142 0.4325573 0.2984326 0.2661019 -0.23708352 0.022574285 0.14740983
-0.15062167 -0.31110093 0.010169992 0.19319627 -0.1645551 -0.19207129 -0.20956884 0.025724472
-0.11618438 -0.11398386 -0.2662168 0.38839585 0.14847149 -0.026531471 0.21676172 -0.09595491
-0.0035536422 0.121812336 -0.29025304 -0.291695 0.26464042 0.4916129 -0.14072448 -0.3229281

network_body._body_endoder.seq_layers.0.bias f4 [256]
00000000: b977 93bc ced4 583d 663d 3e3d 6edb 7abc
00000010: 916d d43d a347 613d 1bd7 853d 4ffd 13bd
00000020: 0e72 e63d 8cc3 033e 2e82 9d3d 7a49 73bd
00000030: 617d d83c 1990 ce3d 049f fc3c 325f cc3d
00000040: d1b1 9d3d 4ba5 4abc ec14 853d ae15 293e
00000050: faa4 573c 0e89 0e3d f0bb 753c 062e ba3d
00000060: 328e ea3d 9e8b c5bc cace 263c a555 243b
00000070: 05ae 2e3e 3d39 0b3e f014 843d 46ff b1bc
00000080: 50e8 f03d 3a6b 993d 55d4 d03d b833 803d
00000090: 7e08 023d 0129 903d fcb3 cb3d e9f1 c23d
000000a0: eded a73d e388 753d d294 0f3d d6b1 023d
000000b0: 98c9 dc3d 4674 903d 09e6 513d 4bbb 113d
000000c0: 1aba 1dbd 3a47 873d 41d2 843d db39 cf3b
000000d0: 3579 343d 5509 dd3c b4c7 dd3d d5e9 213e
000000e0: 888d 473c 0e34 113e db60 fa3c 8382 383d
000000f0: 01e9 1a3c c1c8 adbc 8450 9e3d 8f38 273d
00000100: 21b9 af3c c938 b73d f4f0 49bd 33b0 793c
00000110: 2e7b de3c 9c95 0d3c 988f 943d 8b24 1b3e
00000120: 7f39 683d 5c08 ccbc 2a5a 75bc 6a91 8fbc
00000130: c585 a63d 57c3 103e 7fa5 c33d d9e5 ebbb
00000140: 1659 dc3c 6559 3e3d 82de 8e3d 5f97 043e
00000150: 79cd 23bd b32c d53c 5633 51bc 0143 093e
00000160: ab12 9fbb 2cd3 263d 175c 53bd 2e09 3fbb
00000170: 3e55 af3d 8d72 8c3d 73f7 9b3d 795c d8bb
00000180: bd51 ba3b 022a e33d 6336 03be 0077 4bbb
00000190: fede fd3d 1e25 e1bb 05e1 913d 6195 c03c
000001a0: 12fd 683d 2953 db3d 3cb9 403d b635 023d
000001b0: 97a1 693d 1d3c b13d 4d97 563d 205d 803d
000001c0: 44cb 593d baed 32bc cf74 89bd a7a3 e03b
000001d0: ca09 4fbc b30f ddbc b5a5 9a3d 2b5f 073e
000001e0: ae8c b43d 7941 063d 9e72 6f3d 3932 b33a
000001f0: 6653 ea3c d5bb 1f3d 7871 223d f450 2f3d
00000200: 88d8 b33d 150f 1b3b 2f4b 183d e9ff fc3c
00000210: 912f 74bd 9b1b 8f3d 7783 25bd 5d08 713d
00000220: 031f 8b3d 7350 fa3d 19f3 2fbd eb79 8e3b
00000230: 979f a03c e0a9 29bb 1582 a73d a269 f4bc
00000240: 78d3 f83d fff7 453d d095 adbb d24e aebc
00000250: 1092 c53d c9b1 003d a3d7 c83d 7890 0b3d
00000260: b938 96bb 9035 733d d8b4 58bd ea29 e53d
00000270: 7da6 ec3d d6b4 683d 06e4 d33d 9f27 aa3d
00000280: 2181 0c3e f21f 693d f34c bdbc f17d 783d
00000290: a729 633e 4438 e43d eab2 3e3d d192 0fbc
000002a0: 271d 973d b280 a53d ac36 493d 248a 843d
000002b0: e2cb d4bb 0a7f e33d 7672 e23c b7a8 6c3b
000002c0: 0ca5 b73d bc70 a83d 3a9a c63d 2f21 c03c
000002d0: 9d1f e63c 29e0 773d b3e4 863d d5b5 203e
000002e0: 4d6e 083e c779 af3d 7856 a13d 0d8c 2fbc
000002f0: 476c 7f3d d67b d13c 701a 433d 2686 963d
00000300: f6b4 383d f56a bb3c 548f 9f3d 5ba4 5d3c
00000310: 38c3 503d da69 053e ae57 483d 3bc4 b93d
00000320: 46e2 373e 981a be3d dbd1 283d 0dc3 b73c
00000330: 710b d8bc a77a 34bc 1909 0a3e 77b5 983c
00000340: d89f 6e3d 3d35 583d f558 373d acc5 3a3d
00000350: 8469 7c3d 36dc f3bb 499a 173e e6b0 57bc
00000360: f12e 4fbc ce9a c43d 7f1a c3bc b686 a63d
00000370: afb1 f23c 000e f33c 9e2b 9d3c 8f1d f5bc
00000380: cf80 1c3d 9900 ba3c b695 95bc 5d60 f23c
00000390: 73e1 e83d d6ea 01bd a0ae 273e 5d4d b63d
000003a0: 0ce3 fa3d 73d2 323e 0066 c53d 1f28 613d
000003b0: d5a8 c9bc 102d 313c 862c af3c 7d2d 2e3b
000003c0: 87f9 383e 00b7 fd3d 17bc f03d 90e9 973d
000003d0: 2e60 213d ef35 9b3d 4654 3b3d dda0 1cbc
000003e0: 0a3d d4bb 82e5 6b3d 70e5 823d 9df3 bf3d
000003f0: 7ddb d93d c16f 503d 3541 993d 695e cf3d
-0.018001424 0.05293732 0.046445273 -0.015311105 0.10372461 0.05499996 0.06535169 -0.036130246
0.11252223 0.12867564 0.076908454 -0.059396245 0.026426973 0.10086078 0.030837543 0.099790946
0.076999314 -0.0123685105 0.06498131 0.16512176 0.013161892 0.034798674 0.014998421 0.090908095
0.11452903 -0.024114426 0.010181138 0.0025075462 0.1705857 0.13596053 0.06449306 -0.02172817
0.1176306 0.07491155 0.10196749 0.062598646 0.03174638 0.07039071 0.09946439 0.09518797
0.081996776 0.059945 0.035054035 0.03190788 0.107806385 0.070534274 0.05124477 0.035579007
-0.03850756 0.06605382 0.06485415 0.0063240356 0.044060905 0.026981989 0.10829106 0.15811856
0.01217974 0.14180014 0.030563762 0.04504634 0.0094549665 -0.021213891 0.07730201 0.040825423
0.021450581 0.08946378 -0.049302056 0.015239763 0.027158346 0.008641627 0.07253951 0.15150659
0.056695458 -0.02490633 -0.01497511 -0.017525394 0.08130983 0.14137016 0.0955305 -0.007199031
0.026897948 0.046471972 0.06976034 0.12948368 -0.039990876 0.02602229 -0.012768587 0.13404466
-0.0048545203 0.040728733 -0.051601496 -0.0029149759 0.085611805 0.06857786 0.076155566 -0.0066028205
0.0056860135 0.11091997 -0.12813716 -0.0031046271 0.12396048 -0.00687088 0.07122997 0.02350873
0.05688197 0.10709221 0.047051653 0.031789504 0.05703887 0.08654044 0.052390385 0.06267762
0.053172365 -0.010920936 -0.067117326 0.0068554464 -0.012636611 -0.026985025 0.07551137 0.13219897
0.08815895 0.032777283 0.058458917 0.0013671584 0.02860422 0.03899749 0.039658993 0.042801812
0.087815344 0.0023660113 0.037181076 0.030883746 -0.059615675 0.06987687 -0.040408578 0.058845866
0.067930244 0.12222376 -0.042956445 0.00434803 0.019607348 -0.0025888607 0.08179108 -0.029835526
0.121497095 0.04833221 -0.0052974 -0.021277819 0.09647 0.03141955 0.098067544 0.034073323
-0.0045843986 0.059377253 -0.05290684 0.11189635 0.115551926 0.056813084 0.103462264 0.083083384
0.13721134 0.05691523 -0.023107981 0.060666982 0.22183858 0.11143544 0.046557344 -0.008763031
0.07378607 0.08081187 0.049124405 0.06471661 -0.0064940313 0.11108215 0.02764247 0.0036111304
0.08967027 0.082246274 0.09697385 0.023453323 0.028091246 0.06051651 0.0658659 0.15694363
0.13323326 0.08568149 0.07877821 -0.010714543 0.06235912 0.025571745 0.047632635 0.073498055
0.045094453 0.02287815 0.077910095 0.013527955 0.050967425 0.1302866 0.048911743 0.09070631
0.1795741 0.09282416 0.04121576 0.022431875 -0.026372643 -0.011015571 0.13480033 0.018641217
0.058257908 0.052785147 0.04476257 0.04559867 0.061624065 -0.0074420227 0.14804949 -0.0131647345
-0.012645469 0.09599839 -0.023816345 0.08131163 0.029625742 0.029669762 0.019185837 -0.029921321
0.03820878 0.022705363 -0.018259864 0.029586965 0.11371126 -0.031718098 0.16375208 0.089014746
0.12250337 0.17463093 0.096385956 0.054969903 -0.024616638 0.010813966 0.021383535 0.0026577406
0.18063937 0.1238842 0.11754625 0.074175954 0.039398365 0.075786464 0.045734666 -0.009559837
-0.006477003 0.057591923 0.06391418 0.093726374 0.10637567 0.050887827 0.074831404 0.10125429

network_body._body_endoder.seq_layers.2.weight f4 [256, 256]
00000000: a022 b93a 8b04 bd3d e8b7 db3d 4d39 0f3e
00000010: 0556 05be 73f8 ee3d 6439 ae3c 2056 a3bd
00000020: b435 a53c 1ec9 433c 90ef 623c d163 083d
00000030: 3223 1fbe f223 d13d a6b1 20be 2f84 2ebe
00000040: ae6a a5be b51b 5dbd 7660 283d 8300 b63d
00000050: c75a 273e 1d09 273e e14b ef3d ac26 f93b
00000060: a92e 5cbe 567f 8dbc fed9 1f3e 4098 f0bd
00000070: c506 173e c113 19be 6bae 16be 0baa 873d
00000080: a47f 3f3e 2fa6 9dbb ff85 36be 8abe 183e
00000090: 39a8 853d c691 31be e791 4b3c c8ff 39bd
000000a0: ceb7 aa3d d522 2dbb 604c 14be e4d3 2e3e
000000b0: d613 0abf a606 1d3d d436 383e f148 013d
000000c0: c78c 82bc a031 09be 29df 09be da6b fd3d
000000d0: 4663 853d bd7b cebd 50ac 4dbe 058f 633c
000000e0: e628 f7bd 5f4c 64bd bf87 10bc 12cb 99bd
000000f0: 718d 963c 840c 30bd fe78 133e 63fb 8bbe
00000100: 10da 373e ae94 b43d 97ac abbd 7f88 423e
00000110: ba49 08be 1b30 73bc 2c25 273e 1d73 b9be
00000120: fa67 843c 1f3d 68bd d424 803c cdce 76be
00000130: 4ab7 f1bd dd7a 053e 1be1 23be 8a7f 43bd
00000140: cc81 eabc 3628 fbba 6fca 993c 0d20 c23c
00000150: e234 a5ba bdee 923d ce10 57be 11b3 bebd
00000160: 24de dc3d 6a19 83bb cb36 993d cf55 de3d
00000170: 3767 e43d 3d04 54bc 4b40 57bb d619 80be
00000180: 3856 f4bd ec14 873d 5f93 cd3d 17bb 8fbd
00000190: 9423 d2bd 0746 30be 60dc f53c 2f02 45bd
000001a0: 1bea 54be c603 fd3d c84f cd3d 1b82 1d3d
000001b0: 6e86 7b3d 47c6 8e3d 8877 9b3d b149 c93e
000001c0: 38fd 10be 57bc 703e 7bad a6be 151f 273a
000001d0: 98f4 1cbe be31 28bd f8b1 2bbe c5e7 5fbe
000001e0: 77b4 1b3e 07b7 40be 24ab 683e 6165 053e
000001f0: 3ac9 593d e734 54bd 734b 313e ba5b 10bd
00000200: e923 fc3d 74bd 623d e48f 81be 3623 363e
00000210: af1b 103d 29a6 1f3e 1787 a2bd ea54 bcbd
00000220: e601 a13d 38dd ebbd 43f2 d93d 3f69 e93d
00000230: 2dc5 bf3d d5da b3bc f799 783e d9b1 333d
00000240: b3a3 133c ad53 9b3d ee34 da3d 1f0d 03bd
00000250: 1452 98bd 6a52 0bbe 4d42 f9bd 1350 9b3d
00000260: e589 88bd 5f08 e5bd cd54 bcbd af19 403d
00000270: ba4d 953e 24d8 e03b 53d1 573e bada 14bc
00000280: 50f7 f03d 6156 38be 055f febd 06db dc3c
00000290: 3383 5a3e 31a9 63bd 1e2e b33d c1ea 2abd
000002a0: fa29 32be 5fc4 b2be 601c e73d 6e84 883d
000002b0: 599a 43be cc19 3f3d a776 703e 0198 043e
000002c0: 98c9 203d d9f6 f43c 5726 683d 5e8d 25be
000002d0: 6672 b93d 2b87 9e39 17e0 15be e216 5e3e
000002e0: 732b 2b3c 1dbb 223d ff1a 8d3e cbbf b33c
000002f0: 5e3e d23d 8ab6 093e 70b8 0dbd 501d 86bd
00000300: 48ed abba 1aa3 0e3e f00e cebc c11f df3d
00000310: a632 10be d2b7 2abe b42e fc3d 3719 adbd
00000320: 0422 dc3d b802 123e 9da9 cd3d 9105 b2bd
00000330: bf92 f13d 5176 f23d 9f14 363e 0ded 41be
00000340: 9656 61bc c449 92bd 60b4 49be 79f8 50be
00000350: 8bbf f93d 86c2 2b3d 9cda 25be c9bc a83d
00000360: 7d43 413e 6fce 4e3d f135 833a 002a 38bd
00000370: 3dda 94be dfd9 bf3d be1e 8abd 820e 923d
00000380: a2ff c939 95cf aabb a99e 21bd 8117 9bbd
00000390: 5588 5ebd 42aa 60be 45ff 96be 526e 063e
000003a0: abee 69be 63d7 a43d e65a 8bbe a317 ae3d
000003b0: d003 80be f80e b53d b6e2 97be c009 633d
000003c0: 8c07 8abd 2dcd adbc 51fa a43d 928e 363e
000003d0: a49e efbc cc4a 1a3e cd00 37be 2fd2 a83d
000003e0: 9785 6e3d 7c0e 123e 321e 923e dead f73d
000003f0: 7b2d 793d 050d 0abd 4901 cfbd e2cd 273d
0.0014124699 0.09229382 0.10728437 0.13986702 -0.13021095 0.11668482 0.0212676 -0.079754114
0.02016721 0.011949806 0.013851061 0.033298317 -0.1554077 0.10211934 -0.15692768 -0.17042612
-0.32307953 -0.0539815 0.041107617 0.08886816 0.16343223 0.1631207 0.11684395 0.007603487
-0.21502174 -0.017272633 0.15610501 -0.117477894 0.14748676 -0.14948942 -0.14714973 0.0662423
0.18701035 -0.0048110704 -0.17824553 0.14916435 0.065262266 -0.17340764 0.012424923 -0.045409948
0.08335839 -0.0026418467 -0.1448226 0.17073017 -0.5393652 0.03833642 0.17989665 0.031563703
-0.015936268 -0.13397837 -0.13464035 0.12374087 0.065130755 -0.10082195 -0.20085263 0.013889079
-0.12068348 -0.055736896 -0.008821427 -0.07509436 0.018377991 -0.042980686 0.14401624 -0.2734023
0.17954278 0.08817421 -0.08382528 0.18997382 -0.13309374 -0.014843012 0.16322774 -0.36220637
0.016162861 -0.056698915 0.015642561 -0.24102326 -0.11802538 0.1303515 -0.1600384 -0.047729053
-0.028626345 -0.0019161764 0.018773286 0.023696924 -0.0012604261 0.07174442 -0.21002504 -0.09311498
0.107845575 -0.0040008323 0.07481154 0.108562104 0.11152499 -0.012940464 -0.0032844718 -0.2501971
-0.119305074 0.065957874 0.100378744 -0.070181064 -0.10260692 -0.17214213 0.03001231 -0.048097786
-0.20792429 0.12354235 0.10024983 0.038454156 0.0614075 0.06971412 0.07591158 0.39314035
-0.14159095 0.23509346 -0.3255423 0.0006375176 -0.1532768 -0.041063063 -0.16767108 -0.21865757
0.1520556 -0.1881982 0.22721535 0.13026954 0.05317042 -0.051808264 0.17313938 -0.035243727
0.12311537 0.055356458 -0.25305092 0.1778687 0.03518265 0.15590729 -0.079359226 -0.091958836
0.0786169 -0.115168035 0.10641911 0.11397027 0.0936378 -0.021954933 0.24277483 0.04387078
0.009011197 0.07584319 0.10654627 -0.031994935 -0.0743753 -0.13605657 -0.12170849 0.07583632
-0.06666926 -0.11183237 -0.09195862 0.046899494 0.29160863 0.0068617035 0.21075945 -0.009085352
0.11765921 -0.18001701 -0.12420467 0.026959907 0.21339111 -0.055581275 0.087490305 -0.041727785
-0.17398825 -0.34915444 0.11284709 0.06665884 -0.19101848 0.04665546 0.23482762 0.1294861
0.039254755 0.029902862 0.05667719 -0.16167209 0.09055023 0.00030236816 -0.14636265 0.21688417
0.010447371 0.039729226 0.2755966 0.02194204 0.10265802 0.1344854 -0.03459972 -0.0654856
-0.001311698 0.13929406 -0.025153607 0.108947285 -0.14081821 -0.16671684 0.123135954 -0.08452075
0.107486755 0.1425885 0.10042117 -0.08692468 0.11795568 0.11838973 0.17781304 -0.18938084
-0.013753554 -0.07142976 -0.19697714 -0.20407285 0.12194737 0.04193356 -0.16196674 0.08239133
0.18873401 0.05048984 0.0010010583 -0.04496193 -0.29072753 0.093677275 -0.06744145 0.071316734
0.0003852817 -0.005212734 -0.03945795 -0.075728424 -0.054329235 -0.21939948 -0.2949163 0.13128021
-0.22844951 0.08048894 -0.27217788 0.08500602 -0.2500291 0.08840746 -0.29665154 0.05542922
-0.06739721 -0.021216 0.080555566 0.17827824 -0.02925045 0.15067595 -0.17871399 0.08243214
0.05823287 0.14263338 0.28538662 0.120937094 0.06083439 -0.033703823 -0.10107667 0.04096783

network_body._body_endoder.seq_layers.2.bias f4 [256]
00000000: fcf3 b93c 7040 173c 50a6 dcbd 52d2 05bd
00000010: 8e5b bebc a662 2c3d b9be 37bc f9c0 333c
00000020: c109 f3bc 2d1c 0c3d 5114 11bc 9578 29bd
00000030: 24b0 5cbd 5ae4 033d 07f8 48bd e3f9 0f3d
00000040: c8be 53bd 9c91 dbbc 4778 203d 9268 97bd
00000050: 0f78 b3bd 10a5 763c ef80 b0bd c792 223d
00000060: 8923 05bd 0520 0cbd a4f2 17bd 2228 efbb
00000070: 4067 1a3b f8df 133b 29ef a8bc 3858 25bd
00000080: 7133 20bd 8855 b6bd 914a cebb bab0 eabc
00000090: f87b acbc bebd 16bd 5c43 78bd df6f efbc
000000a0: 7392 abbd 4d35 b7bb 8c46 f03c 1e3d 953c
000000b0: de7a e6bc b4a3 cfbb 55ca 543c e11e bfbc
000000c0: 3fb7 74bd 38d4 73b9 b49b d3bc 4db3 043d
000000d0: 4ebd 0b3c 5fca f5bd 4d3f febc 31c7 943c
000000e0: 1bd2 c83a 1932 f23c 04a3 9fbc cf03 7d3c
000000f0: 484f 5bbd 5e25 c5bd 723a ee3c 8194 b43d
00000100: 1405 853d cf2a 123c 5fac fc3b b722 55bd
00000110: 0807 07bd 359b 8dbc bb49 123d 7e22 97bd
00000120: 066d 23bd b007 83bd f34a c73d 4d4a 3bbd
00000130: 423a 0539 2ecd 723d 5567 403d 83fb eabc
00000140: 6adb 15bd 5db4 93bd b14e 5cbb 4649 343d
00000150: eb03 43bb e3f4 0fbe 7223 92bd 3f68 7d3b
00000160: 2bd4 cfbb 12c4 893c cb71 b9bd 5a05 e43b
00000170: e24f c0ba 9477 7d3c 039e 883c 679e c1bb
00000180: 7fa6 103c 9573 153c 77bf 843d 4bc6 603c
00000190: 481c 57bc fc20 98bd 9fd8 45bd 3408 17bd
000001a0: a3f4 cebc 6b5c 1cbd 1ddd 00bd 745c 23bc
000001b0: 4e77 973c 4aa8 04bc 79cb a9bd 649f 83bc
000001c0: 0ce0 d4bd 2eea a63b 707e 09bd 451a 01bd
000001d0: 5681 25bc d195 aebb 0ba7 b6bd 69f7 ebbc
000001e0: 56b9 45bd f50d 58bc b33c d8bc 06d5 5eba
000001f0: df15 0dbc 3cee d13c 67d1 23bc c8eb 12ba
00000200: aaf0 b93c 4352 823d 533e c4ba 6d67 18bc
00000210: 325c bf3c 3b55 b5bd dd51 cebd 112b a43c
00000220: fee3 833b 9c37 28bd 30e1 d63c 22be 4bbd
00000230: cdbf 44bc fd80 4dbb 2a0b 523b 533b 3b3d
00000240: 854b 29bc 9234 95bd baae 543d 0522 c43c
00000250: 8c15 dabd dbcd 6dbd 1f7d 88bc dab1 853d
00000260: b093 67bd 9945 2bbd d875 0dbd 5df2 673c
00000270: 4fef 80bd 73b8 4ebd b8d0 b8bb 4699 86bd
00000280: 1172 05be 2208 8cbd e495 57bd 6cc6 5dbd
00000290: df93 8cbd 2ada 1cbd aa23 42bc dd2b 8ebd
000002a0: e93f 03bb 60d9 6c3c 88ba d2bc 3e23 9a3c
000002b0: acad e33c b9fa a03d e95d 8b3d e546 4b3d
000002c0: fbea 413c 6429 a13b cb74 583c 1b20 093d
000002d0: e705 4abc e99d 55bd 0bb4 b1bc 2285 b43d
000002e0: 1d5b 873c 82b1 dbbd 6b7f db3d 3412 39bc
000002f0: fb00 8bbc 1c15 9dbc 9ccd 26bd 50a6 17bd
00000300: f3e5 88bd 19aa 393c aaa5 ba3c 9b0d a3bd
00000310: 149f 803d d430 12bc 4582 b83c a87d 89bd
00000320: 2bb9 193c e34a e43b a156 e1bb 9a67 7c3c
00000330: 0687 d7bd cacc 2e3d 1fab dc3b 7508 ecbc
00000340: b8b8 123b 7d45 acbb 3582 09bc d89c 493d
00000350: 95a2 8cbd 718d 9fbc 2320 d1bd 38e9 083c
00000360: 1244 52bd 4b61 48bb 97a4 76bc 6b9c 873c
00000370: d00d 0ebd 79bf c2bc 4a36 2bbb b2eb 933b
00000380: eb23 cabc 3eef 1c3d 4d4b 3fbc 9ee9 703d
00000390: cbd1 d5bd d3d9 8cba 62ed f1bc 7ecf d9bc
000003a0: 7aec 78bd 93f0 bfbc cb5c c4bc b705 a4bd
000003b0: 1978 ec3c d65e 2d3c 2191 54bd 52a0 60bd
000003c0: 99a7 89bc a37a cc3b 04b5 833b 1925 a53b
000003d0: 79cd 7abd 8a0a 1f3c 45ad 6d3d 4ea6 5f3c
000003e0: 489b a93c 47a2 8c3d cf23 aabb ac61 10bd
000003f0: ca2c 4ebd 0514 60bc 2bba 913c c281 54ba
0.022699349 0.009231672 -0.10773909 -0.03267128 -0.023237016 0.042086266 -0.011214905 0.010971301
-0.029667737 0.034206558 -0.008854941 -0.04137476 -0.05387892 0.032200195 -0.049064662 0.03515042
-0.051695615 -0.02680283 0.039177205 -0.07392992 -0.08763134 0.015054002 -0.08618342 0.03969076
-0.032504592 -0.034210224 -0.037096635 -0.0072984854 0.0023560077 0.0022563916 -0.020621853 -0.040367335
-0.03911156 -0.089030325 -0.00629551 -0.028648723 -0.021055207 -0.036802046 -0.060611114 -0.029228149
-0.08377542 -0.0055910707 0.029330514 0.01821762 -0.02813476 -0.0063366536 0.012987693 -0.023330154
-0.05974507 -0.00023253344 -0.025831081 0.032397557 0.0085290205 -0.1200149 -0.031036044 0.018161388
0.0015321405 0.029564904 -0.019486912 0.015442803 -0.053542405 -0.09626268 0.029080603 0.08817387
0.06495109 0.008921339 0.007710978 -0.05203506 -0.03296569 -0.017285923 0.035714846 -0.07379626
-0.039898895 -0.06397951 0.09731092 -0.045725156 0.00012705571 0.059277706 0.046973545 -0.028684383
-0.036586203 -0.07212136 -0.003361624 0.04401519 -0.0029756974 -0.1405826 -0.07135667 0.0038666872
-0.006342431 0.016817126 -0.090549074 0.006958646 -0.0014672244 0.015470404 0.016676908 -0.0059087756
0.008828758 0.009121795 0.064818315 0.013719152 -0.013129301 -0.07428166 -0.04830229 -0.036873057
-0.025263136 -0.038174074 -0.03146087 -0.009970773 0.018489506 -0.008096764 -0.082907625 -0.016067214
-0.10394296 0.0050938344 -0.033567846 -0.031519193 -0.010101637 -0.005327918 -0.0891858 -0.028804498
-0.048272453 -0.013186921 -0.026396131 -0.0008500371 -0.0086111715 0.025626294 -0.009998656 -0.0005604592
0.022697765 0.063633464 -0.0014972187 -0.009302002 0.023359392 -0.08854147 -0.10074208 0.020040067
0.0040249815 -0.04106866 0.026230425 -0.04974187 -0.0120086195 -0.00313574 0.0032050111 0.045710873
-0.010332947 -0.072854176 0.051924445 0.023942003 -0.10648641 -0.058057647 -0.016661225 0.06528063
-0.05653733 -0.04181442 -0.034536213 0.014156905 -0.062956445 -0.050468873 -0.0056401156 -0.06572203
-0.13031794 -0.06837489 -0.05263318 -0.054144308 -0.06864142 -0.038293995 -0.011849323 -0.0694196
-0.0020027107 0.014456123 -0.02572371 0.018815633 0.027792774 0.078603216 0.06805021 0.049628157
0.011835809 0.004918264 0.013211439 0.033477884 -0.012330509 -0.052152548 -0.021692296 0.088144556
0.016522938 -0.10727216 0.107176624 -0.011295844 -0.016968241 -0.019175105 -0.040723428 -0.037023842
-0.06684484 0.011332058 0.022784073 -0.079615794 0.06280342 -0.008922774 0.022523055 -0.0671342
0.009382526 0.006966935 -0.006876782 0.01540556 -0.105238006 0.04267577 0.0067342664 -0.028812626
0.0022387933 -0.005257307 -0.00839286 0.049221843 -0.068669476 -0.019476624 -0.10211208 0.008356385
-0.05133445 -0.003057557 -0.01505389 0.016554078 -0.03468114 -0.023772942 -0.0026124888 0.004514181
-0.02467533 0.038314097 -0.011675668 0.058816545 -0.104404055 -0.0010746069 -0.029532138 -0.026588198
-0.060772397 -0.023430144 -0.023970028 -0.080089025 0.02886586 0.010581693 -0.05189622 -0.054840393
-0.01680355 0.0062402054 0.0040193815 0.005039823 -0.06123111 0.009707103 0.05802657 0.01365049
0.020703927 0.068668894 -0.005192257 -0.035249397 -0.050335683 -0.013676648 0.017788967 -0.00081064936

action_model._continuous_distribution.log_sigma f4 [1, 2]
00000000: 263e 1bbe 8580 023d
-0.15160426 0.031860847

action_model._continuous_distribution.mu.weight f4 [2, 256]
00000000: fb8a 2d3e 97c5 df3d c32f 10be bdfb 98bd
00000010: cdb9 35be 08c2 1d3e 6431 0a3e db63 c33d
00000020: 36af 10bd 275c 383e 28b7 39be d01b a93d
00000030: 13e3 09bf 780c 3a3e d704 a13d 03d8 343e
00000040: d4c8 fabd 3b28 01be ff10 2f3e ee75 75be
00000050: 6747 cbbe a15f 3cbb a0f7 cf3d 741c b3ba
00000060: fb15 1fbe d7d8 54be 7e51 b33d 2b39 033e
00000070: 64c8 37be 0206 7fbd fcd6 cbbd 8e92 f9bd
00000080: 5894 013d 1571 a5bd 61c6 07be 695b 89bb
00000090: a295 c1bd 41e3 b93d 1ff4 babe bf1f e5bd
000000a0: e06c 9dbe 0004 ec3d b00f 9fbe 6e5a 5c3e
000000b0: e408 d0bd ee00 013e 044d 08bd 393a 2c3e
000000c0: 9804 edbc 2838 693d 033b 64bd b786 38be
000000d0: 3cd0 49be 03da 07bf 09d4 20be 6801 973c
000000e0: 9340 4d3d 072d 56be 86eb d5bd c214 653a
000000f0: 1328 6a3d 06cc 29be 280a 7bbe fda9 30bd
00000100: ad38 ba3d d95b b6bc bead a3be d66b 1dbd
00000110: a444 03be 2352 8e3e dd7d c83d bcb3 38be
00000120: df43 24be 9f60 6bbe 92dd 86be 3774 60be
00000130: abb2 ba3e e981 0a3e ebb9 7f3e 5053 87bc
00000140: bc95 783e 33e1 b7bd 3718 4dbe ba1b 50bd
00000150: 5301 f83e dae5 82be 810f 6d3e d6da be3d
00000160: d1db 7c3e 34a3 9c3e c692 aabe d398 d63d
00000170: ddc5 04bd c328 243e f9fb f13d 1843 0abf
00000180: 7d5b f83d 55d2 af3c a88f 823e 2f32 9c3d
00000190: b07d 92be b4fa c23d b58d 9e3e 22ff 77bd
000001a0: 81a9 273e 93cc b0be 953e 80be 88fc 5f3e
000001b0: 386c 193e 4e75 36bf 5c03 debd 70aa 803d
000001c0: af15 d83d 7916 5d3d c150 35be 95dd 82bc
000001d0: 476f e33e 0902 26be cafc 72be 1b7e 803e
000001e0: fb60 29be 4975 db3c 0911 10bf a022 673d
000001f0: 3b2d 8fbd 4ab2 b8bb 2acc b5bc d732 fe3d
00000200: 707e 2b3e 7de3 df3d 05a0 04bf 6fd7 7a3e
00000210: 6597 6ebe f2b7 1abe cf6c e8be ebd8 05bf
00000220: 945e 0abd 53a4 18be 46d0 123e 4fa9 c2be
00000230: 199b 4ebe 7384 3fbd 0330 523e 5047 ae3e
00000240: eae6 a23d d8b5 6abe 46e5 6abd 31bd 543e
00000250: 0d3f 24bf 3c4f 6abe d8f1 37be ed46 823e
00000260: 6795 d4be d636 8d3d 149f b5be 443a 143e
00000270: 3b48 e5be 4781 0cbf e8c6 1a3d 1437 eabe
00000280: ee69 48be 3d87 aebe 5973 9ebd 8bbf 92be
00000290: 084e 8ebe 9e53 423e 8f52 d93c e363 923d
000002a0: 554d bfbd 0371 813d 7ff5 0a3e 3e8b 303e
000002b0: 67f6 293e b4bd 8e3e cff0 3ebc ac81 023e
000002c0: d40d 62be b674 f6bd 6122 c03d 0190 a93d
000002d0: 51d1 a6be 3105 b2be 8caa 9bbe f014 7dbd
000002e0: af90 28bd cd11 383d b774 8cbc e588 043f
000002f0: cc10 0e3e 8b9c 90bd e035 d2be a845 a93c
00000300: 81c2 1dbe 5487 8b3d 1e37 073d 850a 01bf
00000310: 35f3 47be b444 bf3e e0f0 1abd 3206 cabd
00000320: b467 47be 0084 1e3e 9932 f6bd 8567 b33e
00000330: 81a0 933c ab81 8b3e 73a5 e53e a299 aebe
00000340: f979 78be 1a09 fb3d 7065 fa3d fe4e 793e
00000350: e516 8fbc ae6b 3c3e 477b a0be bdd0 043e
00000360: bc59 893e 2252 50be ec50 643e 51d8 693d
00000370: 3c53 cc3d 3933 6e3e f434 83be 733d 463d
00000380: 61fb 69be 04fe a63e 1e21 5d3d 4588 7b3e
00000390: ad39 0fbe 37d4 0ebe 0bb4 d6be 1c5f 9bbe
000003a0: 27d3 193e de8d d7be 7ceb 06bf d4a2 8f3c
000003b0: b4ea 4c3e 576e 143e dc21 8bbe e832 c6bd
000003c0: 2b23 73be 5604 093e a6a6 083e bbb4 6f3e
000003d0: 9705 adbe 16e9 8d3d 1d93 123e 98ee 85be
000003e0: 3acb 11bc b731 f8bd f3a3 8abe d410 dcbe
000003f0: e27e d3be fe9b 0f3e 6759 af3d 7422 263e
0.16947548 0.10926359 -0.1408072 -0.0746989 -0.17746659 0.15406048 0.13495404 0.0954053
-0.035323344 0.18003903 -0.18136275 0.08257258 -0.5386211 0.18168819 0.07862251 0.17660527
-0.12245336 -0.12613003 0.17096327 -0.23970768 -0.39702913 -0.0028743523 0.101546526 -0.0013665096
-0.15535729 -0.20785843 0.08755778 0.12814777 -0.17947537 -0.06226159 -0.099531144 -0.12186156
0.031635612 -0.08078209 -0.1325927 -0.004191805 -0.09452368 0.09076548 -0.36514375 -0.11187696
-0.30747128 0.115242004 -0.31066656 0.21518871 -0.10157946 0.12598011 -0.033276573 0.16819085
-0.028932855 0.05693832 -0.05572034 -0.1802014 -0.19708341 -0.53067034 -0.15705885 0.018433288
0.05011041 -0.20915614 -0.10445313 0.000873875 0.057167124 -0.16581735 -0.24515593 -0.043130863
0.09092841 -0.022260593 -0.31968492 -0.03843292 -0.12819153 0.2779704 0.097896315 -0.18037313
-0.16041516 -0.22986077 -0.2634092 -0.21919332 0.36464438 0.1352612 0.24973266 -0.016519219
0.24275869 -0.089785 -0.20028768 -0.050807692 0.4843851 -0.25565988 0.23150446 0.093190834
0.24693228 0.30593264 -0.33315104 0.10478368 -0.03241526 0.16031174 0.11815638 -0.54008627
0.12126825 0.021462599 0.25500226 0.07626759 -0.28611517 0.09520474 0.3096749 -0.060546048
0.16373254 -0.34531078 -0.25047746 0.21873677 0.14982688 -0.7127274 -0.108404845 0.062825084
0.10551011 0.05397651 -0.17706586 -0.0159748 0.44420835 -0.16211714 -0.23729244 0.2509621
-0.16540901 0.026789324 -0.56275994 0.056429505 -0.06991049 -0.005636488 -0.02219208 0.12412041
0.16747451 0.10932062 -0.5180667 0.24496244 -0.2329994 -0.15109232 -0.45395514 -0.52284116
-0.033781603 -0.14906435 0.14337263 -0.38019797 -0.20176353 -0.046757173 0.20526128 0.34038782
0.079541996 -0.2292093 -0.05734756 0.20775296 -0.6415871 -0.22881788 -0.1796335 0.25444737
-0.41520235 0.06895225 -0.3547293 0.14475352 -0.4478167 -0.5488476 0.037787348 -0.45745146
-0.19571659 -0.34087554 -0.077368446 -0.2866176 -0.27793908 0.1897721 0.026528625 0.07147958
-0.09340922 0.063203834 0.13570212 0.17240617 0.16597901 0.27879107 -0.011654093 0.12744778
-0.22075588 -0.120339796 0.09381557 0.0827942 -0.3258157 -0.34769586 -0.30403554 -0.061787546
-0.041153606 0.04493885 -0.017145498 0.51771384 0.13873595 -0.07061108 -0.41056728 0.020663098
-0.15406229 0.06812921 0.03301155 -0.50406677 -0.1952637 0.37357104 -0.037827373 -0.09864463
-0.19473153 0.15480042 -0.120213695 0.35039917 0.01802087 0.27247366 0.4485279 -0.34101588
-0.24265279 0.12257595 0.12226379 0.2434654 -0.017466972 0.18400452 -0.31344053 0.12970252
0.26826274 -0.20343831 0.22296494 0.05709106 0.09976813 0.23261727 -0.25626338 0.048398446
-0.228498 0.32615674 0.05398666 0.24563701 -0.13986845 -0.13948141 -0.41934237 -0.30346
0.15021954 -0.42100424 -0.5270307 0.017533697 0.20011407 0.14495216 -0.2717427 -0.09677678
-0.23743884 0.1338056 0.13344821 0.23408787 -0.33793327 0.06929223 0.14313932 -0.26158595
-0.008898551 -0.12118857 -0.27078208 -0.4298159 -0.4130774 0.1402435 0.08561974 0.1622408

action_model._continuous_distribution.mu.bias f4 [2]
00000000: eb6e f23d 2be5 90bc
0.11837562 -0.0176874

action_model._discrete_distribution.branches.0.weight f4 [2, 256]
00000000: a3ac 2a3d 19e7 d1bd 9275 483e 0450 b6be
00000010: d491 b2bd ab7c de3c 91d6 97bd b1ad 3f3c
00000020: f2c7 1f3e 69cf 503c 84e2 2bbd f268 b4bd
00000030: 88a1 1ebd 5e6f af3d 926d 8b3d 2b8f 6b3e
00000040: 669d 2f3e 15ab d6ba 34dd ed3e cb38 8abe
00000050: a532 35be b7a2 c43d 053e 82be 52c3 833e
00000060: 2c16 80be 34be b7bb f3bf df3d 0836 a63d
00000070: 3c5c 433d b9b1 ef3d a532 383c 06e8 b23e
00000080: b2ea 83be f656 0fbe b894 683c 8b3f 673d
00000090: 8083 0abe 5166 823e fa21 27bd 8ff7 913d
000000a0: d51b ba3d 91e5 3fbc f977 8ebd b83a 193b
000000b0: 7014 ba3d 7a44 aa3d 7294 89bc bfc3 81bc
000000c0: b2dd 19be 785f c33d f7cc b83e 2a51 b13c
000000d0: 7888 273e 766e d9bd c8b3 73be 3174 95be
000000e0: 1c95 4fbc 697a f03d 9152 4dbe 7fc4 873d
000000f0: 3945 6abd e29b 30be 0157 393d 8962 8f3e
00000100: 687b bf3c 277b e73e d729 323e 0932 5dbd
00000110: e016 6b3e 0c38 94bc d824 9f3c 09d6 9dbe
00000120: 1a7d 52be 2f5b 2f3e 0ee8 803b 503f 04be
00000130: b38a 9cbe 9981 11bd e63d 25bd 309a 94be
00000140: 8bbd d23d 7b0e 833d 7934 9f3c 58a4 90bd
00000150: c7e6 ee3c 4fa8 c6bd e054 17be 2972 c53e
00000160: 5f67 d5bd e146 ecbd 6cc7 0abf b2be a43d
00000170: 0d21 973b ac27 b5bd 63bf 7539 5db7 853e
00000180: 6f72 b5bc 9666 40bc 8f51 d63d a5cf 36be
00000190: 4c4f 3cbe a758 dcbd 814c 16be 6060 08bd
000001a0: a72f 82bd 301a 093c 4bc9 9cbb 33a3 e73c
000001b0: 5a9b 513c 66f5 c53e 6429 14bd 5b11 fabd
000001c0: 2c6c 16be a48b c0bd 7129 68bd 2056 96be
000001d0: 4874 f2bb 3865 983b 5c17 00bd 3aec 48bd
000001e0: 930a 1b3c 6d7a 96bc 9c78 42be acb6 71be
000001f0: ae5a 1c3e 05e7 06be 1760 103e 5c92 0c3e
00000200: 53c2 1c3d 642e 283d a922 5dbe f51a 143d
00000210: b898 fe3e acd6 76be ac41 3fbc f33d 733d
00000220: e5d7 d73d abcb 233e fc0e 3c3d f099 3a3d
00000230: a7a0 88bc 5d2a 1b3d bcbe aaba 77c9 dc3c
00000240: 3947 4f3e 503d 433e c86e 03be b6c2 a5bd
00000250: 21e1 2cbe 4a9b 453e ea95 813d ccfa 1abc
00000260: 5a84 67bd 807b 833e b04c a73c 0e74 9a3c
00000270: 52bf 36bd 2260 00be f09f e93d 84b2 50bd
00000280: b94e 7fbe 5dff 443e 1572 50bd ea5d 463e
00000290: da2a 4cbe b0b1 cdbc 38ff 9cb9 6209 753e
000002a0: 87b3 8bbd b794 95be a1b0 98bc d407 53ba
000002b0: 08c0 11be 2301 673d addd 5fbc f121 a6bd
000002c0: 6f36 4dbd 63b1 793e f141 b8be 97cb dcbe
000002d0: 1f47 f9bc 7615 54bd 7b23 e1bd 40d8 c23c
000002e0: ee99 453e d89a 39be 2a73 f13d 6ef5 23bd
000002f0: 44c6 5b3e ca9b 993d 1944 4abc c096 523e
00000300: 2620 07bd a208 8b3d 0d4f fabd 1b48 8fbe
00000310: 8cae 5bbc 1729 57bf 9ed3 1bbe 540b f2be
00000320: 60c5 dfbc da57 44bd f973 c7bd 0408 32bd
00000330: cf6b c4bd f85b 54bd 3816 173d b8b8 613e
00000340: 1fd8 8ebe d028 203d ebf3 493d 0204 b0bb
00000350: e45b 053d e87d 853d 261e 4ebe a188 1cbd
00000360: 0fcb 3ebe a0e4 49be 89fb 39be a70b 90bc
00000370: fd8b 8abd bc5b cf3d f12e 1f3b f0d7 91bd
00000380: 26df 653d 9039 7cbd 9bdf f13b 964e 75bb
00000390: af2f f5bd 99d2 d73c 2bba 1fbc 4a29 4b3e
000003a0: 3914 943d 7a02 ffbd f3b6 18be 73b9 213c
000003b0: f603 243d f1b7 b63c f213 d9ba 1b07 84bb
000003c0: f618 b93e e3ea 1bbe 7889 833d e53b 6b3d
000003d0: dac8 e0bb 5707 943d 7931 c33c d8f6 b43d
000003e0: 778f f43d 3659 9e3c 8072 f93b 95c7 b6bd
000003f0: a8a3 53bd 2c4b 79bd 3ea5 123d 2d84 083d
0.041668545 -0.102491565 0.195761 -0.35607922 -0.08719221 0.027159056 -0.07413972 0.011699126
0.15603617 0.012744763 -0.04196407 -0.08809079 -0.038728267 0.085661635 0.06808008 0.23003833
0.17149886 -0.0016377891 0.46457827 -0.26996455 -0.176951 0.09601348 -0.25437942 0.25734955
-0.25016916 -0.005607391 0.10925283 0.081157744 0.047695383 0.1170382 0.011242543 0.34942645
-0.25764996 -0.13998017 0.014195614 0.056457084 -0.13526726 0.25468686 -0.040803887 0.07127296
0.0908734 -0.011712448 -0.06956477 0.0023380946 0.090859294 0.08313842 -0.016794417 -0.01584041
-0.15025976 0.095396936 0.36093876 0.021645147 0.16360652 -0.10616772 -0.2379905 -0.2919021
-0.012669828 0.11742098 -0.20051028 0.066292755 -0.057194922 -0.17246965 0.04524899 0.28004864
0.023374274 0.45211145 0.17398773 -0.054002795 0.22957945 -0.018093131 0.019426748 -0.30827358
-0.20555535 0.17124628 0.003933913 -0.12914777 -0.3057457 -0.035523985 -0.040342234 -0.29023886
0.10290059 0.06399246 0.0194342 -0.07062596 0.029162778 -0.09700071 -0.14778471 0.3856366
-0.10420107 -0.115369566 -0.54210544 0.08044185 0.0046120943 -0.088454574 0.00023436318 0.26116458
-0.022149293 -0.011743208 0.10464775 -0.17852648 -0.18389624 -0.107590966 -0.14677621 -0.033295035
-0.06356745 0.00836806 -0.004784738 0.028276062 0.012793386 0.38663787 -0.036172286 -0.122103415
-0.14689702 -0.09401634 -0.056680147 -0.29362583 -0.0073991157 0.004650738 -0.031272277 -0.04905341
0.00946297 -0.018368924 -0.18991321 -0.2360484 0.15268967 -0.13174064 0.14099155 0.13727707
0.03827126 0.041059867 -0.21595253 0.03615852 0.4972589 -0.24105328 -0.011673372 0.05938525
0.105392255 0.15995662 0.045912728 0.045556962 -0.016678168 0.037882198 -0.0013026814 0.026951535
0.20242013 0.19066358 -0.12835228 -0.08093779 -0.16882755 0.1929752 0.06327422 -0.009459209
-0.056522705 0.2568016 0.02042231 0.018854167 -0.04461605 -0.12536672 0.11407459 -0.050951496
-0.24932374 0.19238038 -0.050890047 0.19371763 -0.19938222 -0.025109142 -0.00029944791 0.2392936
-0.068213515 -0.29215023 -0.01863891 -0.0008050178 -0.1423341 0.05639757 -0.0136636915 -0.081119426
-0.05010074 0.24384074 -0.3598781 -0.43124077 -0.030429421 -0.05177828 -0.109930955 0.023784757
0.19297001 -0.18125474 0.11789544 -0.040028982 0.21462351 0.075004175 -0.012345337 0.20565319
-0.032989644 0.06788756 -0.12222109 -0.279847 -0.013408314 -0.84047073 -0.15217444 -0.47274268
-0.027315795 -0.047935344 -0.09738917 -0.043464676 -0.09590875 -0.05184552 0.036886424 0.22043121
-0.27899262 0.03910142 0.049304884 -0.0053715715 0.032558337 0.06518155 -0.20128688 -0.038216237
-0.18632148 -0.1971612 -0.1816236 -0.017583681 -0.06764982 0.10124919 0.0024289454 -0.07121265
0.056121014 -0.061578333 0.007381392 -0.0037430874 -0.119719855 0.026345538 -0.009748976 0.1983997
0.0723042 -0.12451644 -0.1491354 0.009870875 0.04004284 0.022304507 -0.001656173 -0.0040291674
0.36151856 -0.15226321 0.064227045 0.057430167 -0.006859881 0.072279625 0.023827301 0.08836144
0.11941426 0.019329648 0.0076125264 -0.08924786 -0.051669747 -0.060862705 0.03580212 0.033329178

action_model._discrete_distribution.branches.0.bias f4 [2]
00000000: 9170 bd3d b66e bdbd
0.09249986 -0.09249632

action_model._discrete_distribution.branches.1.weight f4 [2, 256]
00000000: 9d68 76bc 09e8 dbbd 8879 78be e2aa b83b
00000010: a640 9dbd b22c 923c e44b a4bc ca53 bcbd
00000020: e62b e33d 0117 413c 3d57 dc3d 4ed1 2d3e
00000030: e19d 133a 4cd5 c6bc a042 45bc 379c 5dbe
00000040: 664f bd3d 98a4 ab3c 5d0c ba3d 1082 1f3e
00000050: 8201 dabd b450 813d 69fc 09bf 7a92 83bc
00000060: 51c7 2abd bacc 11bc f693 f93d 60c0 f23b
00000070: b2fd bebd e824 c2bc 2bc7 373d 4526 f6bd
00000080: 759f 09be 0b6d 663e 7648 c13b 283c 29be
00000090: 1804 b23c 93a8 4ab9 5e53 ad3d 7e7d 0b3e
000000a0: 8b34 2c3d 499a 99bc 94ae c1bd 83fa 4bbc
000000b0: 72a1 d93c 2346 80bd 40ce 51bc 1e57 bfbc
000000c0: f7e3 e8bc c2ec 903d 2220 ae3d ca7f 493d
000000d0: 07fd 21bd 25e2 853d a0b0 98be 3353 853c
000000e0: f9e9 093d 3f0c bd3d 8142 6abd 750a 8fbd
000000f0: b8ef 11be 4e35 3ebc 1948 cd3d 6a45 7dbb
00000100: 676d 70bd cc86 62bd 3968 533d ebfa 42bf
00000110: 1e39 26bc c4f3 aa3e a91f 13bb 8eef b03d
00000120: 781b 95bc 8ad8 c13e 6246 46be 6243 46be
00000130: 11b0 6e3d a6bb f1bd 8fd1 68bc 9ed8 3bbe
00000140: eaa8 043f 93f5 71be f698 72bd 41eb 583e
00000150: 3622 1c3e 015a c43e 8d63 5d3c ef2e 1c3d
00000160: 271e b73d 23b2 683c da2a 07be cc60 62bc
00000170: cda6 a03d 6db2 01bd 46c6 1b3b 5a25 56be
00000180: 1855 fd3c d3d0 27be d2cc b9bc e687 683d
00000190: c838 c43d 20d3 9cbd a45c 463d aa82 f23d
000001a0: b501 70bc 6f6e f43d bb4b fbbc 65f0 9dbe
000001b0: af86 f33c 7571 ba3d 7215 c0bd 037f 3b3e
000001c0: 9f89 78be a410 4f3e d547 213e 2fc3 0d3d
000001d0: deef 6c3d 58c4 9d3c 6afd 223e 6a56 9a3d
000001e0: bf8a f5bd 665d 7fbd 4254 c63d c34c 57be
000001f0: 8e79 263f 1643 4abc 97f4 a1bc 4706 863c
00000200: 87d5 5c3e 3a24 243b 0a71 2a3e 3a03 50bd
00000210: 85c8 23bd 252f ad3c b745 383d f06c f03c
00000220: 38c8 adbd 71d7 89bd 4a38 2abd fa6a 80bd
00000230: 4f3e a0bc 86b0 ccbd 8c4d fbbb 613d 0a3d
00000240: ff7a 903e 9af0 6f3c d711 1c3d ee08 cd3c
00000250: 2b03 d43c 3a30 31bc 6f0c ff3d 7688 7fbd
00000260: 4bbd c1bb dd43 7a3c db34 81bc 413b 133c
00000270: 7e0a a5bc 9ea3 14be f278 603e 1336 c83d
00000280: 0038 28bd 58a6 2e3d 3fab dbbd 8686 b03d
00000290: 0efe 0d3e 89c6 c2ba 6a29 47be 4e94 f13b
000002a0: e209 39bd 757d 48be 2ebc 6bbd 2e3c 11bd
000002b0: 0b1a 103e ffaa a83d 738a 0dbd 0008 78bd
000002c0: 13dd c7bd bad9 b3bd 10c6 c93d 5823 af3e
000002d0: a760 84bc 0110 ec3d 4bbb 5cbd 2f57 d0bc
000002e0: dd69 9d3d b1fc 1c3e 7fe1 8e3d b810 dbbd
000002f0: d217 f9bd 3bcb 823d e6d3 afbc 4d2e 4fbc
00000300: 8a21 acbc 6134 603c 77b5 47bc 76eb a4bd
00000310: 064e 823e 325b bdbe 7324 e63d bb9f 393d
00000320: e850 bc3c ad4d c43d b763 bb3c 2749 d0bd
00000330: 895e 953e b7a0 a1bb aef1 a93d 387e 173e
00000340: ba55 f2bd ea1b 893b 6435 2a3d 749d 8cbd
00000350: b872 29be 0a09 813d 4665 233e 5a17 6d3c
00000360: e994 b13c ad45 403d 9f22 64be 9b89 00be
00000370: 6f5c 253b 33fb 163e bab0 41be 0feb fa3b
00000380: 8d7f 413e 424d 69bd d3fe 363c 5c08 93ba
00000390: 0279 5a3e fcb7 33be 27e3 25be 376b 8ebd
000003a0: 7d95 b13d 3fe8 c83c f95e 8c3d 485c bdbd
000003b0: ee06 193b d5c4 a6bc 5049 c5bd 226f 7a3d
000003c0: f47d 62be d592 a03d 4ffa 223c 8e9a a43c
000003d0: 16bf 3ebd a6d9 483b 8602 56bc 5441 68bd
000003e0: 36e2 04be b1c1 1c3d d9eb ff3d b8c2 9dbe
000003f0: 91d1 353d 6770 65be 3807 24bd 2b0f 06bc
-0.01503959 -0.107376166 -0.2426511 0.005635605 -0.07678346 0.017843578 -0.020055719 -0.09195669
0.11092357 0.01178527 0.10758827 0.16974375 0.0005631131 -0.02427163 -0.01203981 -0.21641622
0.0924366 0.020952508 0.09084389 0.15576959 -0.10644819 0.06314221 -0.5390077 -0.016061056
-0.04169399 -0.008898908 0.121864244 0.007408187 -0.09325732 -0.023699239 0.044867676 -0.12019018
-0.13439734 0.22502534 0.0058985306 -0.16526854 0.021730468 -0.0001932702 0.08463167 0.1362209
0.042042296 -0.018750327 -0.09457126 -0.012449863 0.026566241 -0.062633775 -0.0128055215 -0.02335697
-0.028429015 0.07076408 0.085022226 0.049194135 -0.039547946 0.06537274 -0.29822254 0.016275024
0.0336704 0.092308514 -0.05719233 -0.069844164 -0.14251602 -0.0116093885 0.10023517 -0.003864611
-0.058698084 -0.055304334 0.051613066 -0.7616412 -0.010145454 0.33389103 -0.002244929 0.086394414
-0.018201575 0.3786052 -0.19362786 -0.19361642 0.05827338 -0.11803369 -0.014210119 -0.18344352
0.5182024 -0.23628835 -0.059227906 0.21183492 0.15247425 0.38349918 0.013512504 0.038130697
0.08941298 0.014202627 -0.1319994 -0.0138170235 0.07844315 -0.0316643 0.0023769303 -0.20912686
0.030924365 -0.16388254 -0.022680674 0.056770228 0.09581143 -0.076574564 0.048428193 0.118413284
-0.0146488445 0.11935126 -0.03067576 -0.3084747 0.029727308 0.091036715 -0.0937909 0.1831017
-0.24271248 0.20221192 0.15750058 0.03460997 0.057845943 0.019258663 0.15916982 0.075360134
-0.11989354 -0.06234493 0.0968404 -0.21025376 0.6502923 -0.012345096 -0.01976995 0.016360415
0.21565829 0.0025046007 0.16644683 -0.050784327 -0.039986152 0.021140644 0.04498836 0.02934882
-0.08485454 -0.06730545 -0.041557588 -0.06270404 -0.019560961 -0.09994607 -0.0076691564 0.03374994
0.2821884 0.014644766 0.03810295 0.025028672 0.025880417 -0.010814721 0.124535434 -0.062386
-0.005912458 0.015274969 -0.015772274 0.008986295 -0.020146605 -0.1451554 0.21921137 0.09775939
-0.04106903 0.042639107 -0.10726022 0.08619408 0.13866445 -0.0014860193 -0.19449392 0.0073724156
-0.04517544 -0.19579108 -0.05755251 -0.035457782 0.14072435 0.0823574 -0.034555864 -0.060554504
-0.097589634 -0.087817624 0.098522305 0.34206653 -0.016159369 0.1152649 -0.053889554 -0.025432197
0.076862074 0.15330769 0.06976604 -0.10696548 -0.121627465 0.063864194 -0.021463346 -0.012645316
-0.021012086 0.013684363 -0.012189261 -0.08052723 0.25450152 -0.3698364 0.11237421 0.045318346
0.022987798 0.09585128 0.022874696 -0.10170203 0.29173687 -0.004932489 0.0829805 0.14794242
-0.11832757 0.004184236 0.041554824 -0.06865969 -0.16547668 0.06300552 0.15956602 0.0144708995
0.021677451 0.046941448 -0.22278832 -0.12552492 0.0025232097 0.14744262 -0.18915072 0.0076574157
0.18896313 -0.056958444 0.011169153 -0.0011217701 0.21335223 -0.17550653 -0.16199933 -0.06954043
0.08671091 0.024524806 0.06854052 -0.09246117 0.0023350078 -0.020357529 -0.09633124 0.06114114
-0.2211836 0.07840506 0.0099473735 0.020093229 -0.046568953 0.0030647307 -0.013062125 -0.056702927
-0.12976918 0.038270656 0.12496156 -0.3081262 0.04438931 -0.2240616 -0.040045947 -0.008182327

action_model._discrete_distribution.branches.1.bias f4 [2]
00000000: e09a aabc d09a aa3c
-0.020825803 0.020825773
