Assets/ML-Agents/config/results/tank_beta_0.001/AgentTank.onnx (onnx, 309310 bytes, 12 tensors)

discrete_action_output_shape f4 [1, 2]
0	0x40000000	2.0
1	0x40000000	2.0

network_body._body_endoder.seq_layers.0.weight f4 [256, 34]
0	0x3e8ac008	0.27099633
1	0x3ddcc68e	0.10780059
2	0x3e9a65c0	0.30155754
3	0x3daae3fe	0.08344267
4	0x3e8b05dd	0.2715291
5	0xbde33ded	-0.11095796
6	0xbe0d2cb1	-0.1378658
7	0x3e3941cd	0.18091507
8	0x3d907090	0.070527196
9	0x3ea13a7b	0.3148993
10	0x3e15fc20	0.1464696
11	0x3e71430c	0.23560733
12	0xb8096062	-3.275311e-05
13	0xbe281a87	-0.1641637
14	0xbe2c88f8	-0.16849124
15	0xbd8615b2	-0.06547107
16	0x3e67e7f7	0.22647081
17	0xbdec66f0	-0.11543071
18	0x3ee2080a	0.44146758
19	0x3e775610	0.24153924
20	0x3db1a06d	0.08673177
21	0x3ea58fe4	0.32336342
22	0xbede5666	-0.43425292
23	0xbd9db836	-0.07701151
24	0xbd8a1469	-0.06742174
25	0xbe484d4b	-0.19560735
26	0x3e133dd3	0.14379053
27	0xbe1a6dbd	-0.15080924
28	0xbe175a7c	-0.14780611
29	0x3e03d205	0.12873085
30	0x3da41b5f	0.08013033
31	0xbe8dda7f	-0.27705762
32	0xbe0f7b04	-0.1401177
33	0x3c2c3d24	0.010512624
34	0x3db3e878	0.08784574
35	0xbcf20b4e	-0.029546406
36	0xbe1694d4	-0.14705211
37	0xbec15bba	-0.37765294
38	0x3e3a9b8a	0.18223396
39	0x3e070c86	0.13188371
40	0x3d89b96b	0.06724819
41	0xbec770f9	-0.3895338
42	0xbe884780	-0.2661705
43	0xbb1e92b9	-0.002419634
44	0xbdc119b7	-0.09428733
45	0xbee13ca0	-0.43991566
46	0x3b5b34aa	0.0033448138
47	0x3e86e984	0.26350033
48	0xbec0b830	-0.37640524
49	0xbef7ba6f	-0.48384425
50	0x3e6755b2	0.22591284
51	0x3e32bda1	0.1745515
52	0x3d45bd5e	0.048276298
53	0xbeb992fd	-0.36244956
54	0x3e98f97c	0.2987784
55	0x3d1c5eca	0.038176335
56	0xbd785c62	-0.060634978
57	0xbdf8574b	-0.12126025
58	0x3d9da395	0.076972164
59	0x3e56acfd	0.20964427
60	0xbe823ceb	-0.25437102
61	0xbe8e392f	-0.27778003
62	0x3dc60c99	0.096703716
63	0x3c86b522	0.016443793
64	0xbe2b3849	-0.1672069
65	0x3f05ba54	0.5223744
66	0x3c9371e1	0.017998638
67	0xbe0f61c0	-0.14002132
68	0xbc918542	-0.017763738
69	0xbeb5cc6b	-0.3550752
70	0x3e99dd29	0.30051544
71	0x3d361c41	0.04446054
72	0x3df181bf	0.11792325
73	0xbe690480	-0.22755623
74	0x3e87d6ff	0.26531217
75	0x3e1a93f4	0.15095502
76	0x3d48c572	0.049016424
77	0x3d55dc78	0.05221221
78	0x3e5109da	0.20413914
79	0x3d153b48	0.036433488
80	0x3eb553f8	0.35415626
81	0xbd88b90b	-0.06675919
82	0x3daf913e	0.085726246
83	0xbe302f1e	-0.17205474
84	0x3cbd3429	0.023096161
85	0x3dadf712	0.084943905
86	0x3e70b161	0.23505165
87	0x3db999ce	0.09062539
88	0x3e5a948b	0.21345727
89	0x3f1c2580	0.6099472
90	0xbe25872f	-0.1616485
91	0xbe5505a6	-0.20802936
92	0xbc9fd33e	-0.019509908
93	0xbeec116b	-0.4610704
94	0xbec3b31e	-0.38222593
95	0xbd8a2acb	-0.06746443
96	0xbeb83e65	-0.35985103
97	0x3d75e32e	0.06003111
98	0xbbcaa922	-0.006184713
99	0xbe8e7838	-0.27826095
100	0xbdd29d1c	-0.102838725
101	0xbd9497f8	-0.07255548
102	0x3e27a749	0.16372408
103	0x3e0d0424	0.13771111
104	0x3e5e43eb	0.21705596
105	0x3e49df99	0.19714202
106	0x3e9339cc	0.28755033
107	0x3eb6d644	0.35710347
108	0x3ebdd517	0.37076637
109	0xbe3e8f17	-0.18609272
110	0xbd3be7be	-0.045875303
111	0xbe87e4a1	-0.26541618
112	0xbe7d39f5	-0.2472914
113	0x3e71a0d6	0.2359651
114	0x3dce4de6	0.10073452
115	0xbd50039b	-0.05078469
116	0xbe0789a5	-0.13236101
117	0xbe3662bf	-0.17811106
118	0xbc4ebde5	-0.012618517
119	0x3c0ee950	0.008722618
120	0xbcb423bf	-0.021989701
121	0xbe63634a	-0.22205845
122	0xbf01e691	-0.5074244
123	0xbe337751	-0.17525984
124	0x3de8cee3	0.113675855
125	0xbd328d18	-0.04359159
126	0xbe87a93e	-0.2649631
127	0x3d1b6ea7	0.037947323
128	0xbe6f56a1	-0.2337289
129	0x3d01ac7e	0.031658642
130	0xbd9d6fc6	-0.07687335
131	0x3dc408b6	0.09571974
132	0xbc8d783e	-0.01726925
133	0x3ea09f96	0.31371754
134	0xbd9885e5	-0.07447413
135	0x3e8006f8	0.25005317
136	0xbf0a1761	-0.53941923
137	0xbe9dd60f	-0.30827376
138	0x3c61bbb5	0.013777663
139	0x3dd131e1	0.10214592
140	0xbca39e7c	-0.019973032
141	0x3c890121	0.016724171
142	0x3d513c21	0.051082734
143	0x3d2168e6	0.03940668
144	0xbf044fbc	-0.51684165
145	0x3e9006d0	0.28130198
146	0xbc89e1da	-0.016831327
147	0xbd575866	-0.052574538
148	0xbefc4604	-0.49272168
149	0x3d2b8fae	0.04188507
150	0xbe00149a	-0.12507859
151	0x3e883dbe	0.26609606
152	0x3ec1fb62	0.37887102
153	0x3dad6f75	0.08468524
154	0xbd2f8ffb	-0.04286192
155	0xbe32bcba	-0.17454806
156	0x3e754be1	0.23954727
157	0xbe333056	-0.17498907
158	0xbea38b88	-0.3194239
159	0xbda5d6fa	-0.08097644
160	0x3e062c0a	0.13102737
161	0xbd93c605	-0.072155036
162	0x3df90089	0.12158305
163	0x3d1ae6f0	0.037817895
164	0xbc12b3c0	-0.008953989
165	0x3d69d94d	0.057092
166	0xbc4659dc	-0.012106385
167	0x3de0bed4	0.109738976
168	0x3c2f340c	0.010693561
169	0xbe462951	-0.19351698
170	0xbd181c4c	-0.03713636
171	0x3ef98c14	0.48739684
172	0xbe31d027	-0.1736456
173	0xbce4fae2	-0.027951661
174	0x3e3ca877	0.18423639
175	0x3e797a68	0.243631
176	0x3e856100	0.26050568
177	0x3b7e050d	0.0038760335
178	0xbe276f1c	-0.16350979
179	0x3c3ffff0	0.011718735
180	0xbe9e24fd	-0.30887595
181	0xbd0b9428	-0.03407684
182	0x3d3908e1	0.045174483
183	0xbddfe815	-0.10932938
184	0x3e4d4fbb	0.20049946
185	0x3ef48077	0.4775426
186	0x3cf31aa4	0.02967579
187	0xbdf5f097	-0.120087795
188	0x3d883834	0.06651345
189	0x3e38181d	0.17977948
190	0x3e56cf15	0.20977433
191	0x3e89705a	0.2684353
192	0xbf01dc3e	-0.5072669
193	0xbdd3aa09	-0.10335166
194	0x3ee2cd88	0.44297433
195	0xbe1da3d0	-0.15394521
196	0x3eb99c1d	0.36251917
197	0xbde69bff	-0.11260223
198	0x3cd589c9	0.026066678
199	0x3dd5b403	0.10434725
200	0xbdeed378	-0.11661428
201	0x3d064bfd	0.03278731
202	0xbdbb6dfe	-0.09151839
203	0x3e09910c	0.13434237
204	0x3e8d043b	0.2754229
205	0x3e262e39	0.1622857
206	0xbdb81b1d	-0.089895464
207	0x3e0d1652	0.13778046
208	0x3d6b7ef2	0.05749411
209	0xbc86b2ee	-0.016442742
210	0x3d077f6c	0.033080503
211	0xbe88dc30	-0.2673049
212	0x3e4fb470	0.20283675
213	0xbd5ec71e	-0.05438911
214	0x3cc7adae	0.02437481
215	0x3e811134	0.25208437
216	0xbdd4f6ef	-0.10398661
217	0x3b7d2866	0.0038628816
218	0x3d254500	0.040349007
219	0xbdcb2628	-0.09919387
220	0xbd0e63f8	-0.034763306
221	0x3e88cc07	0.2671816
222	0x3d1246d0	0.035712063
223	0x3cc038c4	0.023464568
224	0xbe9ebc00	-0.31002808
225	0x3e524b56	0.20536551
226	0xbdceaa58	-0.10091084
227	0xbdf9a442	-0.12189533
228	0x3ea374b3	0.31924972
229	0x3ea45e2a	0.3210309
230	0x3e06d14d	0.1316578
231	0x3cbe6d18	0.02324538
232	0x3e362a0d	0.17789479
233	0x3e475a05	0.19467933
234	0xbe213962	-0.15744546
235	0x3b9e3e10	0.004829176
236	0x3edb06cb	0.4277862
237	0xbbb906b6	-0.005646552
238	0x3ddf7dc8	0.10912663
239	0xbead507e	-0.33850473
240	0xbdc75b78	-0.09734243
241	0x3c582153	0.013191539
242	0xbeabe637	-0.33574077
243	0xbcc1a64f	-0.023638872
244	0xbde11e46	-0.10992102
245	0x3e7f2e94	0.24920112
246	0x3e5716d0	0.21004796
247	0xbe16c71c	-0.14724392
248	0x3eb578ad	0.3544363
249	0x3e63092a	0.22171465
250	0x3e4f7660	0.2026
251	0x3e4a2d1f	0.19743775
252	0xbde70d2f	-0.112818114
253	0xbe863499	-0.26212004
254	0xbe8cc128	-0.27491117
255	0x3ea0ccdd	0.31406298

network_body._body_endoder.seq_layers.0.bias f4 [256]
0	0x3dacfa93	0.08446231
1	0x3d287fa2	0.041137345
2	0x3d4a36ba	0.049368598
3	0x3cd95666	0.026530456
4	0x3d664c18	0.056224912
5	0x3b38e68f	0.0028213596
6	0xbd8112a2	-0.06302382
7	0x3d48d055	0.049026806
8	0xbcfb5a4e	-0.030682709
9	0x3d16b285	0.036791343
10	0x3d251e13	0.040311884
11	0xbc9c0b4a	-0.019048352
12	0xbce92751	-0.02846113
13	0xbc2bb542	-0.010480227
14	0x3d061974	0.032739118
15	0x3c67c433	0.014145899
16	0x3db61849	0.08891351
17	0x3d9ed146	0.077547595
18	0x3d0c7704	0.03429319
19	0x3d082a6d	0.033243585
20	0xbce94659	-0.028475927
21	0x3c96bf2f	0.01840171
22	0xbc133bc3	-0.008986416
23	0x3d25f9d6	0.040521465
24	0x3d55c3c3	0.052188646
25	0x3d90e817	0.070755176
26	0xb96427d4	-0.00021758612
27	0x3d08b7aa	0.03337828
28	0x3d830c28	0.06398803
29	0xbd24bdaa	-0.04021994
30	0x3c190067	0.009338475
31	0x3d0fb916	0.03508862
32	0xbb04a777	-0.0020241418
33	0xba8b523f	-0.001062937
34	0x3d703a17	0.05864915
35	0x3e03e868	0.12881625
36	0x3d80d453	0.06290498
37	0x3d4e955a	0.0504354
38	0x3cb7526e	0.022378173
39	0x3dd43b86	0.10362916
40	0x3c8c4e8d	0.0171273
41	0x3d1b8d3d	0.037976492
42	0x3c7ae6e9	0.015313842
43	0x3d313f7f	0.043273445
44	0xbcd56e0c	-0.026053451
45	0x3d04ef3b	0.03245471
46	0x3d16d22c	0.03682153
47	0x3c60f233	0.01372962
48	0x3c5130ac	0.012767952
49	0xbc2b740f	-0.010464682
50	0xbcbf8aaf	-0.02338156
51	0x3be57606	0.007002595
52	0xbbf058f1	-0.0073348214
53	0x3d35b558	0.044362396
54	0x3be36ea6	0.0069406806
55	0xbd065c9e	-0.03280317
56	0xbda9897f	-0.082781784
57	0x3c814fd8	0.015785143
58	0xbc3447b5	-0.011003424
59	0x3d4c921f	0.04994404
60	0x3bab2cec	0.005223861
61	0x3c4e181f	0.012578993
62	0x3cccf4d7	0.025019092
63	0x3aa449b4	0.0012534172
64	0x3cb4e460	0.022081554
65	0x3d934067	0.07190018
66	0x3ce20686	0.027591001
67	0xbd1f3c81	-0.03887606
68	0x3d555460	0.05208242
69	0xbcc3f7b1	-0.02392182
70	0xbcf1f825	-0.02953727
71	0x3cfd7f80	0.030944586
72	0x3cd5ba89	0.026089923
73	0x3d914f68	0.07095224
74	0xbd9cad74	-0.07650271
75	0x3c90dcb5	0.017683366
76	0x3e068b42	0.1313906
77	0x3cd4e7ac	0.025989376
78	0x3d166211	0.036714617
79	0xbb9ba1fd	-0.004749535
80	0xbc1184cd	-0.00888176
81	0xbc9ee6ef	-0.019397227
82	0xbd121bf4	-0.03567119
83	0xbdb899c3	-0.09013703
84	0xbddb8031	-0.1071781
85	0x3d8e885b	0.069596015
86	0x3db7594c	0.08952579
87	0xbd34c54c	-0.04413347
88	0xbc561d19	-0.013068461
89	0xbb8470d5	-0.004041771
90	0x3e138da9	0.14409508
91	0x3d21eadc	0.03953062
92	0xbc24be8b	-0.010055195
93	0xbd0522dd	-0.03250395
94	0xbbc9d825	-0.0061597996
95	0x3d48e098	0.049042314
96	0x3c91d60d	0.017802263
97	0xbc39de02	-0.011344435
98	0x3d491058	0.049087852
99	0x3d5c784c	0.05382566
100	0x3c19d997	0.009390256
101	0x3d2ce47a	0.04221008
102	0xbd236078	-0.03988692
103	0x3d9c2611	0.07624448
104	0x3c3c960b	0.011510382
105	0x3d0d502b	0.034500282
106	0x3d0d0655	0.034429867
107	0x3c43964a	0.011937687
108	0x3d1d287f	0.0383687
109	0xbd3bc0ce	-0.04583817
110	0x3c4a39ae	0.0123428535
111	0x3d130846	0.035896562
112	0x3d56ded9	0.052458618
113	0xbd81dfe6	-0.06341533
114	0x3d848d60	0.06472278
115	0xba6dd1d2	-0.0009072098
116	0x3e013934	0.12619478
117	0x3a981c8a	0.0011605185
118	0x3d975224	0.07388714
119	0xbca0d88e	-0.019634511
120	0xbca4dc15	-0.020124475
121	0xbc6147a3	-0.01374999
122	0x3d17256e	0.03690093
123	0xbb5000f9	-0.003173886
124	0x3c615aea	0.013754586
125	0x3d4d73a0	0.050159097
126	0x3d29df67	0.04147282
127	0xbb53a733	-0.0032295703
128	0x3de6cd5c	0.11269638
129	0x3d6904fb	0.056889515
130	0x3db0898e	0.086199865
131	0xbd439501	-0.047749523
132	0x3c1e119d	0.009647754
133	0x3b83544e	0.0040078526
134	0x3cd43043	0.02590192
135	0x3dd475e9	0.10374052
136	0x3d47aa31	0.04874629
137	0xbcaea9f2	-0.02132127
138	0x3c2ba4d1	0.010476307
139	0x3d6e9bd3	0.058254074
140	0x3d960504	0.073251754
141	0xbb75a3eb	-0.0037481736
142	0xbb0c7205	-0.0021430266
143	0x3cad99f6	0.021191578
144	0xbdd554ec	-0.10416588
145	0x3d646bdc	0.055766925
146	0xbc1036c1	-0.008802117
147	0x3d48a240	0.04898286
148	0xbbd50b04	-0.0065015573
149	0xbd08b978	-0.03338
150	0x3b5591da	0.0032588155
151	0x3d774bc1	0.06037498
152	0x3d1f188f	0.03884178
153	0x3ca19d6a	0.019728381
154	0xbc92c33d	-0.017915362
155	0x3c6de9c4	0.014521066
156	0xbce234c0	-0.027613044
157	0x3da061d0	0.07831156
158	0x3d17918f	0.03700405
159	0xbbad5fe2	-0.005290971
160	0x3a996f32	0.0011706112
161	0x3d236377	0.03988978
162	0x3d5295eb	0.051412504
163	0x3dac2e26	0.084072396
164	0x3dc73a4a	0.09727915
165	0x3df3c536	0.119028494
166	0x3d313a91	0.043268744
167	0xbac27cc9	-0.0014838214
168	0xbc1d6da0	-0.009608656
169	0x3bcafc3b	0.006194619
170	0x3c1f36b3	0.009717631
171	0x3c17906a	0.00925074
172	0x3d8507a0	0.06495595
173	0x3cdaa722	0.026691023
174	0x3d360356	0.044436775
175	0xbcd6df6f	-0.026229588
176	0x3d778523	0.060429703
177	0x3c9bcbaf	0.019018022
178	0x3d35cbd8	0.044383854
179	0xbc2f5a98	-0.010702752
180	0x3c2d562b	0.010579626
181	0xbc925f53	-0.01786772
182	0xbc75a87f	-0.014993786
183	0x3d5fd8df	0.054650184
184	0x3c1b8c62	0.009493919
185	0x3cf3c0db	0.029755047
186	0x3d3bea88	0.045877963
187	0xbd861a3d	-0.06547973
188	0x3c9e5fef	0.019332854
189	0x3abd42ec	0.00144395
190	0x3d385d15	0.045010645
191	0x3c7cdbec	0.015433293
192	0xbcd23fe0	-0.025665224
193	0x3bd923ed	0.006626597
194	0x3c2bc38e	0.010483636
195	0x3d3f9390	0.046771586
196	0xbc1154ac	-0.008870285
197	0x3c2b9636	0.010472825
198	0xbd7c9824	-0.06166853
199	0xbcc5e60e	-0.02415755
200	0x39871465	0.00025764402
201	0x3d075634	0.033041194
202	0x3c701cc0	0.014655292
203	0x3adbcc72	0.0016769303
204	0x3cc91e9c	0.024550728
205	0x3ce2c005	0.027679453
206	0x3d92e351	0.071722634
207	0x3cee7dab	0.029112658
208	0x3d24ca50	0.040232003
209	0x3b34efcf	0.0027608757
210	0x3ce3a1df	0.027787147
211	0x3d1d8551	0.03845722
212	0x3ccefb74	0.025266387
213	0x3bf2c6e9	0.007408966
214	0x3d75dc1e	0.060024373
215	0x3d35d254	0.044390038
216	0xba206385	-0.0006118345
217	0x3c9394be	0.018015262
218	0xbd51e549	-0.051244054
219	0x3d230b26	0.039805554
220	0x3d8d6bd3	0.069053315
221	0x3da07cc9	0.07836301
222	0x3d2bcd9a	0.041944124
223	0x3d51510d	0.051102687
224	0xba0f4889	-0.00054658257
225	0xbd0d0639	-0.034429763
226	0x3d92c4f5	0.07166473
227	0xbb66982c	-0.0035185916
228	0x3bd48b57	0.006486337
229	0x3ce4bcc5	0.027922044
230	0xbcee331c	-0.029077105
231	0x3d391228	0.04518333
232	0x3bc2c323	0.0059436723
233	0x3cbf7394	0.023370542
234	0x3d84b936	0.06480639
235	0x3acaa461	0.0015460366
236	0x3a7186f7	0.0009213532
237	0x3beb444d	0.007179773
238	0x3cb9f7d2	0.022701178
239	0xba6d000a	-0.00090408383
240	0x3d378d5d	0.04481255
241	0x3ca5fd3d	0.020262355
242	0x3ba4caae	0.005029044
243	0x3c99a5e1	0.018755855
244	0xbcdd3687	-0.02700354
245	0x3c015c49	0.007895538
246	0x3d3f72ff	0.04674053
247	0xbd4ffd90	-0.050778925
248	0x3d888968	0.06666833
249	0xbbeeff5f	-0.007293626
250	0xbc297965	-0.010343884
251	0xbc8b3319	-0.016992139
252	0xbb850ec6	-0.004060599
253	0x3cad3094	0.021141328
254	0xbc8f1893	-0.017467773
255	0x3caf1a80	0.02137494

network_body._body_endoder.seq_layers.2.weight f4 [256, 256]
0	0x3c795a73	0.015219319
1	0x3e20ae1e	0.1569142
2	0x3bc424af	0.0059858183
3	0x3e992149	0.29908207
4	0x3d84b9c0	0.064807415
5	0xbdb5987a	-0.08866973
6	0x3d2efc91	0.042721335
7	0x3ddddccd	0.1083313
8	0xbd934ea8	-0.07192737
9	0x3d6bb2f6	0.057543717
10	0x3db57e2b	0.08861955
11	0xbddcb79c	-0.10777208
12	0xbe1baeb0	-0.15203357
13	0x3de7b671	0.11314095
14	0xbe0317c5	-0.12802036
15	0xbcf0d24f	-0.029397158
16	0x3e75e612	0.24013546
17	0x3e1b027e	0.1513767
18	0xbe3694ea	-0.17830244
19	0x3d86c04c	0.065796465
20	0x3dd37719	0.103254505
21	0xbd844051	-0.0645758
22	0xbdb75d9b	-0.08953401
23	0xbdcac402	-0.09900667
24	0xbc430ce3	-0.011904928
25	0x3dcf55d2	0.10123791
26	0xbd9c449d	-0.076302744
27	0xbd8d298a	-0.068926886
28	0xbcd9249a	-0.02650671
29	0xbcc4ed13	-0.024038827
30	0xbdf8fb13	-0.121572636
31	0xbde185a5	-0.11011819
32	0x3cef6aed	0.02922579
33	0xbd497895	-0.04918726
34	0xbcd6a90f	-0.02620366
35	0x3e0657b5	0.13119395
36	0xbe5216e1	-0.2051654
37	0x3d204d52	0.03913624
38	0xbd537cb7	-0.05163261
39	0xbe1bdae7	-0.15220223
40	0x3c0f082f	0.008729978
41	0xbd4a76a0	-0.049429536
42	0xbd6945e9	-0.056951437
43	0xbd884596	-0.066538975
44	0xbe22f556	-0.159139
45	0xbe0ce5c3	-0.13759522
46	0x3bce9015	0.006303797
47	0xbd741794	-0.0595928
48	0xbda30484	-0.07959846
49	0x3daa6c1a	0.083214
50	0xbe0735e5	-0.13204153
51	0xbc6e6a22	-0.014551671
52	0xbc010ca5	-0.00787655
53	0xbd84cb2d	-0.06484065
54	0xbd211b76	-0.03933283
55	0xbdb8bd70	-0.09020507
56	0xbdc7d493	-0.09757342
57	0xbce67a21	-0.028134407
58	0xbc0e48e0	-0.008684367
59	0xbcd91b57	-0.026502294
60	0xbc45b8be	-0.012067972
61	0xbdc57277	-0.09640973
62	0x3bf9abf6	0.0076193763
63	0xbc557898	-0.01302924
64	0xbdb7429a	-0.0894825
65	0xbde02982	-0.10945417
66	0xbd930fe7	-0.071807675
67	0xbda4f030	-0.08053625
68	0x3cdf265e	0.027239975
69	0xbe7b0d58	-0.24516809
70	0xbc91ef9f	-0.017814456
71	0xbd35bfc7	-0.044372346
72	0xbe0170e6	-0.12640724
73	0x3da0bb8a	0.0784827
74	0xbdf6c36d	-0.12048993
75	0x3e20aebc	0.15691656
76	0x3d82dbd5	0.06389586
77	0x3ca895ef	0.020579306
78	0x3d8a802c	0.06762728
79	0x3d84ed46	0.06490569
80	0x3b3270f6	0.0027227974
81	0x3daa4326	0.08313589
82	0xba1c447a	-0.00059611315
83	0x3c3e44d9	0.011613094
84	0xbd347ccc	-0.044064328
85	0x3d806318	0.06268901
86	0x3d802993	0.0625793
87	0x3cf6137b	0.030038586
88	0x3d1a6e88	0.037703067
89	0x3b8f2890	0.004368849
90	0x3e0447f7	0.12918077
91	0xbd38b8f9	-0.04509828
92	0x3c3ae7ca	0.011407802
93	0x3d84f15e	0.0649135
94	0x3e3ca0ac	0.18420666
95	0xbe4ce9c5	-0.20011051
96	0xbca8ae63	-0.020590967
97	0xbe3fe6bb	-0.1874036
98	0xbdae44dd	-0.085092284
99	0x3d63c4a5	0.055607457
100	0xbda6d5f5	-0.08146278
101	0xbde19877	-0.110154085
102	0x3cb3a586	0.021929514
103	0xbb9de849	-0.0048189503
104	0xbd932d61	-0.0718639
105	0xbd096675	-0.033544976
106	0xbe3c20d5	-0.183719
107	0xbe42ea62	-0.19034722
108	0x3e5a6f17	0.2133144
109	0x3caa2e8d	0.02077415
110	0x3dc46a0d	0.0959054
111	0x3d736190	0.059419215
112	0xbe28b511	-0.16475321
113	0xbc8e58b0	-0.017376274
114	0xbdba5234	-0.0909771
115	0x3c71de5e	0.014762489
116	0x3e452a35	0.19254382
117	0x3e1027f6	0.14077744
118	0x3d725b6b	0.059169214
119	0xbca0d164	-0.019631095
120	0xbdc9aeea	-0.09847815
121	0xbe426202	-0.189827
122	0x3c20ab1f	0.009806423
123	0xbe050c22	-0.1299291
124	0xbd4613f4	-0.048358873
125	0xbdc8f43e	-0.098122105
126	0x3c2f854f	0.010712936
127	0xbd6be8cf	-0.05759507
128	0x3dde956d	0.108683445
129	0xbdc0b0ac	-0.094086975
130	0xbd7feb65	-0.06248035
131	0xbaa9a76c	-0.0012943572
132	0xbc17ba11	-0.00926067
133	0x3e851e3e	0.25999635
134	0x3d27ef8b	0.04099993
135	0xbe0aa7b0	-0.1354053
136	0xbd2b721d	-0.041856874
137	0xbd2dc905	-0.042428035
138	0xbe047033	-0.12933426
139	0xbe0dd37a	-0.13850203
140	0x3e6d67ab	0.23184077
141	0xbe74fe91	-0.23925234
142	0xbc9acbf9	-0.01889609
143	0x3e336035	0.17517169
144	0x3bc4b727	0.006003279
145	0xbd292415	-0.041294176
146	0xbd9cab1f	-0.07649826
147	0x3ce2a28f	0.027665405
148	0x3d1dcf82	0.038527973
149	0x3cf98ad8	0.030461714
150	0xbd9ca478	-0.076485574
151	0xbdbe9308	-0.09305388
152	0xbca3065b	-0.019900491
153	0x3cc33a2d	0.023831451
154	0xbe0531fc	-0.13007349
155	0x3db206ed	0.08692727
156	0xbe26a3cd	-0.16273423
157	0xbe331210	-0.17487359
158	0xbcbae2ef	-0.022813288
159	0xbdb64562	-0.088999525
160	0xbc74273f	-0.014901935
161	0xbd441bce	-0.04787808
162	0xbca05aec	-0.019574605
163	0x3cd00383	0.0253923
164	0x3d1bd8d3	0.038048577
165	0xbde20061	-0.110352285
166	0xbda78043	-0.08178761
167	0xbe296b66	-0.16544876
168	0xbe61bb4e	-0.22044107
169	0x3d95f358	0.07321805
170	0x3e49ec27	0.19718991
171	0xbe179dd8	-0.14806306
172	0xbe2971db	-0.16547339
173	0xbde99dcd	-0.11407051
174	0x3d76c936	0.060250483
175	0x3d9193eb	0.07108291
176	0xbcfd38e7	-0.030910922
177	0x3dc0d2e3	0.094152234
178	0xbcb8f643	-0.022578364
179	0xbd8d7bbc	-0.06908366
180	0xbcd75c30	-0.026289076
181	0xbd8765c3	-0.066112064
182	0x3d8c2f15	0.06844918
183	0x3b9c152a	0.004763265
184	0x3d1610f3	0.036637258
185	0xbd9ddc81	-0.077080734
186	0x3bfdd12e	0.0077458834
187	0x3e2cebba	0.16886798
188	0xbdd31447	-0.10306602
189	0xbd49a274	-0.049227193
190	0x3da51e63	0.080624364
191	0xbd7485ab	-0.05969779
192	0xbe81f798	-0.25384212
193	0xbe503c18	-0.20335424
194	0xbdd81e9c	-0.10552713
195	0x3dafc4a9	0.08582432
196	0x3d758ae3	0.059946906
197	0xbd783efa	-0.060606934
198	0x3a9624c5	0.001145505
199	0x3d1228ad	0.035683323
200	0x3e146f75	0.14495642
201	0xbcdfa6d1	-0.027301224
202	0xbe076ad6	-0.13224348
203	0xbe24313b	-0.16034405
204	0x3db46544	0.088083774
205	0x3d5480db	0.0518807
206	0x3d612aad	0.05497234
207	0xbde96df6	-0.113979265
208	0x3e9089a4	0.2823001
209	0x3d1cb22f	0.038255867
210	0xbe4d38f3	-0.20041256
211	0xbd5ffa48	-0.054682046
212	0xbd6ca090	-0.05777031
213	0xbd3624e1	-0.044468764
214	0x3d50f965	0.05101909
215	0xbcf33be5	-0.029691646
216	0x3dc24c91	0.0948726
217	0xbe51aaf9	-0.20475377
218	0xbd9985f2	-0.07496251
219	0xbbe997ad	-0.007128677
220	0x3cb9d6d2	0.022685442
221	0xbc307f6e	-0.010772569
222	0xbe0e89e3	-0.13919787
223	0x3e1d6471	0.15370347
224	0x3d92b656	0.07163684
225	0xbd99a2b6	-0.07501738
226	0x3d1a736c	0.03770773
227	0x3e2e3bcb	0.17014997
228	0xbdb0511a	-0.08609219
229	0xbdc64fd3	-0.09683194
230	0x3c4b50ef	0.012409433
231	0xbc0d07c1	-0.008607806
232	0x3dbdc990	0.092669606
233	0xbca74f2d	-0.020423496
234	0x3cfb663a	0.030688394
235	0x3d75d83a	0.060020663
236	0xbe29aa7b	-0.1656894
237	0xbd1f6cf2	-0.038922258
238	0x3d83f340	0.06442881
239	0xbd937bbd	-0.072013356
240	0x3ce07e8a	0.027404089
241	0x3d865e50	0.065609574
242	0xbdac8e54	-0.084255844
243	0xbd3e1536	-0.046406947
244	0xbdec32a2	-0.11533095
245	0xbe2900a8	-0.16504157
246	0xbdb80c27	-0.08986693
247	0xbe0bbe57	-0.13646828
248	0xbcb12b56	-0.02162711
249	0xbdc4e4d2	-0.096139565
250	0xbe422939	-0.18961038
251	0xbcd6d68b	-0.026225349
252	0x3e25472f	0.16140436
253	0xbaedd16a	-0.0018144075
254	0x3e1c19cd	0.15244217
255	0xbd9ea29a	-0.077458575

network_body._body_endoder.seq_layers.2.bias f4 [256]
0	0xbd7d3271	-0.061815683
1	0x3a3fcbd5	0.0007316445
2	0xbcda5b80	-0.026654959
3	0xbcb3f192	-0.021965776
4	0xbd2ef868	-0.042717367
5	0x3bb6e4aa	0.005581458
6	0xbd566b77	-0.05234858
7	0xbd2fd2a8	-0.042925507
8	0xbcea94e2	-0.028635446
9	0x3cd51fb7	0.0260161
10	0xbdc09b69	-0.09404642
11	0xbc2ae733	-0.010431099
12	0xbd88d517	-0.06681269
13	0xbc949429	-0.018137055
14	0xbd723571	-0.059132997
15	0xbc220390	-0.009888545
16	0x3cb23099	0.021751689
17	0xbd938754	-0.07203546
18	0xbd5258a5	-0.05135407
19	0xbd298ad6	-0.04139217
20	0xbd4d71bc	-0.050157294
21	0x3c86451c	0.016390376
22	0xbca15654	-0.019694485
23	0xbdaa2774	-0.08308306
24	0xbcacc4a3	-0.021089857
25	0xbcb97120	-0.02263695
26	0x3c673e1a	0.014113927
27	0xbc5e7c44	-0.013579432
28	0xbcdbc181	-0.026825668
29	0xbce0c616	-0.027438205
30	0xbcf7f3a2	-0.03026754
31	0xbc9cfd90	-0.019163877
32	0x3c80730f	0.015679864
33	0x3bb3e9b3	0.0054905056
34	0x3d9f8bba	0.077903226
35	0x3c9cc823	0.019138401
36	0xbda92a59	-0.0826003
37	0x3d31c7a7	0.043403294
38	0xbc6ae625	-0.014337097
39	0xbd62a585	-0.055333633
40	0x3cdf7abc	0.027280204
41	0x3cbe381f	0.02322012
42	0xbc9c37b7	-0.019069536
43	0xbcb4a393	-0.022050655
44	0xbd8b7f74	-0.06811419
45	0x3ca8177e	0.020519014
46	0xbcf0a7a4	-0.029376812
47	0xbc6cc038	-0.014450125
48	0xbd269819	-0.040672395
49	0x3d3908b0	0.0451743
50	0xbd34e4ec	-0.04416363
51	0xbdc728c7	-0.097245745
52	0x3cdef990	0.02721861
53	0xbd38760a	-0.045034446
54	0xbd579d18	-0.05264005
55	0xbd0b7bcb	-0.034053605
56	0xbba82ae2	-0.005132065
57	0x3ca4fcc6	0.020140063
58	0xbc2fcfd0	-0.010730699
59	0xbc8d1f8b	-0.017226955
60	0xbc565bc8	-0.013083406
61	0xbd061f23	-0.032744538
62	0xbce9b157	-0.028526945
63	0xbcbeb62b	-0.023280224
64	0xbcdb278c	-0.026752256
65	0xbc8292ad	-0.015939081
66	0xbb4db7db	-0.0031390104
67	0x3bf07378	0.0073379837
68	0x3c6176c5	0.013761227
69	0xbd8a0a04	-0.067401916
70	0xbd5958b3	-0.053063106
71	0xbc09c4bf	-0.008408724
72	0xbd14de53	-0.036344837
73	0xbd124337	-0.035708632
74	0x3ca3424d	0.019929076
75	0xbd984428	-0.07434875
76	0x3ac165e5	0.0014755098
77	0xbd8edc21	-0.0697558
78	0xbd0264cb	-0.031834405
79	0x3b85e466	0.004086065
80	0xbd19d267	-0.03755417
81	0xbcf53ece	-0.029937174
82	0xbd21df6e	-0.03951972
83	0xbb873f22	-0.004127399
84	0x3b621f45	0.0034503501
85	0xbcefc93b	-0.029270759
86	0x3d2005cc	0.03906803
87	0xbdb2ff00	-0.08740044
88	0x3d3fe182	0.04684592
89	0x3c8d3b84	0.017240293
90	0xbcde2a5b	-0.027119806
91	0xbc01fc14	-0.007933635
92	0xbd6dc983	-0.058053505
93	0x3c2c488b	0.0105153425
94	0x3c44e7e6	0.0120181795
95	0xbd4cc00d	-0.04998784
96	0x3a430e69	0.0007440807
97	0xbcf0c61b	-0.029391339
98	0xbd97b813	-0.07408156
99	0x3cfa6759	0.030566858
100	0xbd5edd8f	-0.054410513
101	0xbd55f7d0	-0.052238286
102	0xbcf65133	-0.030068016
103	0xbd495593	-0.049153876
104	0xbd81ad58	-0.06331891
105	0xbc7c269b	-0.015390064
106	0xbd2da4e3	-0.042393576
107	0x3c73d51d	0.014882353
108	0xbd7bb3f0	-0.0614509
109	0x3bd6bd9f	0.0065533663
110	0xbc0564d8	-0.008141719
111	0xbcb4a840	-0.022052884
112	0xbd6b4a91	-0.05744416
113	0x3bf78745	0.007553967
114	0xbd15e171	-0.03659195
115	0xbcab386b	-0.020900926
116	0xbcbd52dd	-0.023110801
117	0xbc508ca8	-0.012728848
118	0x3d0c6a81	0.034281258
119	0x3c5169e5	0.012781595
120	0xba1d6266	-0.0006003737
121	0xbd598d4a	-0.05311326
122	0xbd6fe660	-0.058569312
123	0xbd3e24fc	-0.04642199
124	0xbd4acb50	-0.0495103
125	0x3c668a20	0.0140710175
126	0xbd864b5a	-0.06557341
127	0xbc6c1849	-0.014410087
128	0xbcbf0856	-0.023319405
129	0xbd8fc0ab	-0.070191704
130	0xbd3179db	-0.0433291
131	0xbb9db0fe	-0.004812359
132	0xbc8616e3	-0.016368335
133	0x3c9937fa	0.01870345
134	0xbd897fcd	-0.06713829
135	0x3d026016	0.031829916
136	0x3bd6a151	0.006549992
137	0xbc5111ed	-0.0127606215
138	0x39f06b52	0.00045856327
139	0x3c0ea923	0.0087073175
140	0xbd5ad464	-0.053425208
141	0xbcdef785	-0.027217636
142	0xbd67b722	-0.056571133
143	0x3d0f6ea5	0.03501763
144	0xbd28d787	-0.041221168
145	0xbce9c6ba	-0.028537143
146	0xbc12c655	-0.008958419
147	0x3c011281	0.007877947
148	0xb9e153b8	-0.0004297772
149	0xbd2320d7	-0.03982624
150	0x3c249c48	0.010047026
151	0xbd40cd51	-0.047070805
152	0x3c13cde4	0.009021256
153	0xbcd69420	-0.026193678
154	0x3cb48e30	0.022040457
155	0xbc5eed2e	-0.013606353
156	0xbc6c8307	-0.014435536
157	0xbcaab626	-0.020838808
158	0xbcbd13c2	-0.02308071
159	0xbd7259d0	-0.059167683
160	0x3d65478c	0.055976436
161	0x3d140a5c	0.036142692
162	0xbd07c0fb	-0.033143025
163	0xbd712c00	-0.058879852
164	0xbce5bbc0	-0.028043628
165	0x3c82620e	0.015915897
166	0xbc0401a5	-0.008057033
167	0xb993ad15	-0.0002816698
168	0x3c501888	0.012701161
169	0xbd6dd20f	-0.058061656
170	0xba892ba0	-0.0010465272
171	0xbd157640	-0.036489725
172	0xbbc3334b	-0.0059570423
173	0xbd3c9def	-0.046049055
174	0xbce6f3ed	-0.028192485
175	0x3cb8a050	0.02253738
176	0x3c6d6c13	0.014491099
177	0xbd0666be	-0.032812826
178	0x3a921215	0.0011144305
179	0xbc9c6c40	-0.019094586
180	0xbc8f1198	-0.017464444
181	0x3b7c81e6	0.0038529574
182	0xbd5d2992	-0.053994723
183	0xbd81015e	-0.06299089
184	0x39414bbe	0.0001843413
185	0xbb93d285	-0.00451118
186	0x3d05ea20	0.032693982
187	0x3c3d536b	0.011555533
188	0x3d19e08f	0.03756767
189	0xbc5a62f3	-0.013329255
190	0xbcd3b1ea	-0.025841672
191	0xbc9e1b05	-0.019299993
192	0x3c61d6ff	0.013784169
193	0xbd37862c	-0.04480569
194	0x390f6280	0.00013674237
195	0xbd7aa467	-0.061191943
196	0x3b4e1ee1	0.003145151
197	0xbcd9d25d	-0.026589567
198	0xbc8cd86f	-0.017193047
199	0xbced8ba0	-0.028997242
200	0xbcadfce8	-0.02123876
201	0xbda34f4d	-0.0797411
202	0xbd8ac52a	-0.06775887
203	0xbc840cd0	-0.01611939
204	0xbd28c72d	-0.041205574
205	0x3c777f35	0.015106012
206	0x3c4b87e0	0.012422532
207	0xbbb567ef	-0.0055360715
208	0xbc824469	-0.015901761
209	0x3b8363a5	0.0040096813
210	0xbcd46d38	-0.025930986
211	0xbd1c7b96	-0.0382038
212	0x3c8b49d1	0.017002972
213	0xbd968642	-0.073498264
214	0xbd6f355b	-0.058400493
215	0xbbb99cdf	-0.0056644524
216	0x3c6afaba	0.014342004
217	0xbd0e4980	-0.034738064
218	0x3c1a7f11	0.009429709
219	0xbd45cc8e	-0.04829078
220	0xbd1415a0	-0.036153436
221	0xbd19787e	-0.037468426
222	0xbcc9c0e1	-0.024628105
223	0xbd397ec5	-0.045286912
224	0xbd521ee7	-0.051299002
225	0xbdbeae5f	-0.093106024
226	0xbd7ce149	-0.061738286
227	0xbce551f8	-0.027993187
228	0xbd090c9d	-0.033459295
229	0xbca6b7c1	-0.020351293
230	0xbdb00ff8	-0.08596796
231	0x3c710c43	0.014712396
232	0xbd3bae9e	-0.045820825
233	0xbcd033c7	-0.025415314
234	0x3ca2851f	0.019838868
235	0xbcb2f679	-0.021846043
236	0xbbbbe9fa	-0.0057346793
237	0x3ab28ffa	0.0013623231
238	0xbc4e4df3	-0.012591827
239	0xbd6999bb	-0.057031374
240	0xbd35eef9	-0.044417355
241	0xbcbad6f3	-0.022807574
242	0xb9d0f843	-0.0003985782
243	0xbc0cc839	-0.008592659
244	0xbd3bcf20	-0.045851827
245	0xbc230c68	-0.009951688
246	0x3c6021fa	0.013679976
247	0xbcfa2073	-0.030533051
248	0xbd74283a	-0.059608676
249	0x3bee97b9	0.0072812703
250	0xbcb46152	-0.022019062
251	0xbca2c546	-0.019869458
252	0xbdeccd20	-0.11562562
253	0xbce20c72	-0.027593825
254	0xbda7bc85	-0.08190254
255	0xbd4b6074	-0.04965253

action_model._continuous_distribution.log_sigma f4 [1, 2]
0	0xc00424b2	-2.0647397
1	0xbffb48f4	-1.9631639

action_model._continuous_distribution.mu.weight f4 [2, 256]
0	0x3d46a21f	0.048494454
1	0xbd87fd92	-0.066401616
2	0x3dbee3be	0.09320782
3	0x3bf65e72	0.007518583
4	0x3ca378ac	0.019955002
5	0xbb6910be	-0.0035562958
6	0x3da227d1	0.079177506
7	0x3d82a2f9	0.06378741
8	0x3db423bc	0.08795878
9	0x3dd9285e	0.106034026
10	0x3d3e7f90	0.04650837
11	0x3db8e1ed	0.09027467
12	0x3cb32471	0.021867963
13	0x3d626b39	0.055278037
14	0x3d561b56	0.052272163
15	0x3b58fb72	0.0033108857
16	0x3d4c984c	0.04994993
17	0x3d14ca88	0.03632596
18	0x3c507a9a	0.012724543
19	0x3d22057b	0.039556008
20	0x3e21a2d7	0.15784775
21	0xbc9680ad	-0.018371904
22	0x3be3cac8	0.0069516636
23	0xbc7a506e	-0.015277965
24	0x3c8389fd	0.016057009
25	0xbcebf54f	-0.028803496
26	0xbdcd0a28	-0.10011703
27	0xbd6f4287	-0.058413055
28	0xbbc5e132	-0.0060388083
29	0x3caf9b8a	0.021436471
30	0x3db07cbf	0.086175434
31	0xbc639efd	-0.013892886
32	0xbd23d209	-0.039995227
33	0xbc37d0e4	-0.011219237
34	0xb9ffe600	-0.00048808753
35	0x3c1e9f9a	0.009681607
36	0x3c74517b	0.014912005
37	0x3b064ab8	0.0020491313
38	0x3e0318ac	0.1280238
39	0x3d4a9703	0.049460422
40	0x39acf6e0	0.00032990333
41	0xbbe3aa86	-0.006947818
42	0x3de58161	0.11206318
43	0x3db898c9	0.090135165
44	0x3dc1a3e7	0.0945509
45	0x3b00d879	0.0019660278
46	0x3c5abca6	0.013350641
47	0x3d1dc9d7	0.038522568
48	0x3df6b7f8	0.12046808
49	0x3e0356e5	0.12826116
50	0x3d5f2b78	0.054484814
51	0xb99cc6cb	-0.0002990275
52	0x391ab4e3	0.0001475397
53	0x3e89f224	0.2694255
54	0x3af11e02	0.0018395784
55	0x3cc4e7e0	0.024036348
56	0x3bd41aff	0.0064729447
57	0x3a8df497	0.001083034
58	0x3d1fb97e	0.03899526
59	0xbd5324ec	-0.051548883
60	0x3da897b7	0.08232062
61	0x3c4f0f23	0.012637886
62	0xbd218a22	-0.039438374
63	0xbcb1e4ef	-0.02171561
64	0xbb379fe9	-0.0028018898
65	0xbcdce7d8	-0.02696602
66	0x3d9cb38d	0.07651434
67	0xbd703b89	-0.058650527
68	0xbae7702e	-0.0017657334
69	0x3d005af9	0.03133676
70	0xb993abac	-0.0002816593
71	0xbd8d4370	-0.06897628
72	0xbd1e471d	-0.038642038
73	0xbccbc7a3	-0.024875468
74	0x3e0175ec	0.1264264
75	0x3cf6e018	0.030136153
76	0xbcec17ab	-0.02881988
77	0x3da62a4c	0.08113536
78	0x3ca94ceb	0.02066656
79	0xbe05be66	-0.13060912
80	0x3bc3c415	0.0059743025
81	0x3c1c4b62	0.009539457
82	0xbcdc11e7	-0.026864005
83	0x3d8f5024	0.069977075
84	0x3c2df368	0.010617115
85	0x3c9e9d98	0.019362256
86	0xbbd72055	-0.0065651336
87	0x3cdf8df6	0.027289372
88	0xbe1ea985	-0.15494354
89	0x3dace587	0.08442216
90	0x3ce7f0e4	0.028313108
91	0xbd52de5b	-0.051481586
92	0x3c1e13c9	0.009648272
93	0xbda772b9	-0.081761785
94	0x3db7a365	0.08966712
95	0xbd0f9bb3	-0.035060596
96	0x3dccb724	0.09995869
97	0x3d9fa9c8	0.07796055
98	0x3d3e2f10	0.0464316
99	0xbd87a314	-0.066229016
100	0x3b73c7af	0.0037197878
101	0xbc0c8aa9	-0.008577981
102	0x3d9ac3a6	0.07556848
103	0xbd2ec4a8	-0.042668015
104	0x3de786b7	0.11304992
105	0x3c6893a2	0.014195355
106	0x3d1b33bd	0.03789114
107	0xbbcd7a97	-0.0062707174
108	0x3cb9b1d7	0.022667808
109	0xb9fc8cc9	-0.0004817008
110	0xbb463937	-0.0030246505
111	0x3e0bf29d	0.13666768
112	0x3c58ff05	0.013244395
113	0xba6e2969	-0.000908515
114	0xbcf4e5ac	-0.029894672
115	0xbd57aec2	-0.052656896
116	0x3e1cce62	0.15313104
117	0xbced3e95	-0.028960506
118	0x3db30f3b	0.08743139
119	0xbd4f7b19	-0.050654504
120	0x3baefc09	0.0053401035
121	0x3d0d5e6a	0.03451387
122	0x3d2a3f16	0.04156407
123	0x3bdd79cd	0.0067589046
124	0x3cb62ffc	0.022239678
125	0x3e40996b	0.18808524
126	0xbc515c2c	-0.012778323
127	0xbb01228b	-0.0019704427
128	0xbd780f9e	-0.06056177
129	0xbc126287	-0.008934624
130	0x3db597b9	0.088668294
131	0xbd0bec3a	-0.03416083
132	0xbda4d82b	-0.08049043
133	0xbc236dfd	-0.009974954
134	0x3d56cc2e	0.052440815
135	0xbba518d3	-0.0050383597
136	0x3d465a2d	0.048425842
137	0x3c8829b1	0.016621443
138	0xbd8993a9	-0.06717617
139	0xbcdc8f89	-0.026923912
140	0x3da60ff6	0.08108513
141	0x3d74cf51	0.059768025
142	0x3d2cd58d	0.042195845
143	0xbb68a47a	-0.0035498426
144	0x3d133e36	0.035948
145	0x3d205374	0.039142087
146	0xbd4ecbe6	-0.05048742
147	0x3b746e86	0.0037297322
148	0x3dd79c1f	0.105278246
149	0x3dd081ef	0.10181033
150	0x3de4f7b1	0.11180056
151	0x3d3bca01	0.045846943
152	0x3defae88	0.11703211
153	0x3e24155e	0.16023776
154	0xbda06f3f	-0.078337185
155	0x3d0820f0	0.033234537
156	0x3df8f248	0.121555865
157	0xbcedf03d	-0.029045219
158	0x3db82599	0.08991546
159	0x3d9a4898	0.075333774
160	0x3b9cb2ec	0.0047820713
161	0xbd6a9930	-0.057274997
162	0x3e0b4071	0.13598801
163	0x3c897956	0.01678149
164	0x3c8cc6b0	0.017184585
165	0xbd66f7d0	-0.056388676
166	0x3d380564	0.044927016
167	0xbdaca457	-0.08429783
168	0xbced5d85	-0.028975258
169	0x3d18f0aa	0.03733889
170	0x3cd7de97	0.026351256
171	0x3b3c1799	0.0028700589
172	0x3de6f8be	0.112779126
173	0x3d0c434d	0.03424387
174	0xbc1596bc	-0.009130176
175	0x3b8f21ce	0.0043680435
176	0xba265c1d	-0.00063461234
177	0xbcddafe0	-0.027061403
178	0xbdbf0092	-0.09326281
179	0x3df001c9	0.117190905
180	0x3dc71f71	0.09722794
181	0xbb7fbda7	-0.0039022954
182	0xbd556897	-0.052101698
183	0x3ce220ad	0.027603472
184	0xbad02967	-0.001588148
185	0x3d8bb595	0.068217434
186	0xbadfa5f7	-0.0017063011
187	0xbc2c3928	-0.010511674
188	0x3be9cec7	0.0071352455
189	0xbc4fef14	-0.012691278
190	0xbb2d3749	-0.0026430658
191	0x3e50b8ea	0.20383039
192	0x3bde0f9e	0.006776764
193	0xbc6cbe69	-0.014449694
194	0x3d9fa829	0.07795746
195	0x3da3deb5	0.08001462
196	0x39429186	0.00018555493
197	0x3d740bb6	0.05958148
198	0x3b1d9e01	0.0024050476
199	0x3c886774	0.016650893
200	0xbcf61903	-0.030041223
201	0x3c4b32df	0.012402265
202	0x3d2834c2	0.04106594
203	0xbd6716cd	-0.05641823
204	0xbbaa42cd	-0.0051959516
205	0x3cb119e8	0.021618798
206	0x3a8848f6	0.0010397721
207	0xbd693962	-0.05693949
208	0x3de9e8f3	0.11421385
209	0x3de132e2	0.10996033
210	0x3c0d81db	0.008636917
211	0xbd206ff2	-0.03916926
212	0x3aeb591b	0.0017955633
213	0x3cf73ae5	0.03017945
214	0xbbcc1584	-0.006228151
215	0x3aee4306	0.0018177934
216	0x3da39fe3	0.0798948
217	0x3db04583	0.08607008
218	0x3e035b58	0.12827814
219	0xbb502f91	-0.0031766633
220	0xbd12da4f	-0.035852727
221	0x3a9b8a56	0.0011866789
222	0x3cd96898	0.026539132
223	0x3d2ce986	0.042214893
224	0x3c6a545c	0.014302339
225	0x3d23566d	0.039877344
226	0xbbc74ac1	-0.0060819094
227	0xbb2e9fe3	-0.0026645593
228	0x3ca0e4e6	0.019640397
229	0x3d0921b4	0.033479407
230	0x3d237ec9	0.039915834
231	0xbc290bd3	-0.0103177605
232	0xbcbbe5cb	-0.022936722
233	0x3cae8f99	0.021308707
234	0xbd39e8a6	-0.045387886
235	0x3e032d92	0.12810352
236	0xbd00a695	-0.031408865
237	0xbbd12e2f	-0.0063836793
238	0x3dfca612	0.12336363
239	0x3d6a8c20	0.05726254
240	0x3de45029	0.11148102
241	0xbd09fdb7	-0.033689227
242	0x3a341fc7	0.000687119
243	0x3de61fc5	0.11236528
244	0x3c76f401	0.0150728235
245	0xb9a937d9	-0.00032275802
246	0xba1ec695	-0.00060568127
247	0x3dd72292	0.10504641
248	0x3d0005da	0.03125558
249	0xbdbabfaf	-0.09118592
250	0x3cef5635	0.029215911
251	0xbd577014	-0.05259712
252	0x3c5e22b3	0.013558078
253	0xbb0c68a5	-0.0021424678
254	0xbc217a3e	-0.009855805
255	0xbcf0a5c8	-0.029375926

action_model._continuous_distribution.mu.bias f4 [2]
0	0xbd35f3db	-0.04442201
1	0x3cd420fc	0.025894634

action_model._discrete_distribution.branches.0.weight f4 [2, 256]
0	0xbe4654cb	-0.19368283
1	0x3daf0b36	0.0854706
2	0xbd96f84f	-0.0737158
3	0x3e29b5f1	0.16573311
4	0xbcd227bd	-0.025653714
5	0x3d1f8cbc	0.038952574
6	0xbe144aaa	-0.14481607
7	0xbe4182c6	-0.18897542
8	0xbdc12816	-0.09431474
9	0x3c0409e2	0.008058997
10	0xbe6c4b20	-0.23075533
11	0xbcfb49ef	-0.030674903
12	0xbd8300ec	-0.0639666
13	0x3c0a6eee	0.008449299
14	0xbe8602d9	-0.26174048
15	0x3d630c59	0.055431698
16	0x3d9dfeee	0.077146396
17	0xbe94ed37	-0.2908723
18	0x3c83ca62	0.016087715
19	0xbcc388e3	-0.023868984
20	0xbd9e78cf	-0.07737886
21	0xbbb74440	-0.005592853
22	0x3e2daf3f	0.16961382
23	0x3d58d6cf	0.052939232
24	0x3d55053f	0.052006956
25	0xbc8ffd25	-0.017576763
26	0xbd791cbb	-0.060818415
27	0xbd0c9252	-0.03431923
28	0xbd814aa6	-0.06313066
29	0xbc6edb5c	-0.014578667
30	0xbe1f51e8	-0.15558589
31	0xbe6843d8	-0.2268213
32	0x3e796857	0.24356209
33	0x3e6c0dda	0.23052159
34	0x3efc285c	0.49249542
35	0x3ea458d9	0.32099035
36	0xbdbf46dd	-0.09339688
37	0x3ed23e44	0.4106313
38	0xbc0396b3	-0.008031535
39	0xbc9c7cbe	-0.01910245
40	0x3e73addb	0.2379679
41	0x3d8d8e02	0.069118515
42	0x3dbeaf82	0.09310819
43	0xbc104e0b	-0.008807669
44	0xbe93fb9a	-0.28902894
45	0x3e4ebb12	0.20188549
46	0x3cc54fb5	0.024085859
47	0x3e00367c	0.12520784
48	0xbe1ef729	-0.15523972
49	0xbdd36fce	-0.103240594
50	0x3c0b64ca	0.008507917
51	0xbdbcc3c1	-0.092170246
52	0x3ecd15b0	0.4005561
53	0x3d2201de	0.039552562
54	0x3cc276f6	0.023738366
55	0x3d85d311	0.06534398
56	0x3e0fca7c	0.14042085
57	0x3e95d2fa	0.29262525
58	0xbcd931a5	-0.02651293
59	0x3c68ac20	0.014201194
60	0xbda9d834	-0.082931906
61	0xbcbe86c3	-0.023257619
62	0x3e31061e	0.1728749
63	0xbda04261	-0.07825161
64	0xbc907ca6	-0.017637562
65	0x3dbe2f28	0.09286338
66	0xbd1952d1	-0.037432496
67	0x3de49b3e	0.111624226
68	0xbe59e3ef	-0.21278356
69	0xbd10d1f9	-0.035356496
70	0xbd87efc4	-0.066375285
71	0xbe3b7646	-0.18306836
72	0x3d3899b7	0.04506847
73	0xbcaea8e0	-0.02132076
74	0xbd3c6a90	-0.046000063
75	0xbe48ecb0	-0.19621539
76	0x3e3c42a4	0.18384796
77	0xbe8933ce	-0.26797336
78	0x3d427111	0.04747111
79	0xbd4c5796	-0.049888216
80	0x3e4153c1	0.18879606
81	0x3dc19e34	0.09454003
82	0xbc8bb12c	-0.017052256
83	0xbe7b921e	-0.24567458
84	0x3ea22137	0.31665966
85	0xbd46f45e	-0.04857289
86	0x3eca1a4c	0.39473188
87	0xbd88e4ea	-0.06684287
88	0xbbf38d45	-0.007432612
89	0xbd62a18f	-0.055329856
90	0xbec0f744	-0.3768865
91	0xbc22dc96	-0.009940287
92	0xbde1068b	-0.10987576
93	0xbe1faff6	-0.15594468
94	0xbe785316	-0.24250445
95	0xbd877414	-0.06613937
96	0xbda7211d	-0.08160613
97	0xbc8c8be3	-0.017156547
98	0xbc3041a8	-0.010757841
99	0x3ddca628	0.10773879
100	0x3def2cba	0.11678453
101	0xbe14645e	-0.14491412
102	0xbe2ee196	-0.17078242
103	0xbe7db196	-0.24774775
104	0xbe9dacd5	-0.30795923
105	0xbb9105e0	-0.004425749
106	0xbe1a1654	-0.1504758
107	0x3ea40543	0.32035264
108	0xbd20dc57	-0.039272632
109	0x3d7af4ac	0.061268494
110	0xbcec4a99	-0.028844165
111	0xbe96f221	-0.29481605
112	0x3a847132	0.0010104536
113	0x3e3dd32a	0.18537584
114	0xbe5c7af7	-0.21531282
115	0xbe20bf9f	-0.15698098
116	0xbd6a44e3	-0.0571946
117	0xbe38b3d6	-0.18037352
118	0x3dac9d41	0.08428431
119	0x3ddb70e7	0.10714894
120	0x3e3d56de	0.18490168
121	0xbb8f2d5e	-0.004369422
122	0xbdda8efa	-0.10671802
123	0xbd5e49a2	-0.05426944
124	0xbdbc4906	-0.091936156
125	0xbbe45f84	-0.006969394
126	0x3d0b8a9e	0.034067743
127	0x3e7101f4	0.23535901
128	0xbd5eb90a	-0.054375686
129	0xbdd8ff4a	-0.105955675
130	0x3dc2e626	0.095165536
131	0xbd817d79	-0.0632276
132	0x3e137fab	0.1440417
133	0xbd2ae3f5	-0.041721303
134	0xbd652f29	-0.05595318
135	0x3eb749fc	0.35798633
136	0xbe82ae0e	-0.25523418
137	0x3d244e97	0.04011401
138	0x3deb0211	0.114750035
139	0x3e81168a	0.25212508
140	0xbdcfaca0	-0.101403475
141	0xbe661177	-0.224676
142	0xbd8b8e5a	-0.06814261
143	0x3ee02a0b	0.43782076
144	0xbdcb6b4f	-0.09932577
145	0xbe09ede4	-0.13469654
146	0x3dff7ef2	0.12475385
147	0x3ea64814	0.32476866
148	0xbd908cb6	-0.070580885
149	0xbdcff02b	-0.1015323
150	0xbe6bc267	-0.23023377
151	0xbde12150	-0.10992682
152	0xbe4b74ed	-0.19868822
153	0xbdff0bea	-0.12453444
154	0x3d2c704d	0.042099286
155	0x3e38583c	0.18002409
156	0xbe77b764	-0.24191052
157	0xbe35a7e8	-0.17739832
158	0xbd8c1225	-0.06839398
159	0x3cd693bd	0.026193494
160	0x3f050dbc	0.5197408
161	0x3e94109a	0.28918916
162	0x3d6486fc	0.055792794
163	0x3c8e7482	0.01738954
164	0xbc52262b	-0.012826483
165	0xbdc23434	-0.09482613
166	0x3e3da68c	0.18520564
167	0xbe75052e	-0.23927757
168	0xbcfaee48	-0.0306312
169	0x3d9d6d70	0.07686889
170	0x3e543608	0.20723736
171	0x3e7bd674	0.24593526
172	0xbe9989df	-0.29988
173	0x3d57ad76	0.05265566
174	0xbe3098ef	-0.1724584
175	0x3e8713d5	0.26382318
176	0x3ea86f12	0.3289724
177	0x3c161a01	0.009161473
178	0xbde6aae9	-0.11263067
179	0xbe486954	-0.1957143
180	0xbe43e5c7	-0.19130622
181	0x3e300e3f	0.17192934
182	0x3d8c0175	0.068362154
183	0xbeb585e6	-0.3545372
184	0x3d3a4957	0.0454801
185	0x3e0779d3	0.13230066
186	0x3ec760ad	0.38940945
187	0x3a0df0b2	0.00054145895
188	0x3e9c6849	0.30548313
189	0x3e86ecbc	0.2635249
190	0x3e87a89d	0.2649583
191	0x3c534ed1	0.012897209
192	0x3e0b219e	0.13587043
193	0x3d89cc3b	0.06728407
194	0x3d245a0b	0.040124934
195	0xbdb437c3	-0.08799698
196	0x3ed3ff94	0.41405928
197	0xbda110db	-0.07864543
198	0x3e21ada3	0.15788893
199	0x3d2beb68	0.041972548
200	0x3e13e7f8	0.14443958
201	0x3d8242b2	0.06360377
202	0x3d6b81a5	0.057496686
203	0xbdfc87b8	-0.12330574
204	0xbc2b0c24	-0.010439906
205	0x3e27a2b9	0.16370668
206	0x3dceccca	0.10097654
207	0xbdba451d	-0.090952136
208	0xbe86b347	-0.26308653
209	0x3d98ce97	0.07461279
210	0xbd90e69a	-0.07075234
211	0xbd14ae0f	-0.036298808
212	0x3ebc591d	0.36786738
213	0xbd54621a	-0.05185137
214	0x3ca0ec82	0.019644026
215	0x3e22cfab	0.15899532
216	0x3d6a02f0	0.057131708
217	0xbc503bb1	-0.012709544
218	0xbe792534	-0.24330598
219	0xbe4fd3d1	-0.20295645
220	0xbdfd5ba2	-0.12370993
221	0xbcbed830	-0.023296446
222	0xbdf6c940	-0.12050104
223	0xbe51f58a	-0.20503822
224	0xbe506c04	-0.20353705
225	0xbdd2f5ed	-0.10300813
226	0xbe4fca48	-0.20292008
227	0x3d6aa856	0.057289444
228	0xbd8283de	-0.06372808
229	0xbdd78b5e	-0.10524629
230	0x3da7b46e	0.08188711
231	0x3e84ace3	0.25913152
232	0xbe1ed301	-0.15510179
233	0xbe64d402	-0.223465
234	0xbd37ddbb	-0.044889193
235	0xbde9c30a	-0.11414154
236	0x3e211859	0.15731944
237	0xbe2d8b89	-0.1694776
238	0xbd6b793b	-0.05748866
239	0xbe0877c5	-0.13326938
240	0xbda5c2e1	-0.08093811
241	0x3d1147d6	0.0354689
242	0x3ec4a2e8	0.38405538
243	0xbe8bdfe9	-0.27319267
244	0x3dfe62b1	0.12421168
245	0x3e0abd28	0.1354872
246	0x3e709348	0.23493683
247	0xbe004df9	-0.12529744
248	0xbe309ef5	-0.17248137
249	0x3d1afdf1	0.037839834
250	0xbd455c22	-0.048183568
251	0xbe0f08f5	-0.1396826
252	0x3cdfafd2	0.027305517
253	0x3ea289e1	0.31745818
254	0xbcc0d6ab	-0.023539862
255	0x3c69ad63	0.01426253

action_model._discrete_distribution.branches.0.bias f4 [2]
0	0x3e855b3c	0.2604617
1	0xbe8558e8	-0.26044393

action_model._discrete_distribution.branches.1.weight f4 [2, 256]
0	0x3d882ceb	0.066491924
1	0xbe0822ef	-0.13294576
2	0xbf219db1	-0.63131243
3	0xbd838474	-0.06421748
4	0xbddc6f76	-0.10763447
5	0xbe25f00d	-0.16204853
6	0xbca21434	-0.019785024
7	0x3d5d85ca	0.05408267
8	0xbe0cc83b	-0.13748257
9	0x3e61a596	0.22035822
10	0x3d797c94	0.060909823
11	0xbcd84450	-0.026399761
12	0xbdbe7cde	-0.0930116
13	0xbdce21a5	-0.10065011
14	0x3d079607	0.03310206
15	0xbdb2c8c6	-0.08729701
16	0x3d835d9e	0.064143404
17	0xbd0e1cfc	-0.03469561
18	0xbe47e12f	-0.19519494
19	0xbd5ae5bd	-0.05344175
20	0xbd437d12	-0.0477267
21	0x3e3946e3	0.18093447
22	0xbcfacc54	-0.03061501
23	0xbc4bf858	-0.0124493465
24	0x3c4c2b45	0.012461488
25	0x3deb0819	0.11476154
26	0xbc6fbe52	-0.014632778
27	0x3e63c543	0.22243218
28	0xbdd4f9d9	-0.10399217
29	0x3e6d4df3	0.23174267
30	0x3d8ce57f	0.068797104
31	0xbd6d66b7	-0.057959285
32	0xbda9cffa	-0.082916215
33	0xbdc6689a	-0.0968792
34	0x3ba4371f	0.0050114538
35	0x3d844c19	0.06459827
36	0x3c1765b3	0.009240556
37	0xbd1bab13	-0.038004946
38	0x3e4ed3d1	0.20197989
39	0x3e250396	0.16114649
40	0x3cec4b7b	0.028844586
41	0x3d6753ea	0.05647651
42	0x3de2da34	0.11076775
43	0x3da40691	0.08009065
44	0x3cbd1f49	0.023086207
45	0x3dba2605	0.09089283
46	0xbea21cf3	-0.31662712
47	0x3e5e97cd	0.21737595
48	0x3dbfb161	0.09360004
49	0x3d5ce9d4	0.053933933
50	0x3d9c1b77	0.07622426
51	0x3d23afe6	0.03996267
52	0xbccf8ceb	-0.02533575
53	0xbd5ee17d	-0.05441426
54	0xbd2c15ed	-0.042013098
55	0x3bfe4de7	0.0077607515
56	0xbcb5fbc2	-0.022214774
57	0xbd8ca46f	-0.06867301
58	0xbea1c279	-0.31593683
59	0x3e7367c9	0.2377006
60	0xbda85be0	-0.08220649
61	0xbe32b3ef	-0.17451452
62	0xbe127d30	-0.14305568
63	0x3daf0173	0.08545198
64	0x3de1e384	0.11029723
65	0xbdb27ee3	-0.08715608
66	0x3e8a16e0	0.26970577
67	0xbb86bc3a	-0.004111794
68	0xbec99525	-0.393716
69	0xbd80e450	-0.06293547
70	0xbe490609	-0.19631208
71	0xbb8215b2	-0.0039698714
72	0xbddd678e	-0.10810767
73	0x3d4b3c52	0.049618073
74	0x3e67922f	0.22614358
75	0x3e87e7d7	0.26544067
76	0x3ce11162	0.02747411
77	0x3e074735	0.13210757
78	0x3d5e93bd	0.054340113
79	0x3e823baa	0.25436145
80	0xbbd16e2c	-0.0063913073
81	0xbd0fe286	-0.03512814
82	0xbe99be36	-0.30027932
83	0xbdd5bb55	-0.104361214
84	0xbd788307	-0.060671832
85	0xbdc768fb	-0.0973682
86	0x3cb15338	0.021646127
87	0xbe35fb3a	-0.17771617
88	0xbe23e34c	-0.16004676
89	0x3d9dda96	0.077077076
90	0xbc4cc391	-0.012497799
91	0xbdb4ca81	-0.08827687
92	0x3e1c4c9d	0.152636
93	0xbe1331eb	-0.14374511
94	0xbcdae8c9	-0.026722329
95	0xbe16b0df	-0.14715908
96	0x3e1b409f	0.1516137
97	0x3c835660	0.016032398
98	0xbe8bd8c7	-0.27313825
99	0x3d036de6	0.03208723
100	0xbdb6fab3	-0.08934536
101	0x3e8124a0	0.25223255
102	0x3834a314	4.3067223e-05
103	0xbe880246	-0.26564234
104	0x3ccd9a2c	0.025097929
105	0x3e1b9c41	0.15196325
106	0xbcd28714	-0.025699176
107	0x3d632c8f	0.055462416
108	0xbe8554a7	-0.26041147
109	0x3dc9c65f	0.098522894
110	0xbd1c5911	-0.038170878
111	0xbe080edf	-0.13286923
112	0xbdf1a9af	-0.11799943
113	0xbdcdc208	-0.10046774
114	0xbc2838ff	-0.010267495
115	0x3e890dc1	0.26768306
116	0x3d2fa1e2	0.042878993
117	0xbc9835f5	-0.018580416
118	0x3e0de61e	0.13857314
119	0xbcff8368	-0.03119059
120	0xbd62c1cc	-0.0553606
121	0xbd090985	-0.033456344
122	0xbcfdb770	-0.030971259
123	0xbe2343d2	-0.1594384
124	0x3d8923bb	0.06696268
125	0x3ea5e92b	0.32404456
126	0x3de5fee0	0.11230254
127	0x3bacfc26	0.005279082
128	0x3e3b8590	0.18312669
129	0xbc656821	-0.014001877
130	0x3cedec34	0.029043294
131	0xbddbe386	-0.10736756
132	0x3e27b041	0.1637583
133	0x3e3e46bd	0.18581672
134	0x3d95a3cc	0.073066324
135	0x3d7d8e5a	0.061903335
136	0xbce80c4e	-0.02832618
137	0x3e7e05f2	0.24806955
138	0x3d4d5bbd	0.050136317
139	0xbdaf3126	-0.08554296
140	0xbd040cb5	-0.03223868
141	0x3dea1dab	0.1143144
142	0xbe5a1a44	-0.21299082
143	0x3bb66454	0.0055661593
144	0x3d438692	0.047735758
145	0x3e5217dd	0.20516916
146	0xbdef9c3a	-0.1169972
147	0x3c441efa	0.011970276
148	0xbb7d8964	-0.0038686628
149	0x3d444783	0.04791976
150	0xbd9b5e4b	-0.07586344
151	0xbd44e3ca	-0.0480688
152	0x3d926ec6	0.071500346
153	0x3e0dd28a	0.13849846
154	0x3d52569a	0.05135212
155	0x3c1a8d6d	0.009433133
156	0x3dbb69e4	0.091510564
157	0xba945b4c	-0.0011318712
158	0x3dc5b962	0.096544996
159	0x3db7d64d	0.089764215
160	0x3cd67176	0.02617715
161	0xbd13ba67	-0.03606644
162	0x3e72614f	0.23669933
163	0xbe22ceab	-0.1589915
164	0x3e9e9161	0.3097029
165	0xbdfc8b27	-0.12331229
166	0xbcec6183	-0.028855091
167	0xbc9a8b82	-0.01886535
168	0x3e1faf4e	0.15594217
169	0xbdaea741	-0.08527995
170	0xbe649986	-0.2232419
171	0x3d4b1443	0.04957987
172	0x3c9057ff	0.017620085
173	0xbd39c70b	-0.045355838
174	0xbdb845f6	-0.08997719
175	0xbc686030	-0.014183089
176	0xbd8ccd0f	-0.06875049
177	0xbd6668ab	-0.056252163
178	0xbd2a82dc	-0.041628703
179	0xbd745a28	-0.059656292
180	0x3dc402c2	0.095708385
181	0xbd9cefd7	-0.07662933
182	0xbde9aaaa	-0.11409505
183	0xbe515b1c	-0.20444912
184	0x3e0c4a6c	0.13700265
185	0x3e0a6786	0.13516054
186	0x3cee65db	0.029101303
187	0x3e58ea5e	0.21183154
188	0x3db0d408	0.08634192
189	0xbd490e07	-0.049085643
190	0x3c3cd1d1	0.0115246335
191	0xbce1f46e	-0.027582373
192	0x3dac6bdf	0.08419012
193	0x3db54035	0.08850137
194	0x3e1f060e	0.15529653
195	0x3da9e934	0.08296433
196	0x3b9e4390	0.0048298314
197	0x3d87492f	0.066057555
198	0x3d347856	0.044060074
199	0x3b097f4e	0.002098042
200	0x3c74166c	0.014897924
201	0x3d044ec5	0.032301683
202	0x3c1a2076	0.009407153
203	0xba41deb7	-0.0007395553
204	0xbd49db02	-0.049281128
205	0x3e8532b0	0.26015234
206	0x3dddbd24	0.10827091
207	0x3e64120b	0.22272508
208	0xbd9467b1	-0.0724634
209	0xbd9d225c	-0.07672569
210	0xbe9625e2	-0.29325777
211	0x3d7d4c2b	0.061840218
212	0x3a5063d5	0.00079494464
213	0xbdb08e3e	-0.086208805
214	0xbca930ef	-0.020653216
215	0x3e264f6f	0.16241239
216	0x3e9004f0	0.28128767
217	0xbd21509b	-0.039383512
218	0xbe11b94f	-0.14230846
219	0xbdf4f9d7	-0.11961716
220	0x3de49cae	0.11162697
221	0xbe04e277	-0.12977014
222	0xbb237f46	-0.0024947687
223	0xbc8b8b3e	-0.01703417
224	0xbe269cdd	-0.16270776
225	0x3de65539	0.11246724
226	0xbdedbd2a	-0.11608346
227	0xbe1a383f	-0.15060519
228	0xbd0ad804	-0.033897415
229	0xbd59d367	-0.053180125
230	0x3e07e6e2	0.13271669
231	0xbd4a06f8	-0.049323052
232	0xbc46b435	-0.012127926
233	0x3e12708b	0.14300744
234	0xbddee1df	-0.10882925
235	0x3e069bb0	0.13145328
236	0xbd2de41d	-0.042453874
237	0xbd08ea47	-0.03342655
238	0x3e3b34fb	0.18281929
239	0xbd9d24a1	-0.07673002
240	0xbdc9133a	-0.0981812
241	0xbe8cd921	-0.27509406
242	0x3cfcd125	0.030861447
243	0xbd86d12d	-0.06582866
244	0xbdd726e2	-0.10505463
245	0xbda6a588	-0.08137041
246	0x3c8b53e9	0.017007785
247	0x3e6dedaf	0.232352
248	0xbe3c23e7	-0.1837307
249	0xbc4710d2	-0.012150006
250	0xbe3a09d4	-0.18167812
251	0x3daef49c	0.08542749
252	0x3d85a153	0.06524911
253	0xbdba3edf	-0.09094023
254	0xbd9b07c7	-0.07569843
255	0xbdda208f	-0.10650741

action_model._discrete_distribution.branches.1.bias f4 [2]
0	0x3c7b663b	0.015344198
1	0xbc7b659b	-0.015344049
