Assets/ML-Agents/config/results/tank_beta_0.001_2_layers_buffer_4096_epsil_0.1/AgentTank.onnx (onnx, 309310 bytes, 12 tensors)

discrete_action_output_shape f4 [1, 2]
000000 00 00 00 40 00 00 00 40
       2.0 2.0

network_body._body_endoder.seq_layers.0.weight f4 [256, 34]
000000 16 29 a6 3c a9 0c 73 be 18 96 f1 3c 01 41 84 3e
       0.020283263 -0.23735298 0.029490516 0.25830844
000010 0b 77 87 be d7 bf 84 3d 3f a3 9e 3d 34 96 9e 3d
       -0.2645801 0.06481903 0.077459805 0.07743493
000020 ce 47 24 3e df df 79 3c 90 e7 0f 3e fc f4 13 be
       0.16043016 0.015251129 0.14053178 -0.14448923
000030 41 ae 5f be 1a 0d be bd 7f 90 3d 3d ec a7 c7 bc
       -0.21843816 -0.09279843 0.04628038 -0.024372064
000040 12 ed f9 3d 49 98 01 be a8 bf 04 3a 4b 3a 57 bc
       0.12203421 -0.12655748 0.00050639594 -0.013136457
000050 58 db 56 be 33 6e fd bd 73 aa 86 3e 1e 43 d0 bd
       -0.2098211 -0.123745345 0.26301917 -0.101690516
000060 c2 0c fa 3d 6c 3e 93 3e 7d df 72 3d 80 b6 b0 3d
       0.122094646 0.28758562 0.059295166 0.08628559
000070 6e 14 2d be bd 7d 21 be 7c d9 db 3d 20 1f af be
       -0.16902325 -0.15770622 0.10734841 -0.34203434
000080 e6 cf 5b 3e ce b8 51 be f9 ac 2f 3e 66 8b cb be
       0.21466026 -0.20480654 0.17155828 -0.3975479
000090 3b 8b ce bd 1f fd 2d be d8 6d 33 3e 6a 9e 82 3b
       -0.1008515 -0.1699109 0.17522371 0.0039861696
0000a0 aa 56 bf bd 1d 5b 57 3e f1 d3 28 3e 6b 99 64 3e
       -0.09342702 0.2103085 0.16487099 0.2232415
0000b0 b8 6c b4 be 9e 4e 98 3e 64 82 28 3e ee a3 8c 3c
       -0.35239196 0.2974748 0.1645599 0.017168012
0000c0 d2 ec 06 be 46 bc 13 3e ec 41 ae be 4a 3b 6d be
       -0.13176277 0.1442729 -0.3403467 -0.23167148
0000d0 c5 c5 3b 3e 89 bc 20 3e 45 21 56 be f2 29 3a be
       0.18337162 0.1569692 -0.20911129 -0.18180063
0000e0 c4 d2 ba bd b5 82 20 3e 92 32 34 be dc ea f0 bd
       -0.091222316 0.15674861 -0.17597416 -0.11763546
0000f0 74 17 fa bc 23 bd 09 be 54 cd af 3e 41 40 79 3b
       -0.030528761 -0.13451056 0.3433634 0.0038032683
000100 4c e3 a7 3e a6 84 7a be 96 2a 2d 3c da 70 47 bd
       0.327906 -0.24464664 0.010569235 -0.048691608
000110 af 02 b4 be 86 7c 3c be 51 e6 01 3f 13 46 fc 3d
       -0.35158297 -0.18406877 0.5074206 0.12318053
000120 04 c7 a5 3e 5d f0 b7 3d c1 da ac bd 3b 91 07 be
       0.323784 0.089813925 -0.084401615 -0.13238995
000130 1a fa 84 3e 0c 4e bb 3c f3 f8 19 3e f0 1f 13 be
       0.25972062 0.022864364 0.15036373 -0.14367652
000140 7b 53 01 3e 81 7e 2a bd 0e 19 39 3e 72 ac d6 3e
       0.12629502 -0.04162455 0.18075964 0.4192844
000150 b9 8b 57 3e 42 62 9e bd 29 12 80 be 59 a0 7f be
       0.21049394 -0.07733585 -0.25013855 -0.24963512
000160 5f ca 07 3d 63 c2 bf 3d a9 ae 80 3d d1 0a 07 be
       0.03315198 0.09363248 0.06283314 -0.1318772
000170 ff 0b 96 3c 07 99 51 3e 77 0d 43 3e 91 f4 b2 3d
       0.018316267 0.20468532 0.19048105 0.087380536
000180 1f e5 98 bd b4 61 c5 be 95 45 04 be 58 62 80 be
       -0.074655764 -0.38551104 -0.12917168 -0.2507503
000190 1d be 54 bd b0 e3 8a 3d dd cb 68 3d 1f 0a 85 bd
       -0.05193912 0.06781709 0.056835044 -0.06496071
0001a0 07 27 cc 3e 98 72 c1 3d b3 16 cb bd 57 d0 27 be
       0.39873526 0.09445685 -0.09916439 -0.16388069
0001b0 fc db bb 3c dd 9b db bd b7 7f d5 3e 71 c6 df 3e
       0.022932045 -0.10723088 0.41699 0.43706086
0001c0 64 0e 3f 3c 9c 0b f8 bd 11 ac 65 3e 48 23 8d 3d
       0.011661146 -0.12111589 0.2242892 0.06891495
0001d0 34 fd 8a be f3 a0 86 bd 9a ff 04 3e e1 07 dc 3d
       -0.27146304 -0.065736674 0.1298813 0.1074369
0001e0 1c 64 e4 bd 19 b0 34 be 9d d9 a5 3d 16 83 a5 3d
       -0.11151907 -0.17645301 0.08098147 0.08081643
0001f0 3c d9 ae 3d d0 85 23 be 70 43 62 3e e2 d9 5a bd
       0.08537528 -0.15969014 0.22096038 -0.053430445
000200 16 f9 31 be 14 58 15 be 66 c5 9d bd 46 ac 9e 3d
       -0.17380175 -0.1458438 -0.077036664 0.07747702
000210 63 5c 6a be 0a 15 b4 bd 9b 98 1c 3c 68 1f 49 be
       -0.22886805 -0.087930754 0.009557868 -0.19640887
000220 dd 14 a2 3e 19 4e ff bd df 34 3e be 59 8c 9a be
       0.31656542 -0.12466068 -0.18574856 -0.30185202
000230 0a fb c7 3d 1c 6c 57 bd 96 fd 01 3e 05 eb 09 be
       0.09764679 -0.052593336 0.12694392 -0.13468559
000240 60 93 35 3e d9 e9 2f 3e 04 d1 ff 3d 4c aa c6 3d
       0.17732 0.1717905 0.124910384 0.0970045
000250 66 a3 f0 3c 73 0d fc 3d 0d 0b 8c 3e 2a 06 d7 bd
       0.02937479 0.12307253 0.2735218 -0.104992226
000260 96 cc a1 bb ea 7e 5d 3e de 81 3c 3e 0e 49 ee ba
       -0.0049377186 0.21630445 0.18408915 -0.0018179731
000270 f6 29 a1 3d 85 7c e1 bb 73 20 07 3e 0a b4 e8 3d
       0.078693315 -0.006881299 0.13195972 0.11362465
000280 9e 0d ee bc 83 d1 a1 3e 6c 32 29 3e 5b a1 d5 bd
       -0.029059228 0.31605157 0.1652314 -0.10431167
000290 d7 95 b0 3d 62 56 e5 bd 91 98 fa bd 65 9d 60 3e
       0.0862233 -0.11198117 -0.12236131 0.21935041
0002a0 9f 15 32 3d 17 04 fd bd bb f2 f6 bd 18 1d 2f be
       0.04347765 -0.12354296 -0.12058016 -0.17100942
0002b0 d2 48 d0 3d cd c0 73 be e8 8e 09 3d 81 01 e2 3d
       0.10170139 -0.23804016 0.03358355 0.11035443
0002c0 fa 4d 63 3e 73 7f 1d 3e e7 fd 51 bd 5d 1e e6 3e
       0.22197714 0.1538065 -0.05126753 0.4494504
0002d0 42 fd fa bc 12 4b 97 ba 76 83 34 3d 06 bb a3 3d
       -0.03063834 -0.0011542758 0.044070683 0.07994656
0002e0 e7 3f e9 3d 7f 40 52 bd ff 53 00 3e aa 81 75 3e
       0.113891415 -0.05133104 0.12532042 0.23975244
0002f0 3c af 04 be a9 58 e1 bd 0c 8a 1c be a2 0e 54 bd
       -0.12957472 -0.11003239 -0.15287036 -0.051771767
000300 5c 56 fd 3b 6d bb 1c bd bc d7 1e 3e 14 1d 8e 3e
       0.007731242 -0.03826468 0.15511984 0.2775656
000310 69 9b 25 3e 6f fc 6e be b3 df f2 3e 48 49 8a be
       0.16172566 -0.23338483 0.47436294 -0.27009034
000320 80 0a 32 3d 5a b0 0d be f0 23 87 bd fc c9 a3 bd
       0.043467045 -0.13836804 -0.065986514 -0.0799751
000330 2e 95 e8 3e 1b 22 56 3d cd 73 dd bd 0e 62 3c be
       0.45426315 0.05227862 -0.10813103 -0.1839678
000340 94 b4 bb 3d 89 15 3c 3e 9a 59 35 3d 09 64 03 3e
       0.09165302 0.1836759 0.044274904 0.12831129
000350 d9 21 99 3e c9 5e ae bc 9d a9 0e be 6f e9 86 3c
       0.29908636 -0.021285431 -0.1393189 0.016468732
000360 b1 b6 45 3e d5 89 9b bd 91 e6 bc be 59 53 db 3c
       0.19307972 -0.07594649 -0.36894658 0.026773142
000370 c9 fd 0c be f6 d2 e5 be 2a 1a 14 3e da 1d a9 3e
       -0.13768686 -0.44887513 0.14463106 0.33030587
000380 52 4d 1b 3e f2 06 9d 3e 96 64 46 3d 48 78 23 3e
       0.15166214 0.3066936 0.04843577 0.15963852
000390 4c 07 60 be 58 c1 ba bd d4 c8 68 3e 0f e1 36 be
       -0.21877784 -0.09118909 0.2273286 -0.1785929
0003a0 f7 95 e5 be 67 02 db bd a1 aa 4a be 5d e8 82 3e
       -0.44840977 -0.106938176 -0.19791652 0.25567904
0003b0 fc 61 6c bd 3c 9b f1 bd e4 e2 37 3e 8b 6e 26 bd
       -0.057710633 -0.11797187 0.17957646 -0.040632766
0003c0 db 32 16 be bd fa 65 bd 79 b8 4c 3e e3 bd 3c 3e
       -0.14667837 -0.056147326 0.19992246 0.18431811
0003d0 3c 6a 96 3c c3 ba 9b 3e e1 c2 db bd 29 f7 be 3d
       0.018361203 0.30415925 -0.107305296 0.09324486
0003e0 8a 90 71 3e 7a 4b 26 bd b0 31 61 be bc d1 0f be
       0.23590294 -0.040599324 -0.2199161 -0.14044851
0003f0 88 4d 63 3e 99 b2 3a 3e 3a 96 91 bd 41 33 59 3e
       0.22197545 0.18232192 -0.071087316 0.21210958

network_body._body_endoder.seq_layers.0.bias f4 [256]
000000 88 e5 11 3c aa 57 2e 3d 45 00 28 bc c1 a6 45 3d
       0.008904822 0.04256407 -0.0102539705 0.048254732
000010 c4 e5 e6 bc c9 33 38 3c 07 1e aa 3c 54 8b aa 3c
       -0.028185733 0.011242815 0.020766271 0.02081839
000020 9d ad f0 3c e3 bf 91 3d a2 c8 7e 3d 71 00 ca 3c
       0.02937966 0.071166776 0.062203057 0.024658414
000030 89 92 82 3c ca a5 81 3a 67 f3 0a 3c 32 8c 64 3c
       0.015939014 0.0009891328 0.008480883 0.013949441
000040 cb ec 43 3d e7 22 29 39 96 51 0a 3b 3d 29 46 3d
       0.047833245 0.00016130098 0.0021105758 0.04837917
000050 e0 fa 40 3d 91 19 09 bd bf e4 e1 bb d2 f8 f1 3c
       0.047114253 -0.033471648 -0.0068937237 0.029537592
000060 9a a9 2a 3d 15 8e 50 bc f9 d6 6f 3c ee 8b 30 3d
       0.04166565 -0.0127291875 0.014638656 0.043102197
000070 8a 27 18 bb e5 1d 28 3d 89 f7 24 3d 7f 6a 85 3d
       -0.0023216926 0.041044135 0.04027513 0.06514453
000080 28 1c 49 3d b0 c7 12 3d a9 40 e7 bb 4f ed 27 3d
       0.049099118 0.035834968 -0.0070572686 0.0409978
000090 13 52 97 3a cd ba b1 bc 9f 14 70 3d 41 5d 27 3d
       0.0011544846 -0.021695519 0.058613416 0.04086042
0000a0 ac 83 da bc f5 d6 13 bc f4 76 05 bd 91 4b e5 3c
       -0.026674114 -0.009023418 -0.032584146 0.027990134
0000b0 b6 ae 16 bd e3 da f6 3c d9 7f a7 bc 55 84 a1 3c
       -0.03678771 0.03013367 -0.020446705 0.019716421
0000c0 d4 5d de 39 67 c7 d5 bc e5 57 db 3b 47 15 80 3d
       0.00042413047 -0.026096059 0.0066938275 0.06254058
0000d0 c0 1d 84 3c d3 49 94 3c 1e 49 7b 3c a2 04 3b 3d
       0.016127467 0.018101608 0.015337257 0.045658715
0000e0 7e 8a 6c 3d bb c0 8b 3d a5 85 1f 3d 63 2b fc 3b
       0.057749264 0.0682387 0.038945813 0.007695602
0000f0 46 3b f7 bc ac ad 1a 3d 8c 69 ab 3b fb 9a bd 3c
       -0.030179631 0.037763283 0.005231088 0.02314519
000100 a5 0e 46 3d 16 c8 6c 3d 9a bc cd bb 7c de 9c bb
       0.04835381 0.057808004 -0.0062785866 -0.0047872644
000110 7b 32 ae 3c 0e 92 0d 3c bf ae 97 3c 6c 69 68 bc
       0.021264305 0.008640779 0.018515943 -0.014185291
000120 a3 fc 7b 3c 10 4f 5c 3d cd d1 2c 3d 0c 3e 3d bc
       0.0153800575 0.053786337 0.04219227 -0.011550438
000130 10 61 2f 3d 4b 0c c9 3d cf 1c e9 3d 4b dc b9 3d
       0.042817175 0.09816798 0.11382448 0.09075221
000140 e2 a7 b0 bc 33 1e 49 3c c2 a3 4b 3d 36 78 73 bc
       -0.021564428 0.012275266 0.04971672 -0.0148602035
000150 74 5a 9e 3d eb bf 06 bd a1 87 7d 3a 79 53 12 3d
       0.07732096 -0.03289787 0.00096713944 0.035724137
000160 33 4b b0 bc d0 f1 24 3c 16 92 22 3d bc 08 f7 3b
       -0.021520233 0.010067418 0.0396901 0.007538883
000170 ea 35 89 3c 5f 32 48 bc 26 b4 22 3c 7f e7 4e 3c
       0.016749341 -0.012219041 0.009930646 0.012628435
000180 72 84 d1 bb 6a 14 d4 3c 49 3a 46 3d 33 8d 1a bd
       -0.0063939625 0.02588864 0.04839543 -0.037732314
000190 f3 89 92 3c ca c9 22 3c b1 58 69 3b 64 3b 3c 3d
       0.017888045 0.009935806 0.0035605843 0.045955077
0001a0 4c 9f d1 38 c7 d1 3a 3d 24 ca 84 3d 5e e5 36 3d
       9.995568e-05 0.045610216 0.06483868 0.044652335
0001b0 f3 92 fb 3c 58 49 9d 3c 7d 78 e0 3c 20 60 c9 3c
       0.03070972 0.019200012 0.027401203 0.024581969
0001c0 63 59 c4 bb eb 8c 6b 3d 5c 2b 46 bc dc 51 1b 3d
       -0.005992101 0.057507437 -0.012095299 0.037919864
0001d0 63 d5 41 3d 90 a4 0c 3d a5 4b 24 3d bf ee a7 bc
       0.047322642 0.034336627 0.040111203 -0.020499585
0001e0 45 cb 82 ba c4 31 93 3c 2a 73 9a 3c bb 93 f3 3c
       -0.0009978792 0.017968066 0.018853743 0.02973353
0001f0 70 f0 8f 3c b7 a3 64 bc 70 e4 60 bc cb ea ff 3c
       0.017570704 -0.013955048 -0.013726339 0.031239888
000200 05 f1 2f ba 47 0b d7 3c d9 5f 80 3d 04 53 d6 3c
       -0.0006711635 0.026250495 0.062682815 0.026162632
000210 00 36 be 3c 5d af 4a 3c 02 8a a7 3d 16 89 fd bb
       0.023219109 0.012370911 0.0818062 -0.007737289
000220 a8 b2 77 3d 9f f5 e4 bc 21 53 8d 3c b4 66 0e 3d
       0.060473114 -0.027949153 0.017251553 0.034765914
000230 77 e4 1b 3e f7 21 76 bc 25 13 d7 3c 61 e6 22 3d
       0.15223871 -0.015022746 0.026254246 0.039770488
000240 76 37 77 3c 32 1d 2d 3c 5d 18 9c bc 02 e1 0c bc
       0.0150889065 0.010566043 -0.019054586 -0.008598568
000250 8c fe dd 3c ec e3 9a 3d 79 06 9c 3c c7 0a 0c 3d
       0.027098916 0.07563004 0.019046055 0.034189966
000260 fa c1 a2 3b c5 99 8d b9 5a a0 90 3c e0 74 80 3d
       0.0049669715 -0.00027008183 0.017654587 0.06272292
000270 9d d9 2c 3c 9f 62 74 3d 52 09 06 3d 85 a3 c7 3c
       0.01054993 0.059664365 0.032723732 0.024369964
000280 59 13 c3 3b 65 6c b7 bc a7 b1 8f 3c 93 0b 24 bc
       0.005953234 -0.022390554 0.017540766 -0.010012525
000290 47 a1 3a bd 58 97 b6 3c 85 48 0c bc ff 70 e0 3c
       -0.045563962 0.022288963 -0.008562212 0.02739763
0002a0 1d 5c c2 bc d1 38 a0 3c 5f ff 8d bc 98 94 ff 3c
       -0.023725564 0.019558342 -0.017333684 0.031198785
0002b0 ef fa f8 3c b0 48 0b 3d 63 4e cb bc a2 ed fc 3c
       0.030393092 0.034004867 -0.024817651 0.03087503
0002c0 96 f9 79 3c 6f 1d b7 3b 45 3e 03 3c 97 54 e9 bb
       0.01525726 0.0055882256 0.008010452 -0.0071206796
0002d0 01 be 1b 3c fe b9 b3 bc 2a 3f 04 3c c9 57 c2 3d
       0.00950575 -0.021939274 0.0080717 0.094894
0002e0 34 12 e5 3c 22 fe 43 3c e0 5e 7e 3d ed b9 ef bc
       0.027962781 0.011962445 0.0621022 -0.029263461
0002f0 58 d5 25 3d 5f 35 47 3d 11 93 42 bd 72 5a 96 3d
       0.040486664 0.048634883 -0.047503535 0.0734147
000300 ee b3 e7 3c 3e 93 0f bd 00 7e 9f bc 0c e8 a3 3c
       0.02828404 -0.03505253 -0.019469261 0.02000811
000310 c9 b8 ad 3b 7f 7f 27 3d f2 d5 06 3d 59 1f fa 3c
       0.005301569 0.040893074 0.032918878 0.030532526
000320 db 01 9a 3c ae 93 2c 3c b3 e6 34 3d 6d 25 2b bc
       0.018799713 0.010533256 0.044165324 -0.010445935
000330 78 95 17 3d 98 58 7a 3d 62 28 b8 3b 19 d7 3c 3d
       0.03700778 0.061119646 0.0056200484 0.04610357
000340 40 8c d3 3b fe 57 ec 3d f8 23 25 3d 3e 7f 96 3d
       0.006455928 0.11540221 0.040317506 0.07348488
000350 2e ba 79 bc 25 ba 9a 3c 99 b1 a9 ba f8 c4 7d ba
       -0.015242143 0.018887589 -0.0012946605 -0.0009680535
000360 28 7e 65 3d f7 53 02 3d 37 e8 94 3c 91 7b 18 3c
       0.056028515 0.031818356 0.018177135 0.009306804
000370 78 4c 8c 3a 19 20 8a 3c a4 93 b7 bb ad 15 d5 3c
       0.0010703942 0.016861008 -0.005602317 0.026011312
000380 0c 07 98 3c f4 34 ef 3c 3e ae 27 bd 67 80 d2 b9
       0.018558048 0.029200055 -0.040937655 -0.00040149988
000390 35 a0 03 3c 39 b6 b7 bc 4c e1 4d bd 7e e1 84 3c
       0.008033802 -0.022425758 -0.050263688 0.016220804
0003a0 8d ff 2d 3c 5c f9 83 3d e2 6b 84 bc 61 dd 41 bc
       0.01062001 0.06444046 -0.016164724 -0.011832566
0003b0 87 32 9b 3c ad 3c 01 3c 00 d4 03 3c aa b3 67 3d
       0.018944992 0.007888001 0.00804615 0.056567825
0003c0 32 0a 83 3d 86 f2 11 bd 66 1f 5d 3d ea fd 1d bd
       0.06398429 -0.03563168 0.053985022 -0.03857223
0003d0 80 3e a3 3c cf 14 b8 3c df 44 14 3c 95 84 8b 3b
       0.019927263 0.02247086 0.009049623 0.0042577484
0003e0 e0 09 0a 3d 3a 11 be 3c c8 cf 11 3c 56 d0 85 bd
       0.033700824 0.023201574 0.008899637 -0.065338776
0003f0 1c 37 13 bd 55 44 99 bc 41 a6 4b 3b e1 a7 ab 3c
       -0.03594123 -0.018709341 0.0031074437 0.020954074

network_body._body_endoder.seq_layers.2.weight f4 [256, 256]
000000 ad d5 db 3a 9f 90 92 3d 5f 54 c2 3c 3d cb b5 3c
       0.0016772054 0.071564905 0.023721872 0.022191638
000010 1d 72 70 bd a7 56 37 bd 8c b4 3f 3a f5 23 97 3d
       -0.058702577 -0.044760372 0.00073129754 0.07379905
000020 e7 19 0f 3d ac 32 16 3c 44 0c a1 3d 90 86 95 3c
       0.03493681 0.009167355 0.078636676 0.018252641
000030 33 f0 95 bc 47 95 c0 3d 1d d6 1a bd da b3 23 3d
       -0.018303012 0.094034724 -0.03780185 0.03996644
000040 09 9a 89 3c 67 dd 62 3d eb 6f 12 bc 46 fe 05 be
       0.016797082 0.055386927 -0.008937816 -0.13085279
000050 50 60 d1 3d 21 79 14 3e 38 c2 07 be 2b 3b 02 3d
       0.10223448 0.14499332 -0.13257682 0.03179471
000060 54 cd c6 bc 9f a5 3a bd 71 b3 8a 3c 84 28 9a bd
       -0.02426783 -0.045568105 0.016931267 -0.07527259
000070 99 34 03 3e 08 f5 b7 bd ff 8b d4 bb 28 da 7d 3d
       0.12813033 -0.08982283 -0.0064864154 0.06197563
000080 a9 ad 46 3d 3c 27 0a bd 80 ef 03 be a6 4b ad bc
       0.04850546 -0.033728823 -0.12884331 -0.021154236
000090 64 5f 05 be 7a 28 a1 3d fd 8b 55 bd 00 73 3c be
       -0.1302467 0.078690484 -0.052135456 -0.18403244
0000a0 35 9e 3b 3c 4d 2d 63 3d c2 bd 9c 3d cc d9 95 3d
       0.011451294 0.055463124 0.07653381 0.07316932
0000b0 ff fb df bb e6 62 0e 3b 9e 14 39 bd 67 67 15 3d
       -0.00683546 0.0021726429 -0.045185678 0.036475565
0000c0 7a 55 e0 bb c9 f2 2c 3d 64 8c 0f be 47 f7 3b 3d
       -0.006846127 0.042223725 -0.14018399 0.04589012
0000d0 ee b6 7f bc 75 fd 9a bd 13 e6 c7 bc 57 cc d0 bc
       -0.015607579 -0.07567874 -0.0244017 -0.025488062
0000e0 d8 2c 1b bd 3f 10 95 bd d4 4e 1b bb 82 0a ab 3c
       -0.037884563 -0.07278489 -0.0023698108 0.020879034
0000f0 34 64 27 3d 38 81 53 bd f2 6f 2c bd 69 cd 10 3c
       0.040867046 -0.051636904 -0.042098947 0.008838036
000100 d3 3a 10 be b2 af 0d be 23 27 ae bd 3e 11 e0 3d
       -0.1408494 -0.13836554 -0.085035585 0.10940789
000110 b9 54 94 bd 70 fb f7 bc 07 95 b5 bc a3 e8 31 3d
       -0.07242722 -0.030271262 -0.022165788 0.04343475
000120 18 f4 9f bd bb ad cb bb d9 16 8e 3d be 15 7a bd
       -0.07810229 -0.0062157786 0.069379516 -0.06105589
000130 3b de 39 3d 28 6c b2 3d 66 d3 04 bd c2 47 b4 bd
       0.04537795 0.087120354 -0.032428168 -0.08802749
000140 f2 c9 92 3d 1f 52 93 3b ba a8 ad bc 8c d3 21 bd
       0.07167424 0.0044958736 -0.02119862 -0.039508387
000150 38 98 eb 3c 8e c9 43 3d 29 1a 8b 3c 66 9b dc 3d
       0.028759107 0.04779964 0.016980248 0.107718274
000160 58 f7 8a bc 20 e6 d4 bd f5 44 66 bd cf 7e 12 3d
       -0.016963646 -0.10395455 -0.056218106 0.035765465
000170 a1 a0 ed bb 07 a9 3f 3d 0b 04 95 bd 61 2d 89 3d
       -0.0072518145 0.046792056 -0.07276162 0.066981085
000180 74 b7 09 bd 8c e1 02 be 5e 68 48 3d 40 80 0d 3d
       -0.03362222 -0.12781352 0.048927657 0.034546137
000190 aa d6 4b 3b 21 e6 f0 3d 47 7a 08 3d 4b cf 16 be
       0.0031103292 0.117626436 0.033319738 -0.14727513
0001a0 07 27 c7 3c 11 17 97 bd bf 91 a1 3a 05 39 87 bd
       0.024310602 -0.073774464 0.0012326761 -0.066026725
0001b0 b2 2b a3 3d f9 6c 2b 3d c1 a3 73 bd df 3f 52 3c
       0.079673186 0.04185197 -0.05948234 0.012832611
0001c0 57 0b 34 3d f4 aa b2 bd 1a ba 0d 3e 83 65 72 bc
       0.043956127 -0.08724013 0.13840523 -0.01479471
0001d0 88 7e e1 3c 7c c6 de bd 26 f4 1d 3d a1 a3 c7 bc
       0.027526155 -0.10877702 0.038562916 -0.024370017
0001e0 a2 97 18 3d 04 87 ff bc f9 da c2 bc cd 71 2e bd
       0.037253983 -0.03119231 -0.023786055 -0.042588998
0001f0 04 73 19 3d f4 32 12 3c 9c 25 8a bd 9b 2a 9f 3d
       0.037463203 0.008923281 -0.06745455 0.07771798
000200 da 31 14 be e0 da 1e be e7 ec f0 3d 25 05 07 be
       -0.14472142 -0.15513182 0.117639355 -0.13185556
000210 c4 ec c8 bc 74 c1 58 bd a0 bf 78 bd 1e 49 d1 3d
       -0.024526961 -0.052918866 -0.060729623 0.10219024
000220 94 ae 53 be fb b4 b9 bd c4 5c 73 bc 85 8c d3 3d
       -0.20672065 -0.090677224 -0.01485366 0.10329536
000230 0c b1 b8 bd 62 3c 99 bd 00 1e a1 bd a4 72 9f 3d
       -0.09018144 -0.0748222 -0.0786705 0.07785538
000240 41 1b df 3c c0 ef e9 3d e6 cf ab bd 47 4d 82 3d
       0.027234675 0.11422682 -0.08389263 0.06362396
000250 ee 80 61 3d c9 ed ef bd db 63 bf bd a3 9a 96 3c
       0.055054598 -0.11715276 -0.09345218 0.018384283
000260 41 e9 70 bd 16 cb bc bd 57 4b e9 3d a5 03 69 3c
       -0.0588162 -0.09218423 0.11391323 0.01422206
000270 da 56 16 bd 66 48 95 3c 46 41 b3 bd 8a d5 fb bd
       -0.03670392 0.018222999 -0.08752684 -0.12296589
000280 56 9f 31 bd a2 42 93 3d 62 17 4d be 0e 61 cc 3d
       -0.043364845 0.071904436 -0.20028451 0.09979449
000290 ca 58 19 3d 9e 9d 4c bd 13 f3 84 3d 96 50 80 3d
       0.03743819 -0.049955003 0.06491675 0.062653705
0002a0 3c b8 56 bd fe c7 30 be 13 6f 39 3d 31 bc 94 3c
       -0.052421793 -0.17263791 0.045271944 0.018156143
0002b0 34 54 82 3c a6 95 3e 3d 12 bc 02 bc 4a 14 6a 3d
       0.015909292 0.046529435 -0.00797941 0.057148255
0002c0 f5 8d 9f bd 13 b4 38 bd 13 64 14 bd e0 aa 87 3b
       -0.07790748 -0.045093607 -0.03622825 0.004140243
0002d0 aa 25 a0 3d 9e cb 90 3d 8c 6e 71 bb 88 f2 15 bd
       0.07819684 0.07070087 -0.0036839573 -0.03660825
0002e0 11 b3 c0 3d a8 7f 2e 3e 76 56 28 be 40 aa 8c bd
       0.09409154 0.17040884 -0.16439232 -0.0686841
0002f0 ab 54 2b 3e 87 9d d3 bd 93 4a 34 bd 9c dc 24 3e
       0.16731517 -0.1033278 -0.044016432 0.16099781
000300 a1 35 1f be cb 78 5b bd c7 fd 6f 3c 40 f6 00 be
       -0.15547802 -0.053581994 0.014647908 -0.12593937
000310 ec 9b cd b8 a8 a1 a6 3c 5c 25 18 bd 65 1c 37 be
       -9.8042045e-05 0.020340756 -0.037145004 -0.17881925
000320 7b 90 6b bd fe 23 41 3d 93 a6 ce b9 07 a0 02 be
       -0.057510834 0.047153465 -0.0003941549 -0.12756358
000330 6b 42 44 3d a5 a2 f9 3a fb c4 94 bc 41 d8 85 bd
       0.047914904 0.0019045664 -0.018160334 -0.06535388
000340 59 9e 35 be e7 00 16 be 56 36 5a be f8 a2 03 3c
       -0.17736186 -0.14648782 -0.2130979 0.00803446
000350 5d 7e 51 be e8 6b f0 bc 71 01 3d bd a2 d6 60 3d
       -0.2045836 -0.029348329 -0.046143953 0.05489219
000360 d7 6d 9c bd 21 0a 1b 3d 91 9d e1 bd 6a 94 c2 bd
       -0.07638138 0.037851457 -0.110163815 -0.09500964
000370 16 5d a7 3a e2 2e 0c bd d9 59 5d 3d 90 dc 96 bd
       0.0012768831 -0.0342244 0.054040764 -0.07366288
000380 91 80 98 3d 22 bd 0c bc 2f 7d a0 bd 81 a8 38 3c
       0.07446397 -0.008590015 -0.07836377 0.011270643
000390 71 ce af bd 36 94 c2 bc cc f3 2a 3d 15 df 91 bc
       -0.085842974 -0.023752313 0.04173641 -0.01780657
0003a0 21 3f 20 3e eb 47 e4 bc 2c f1 1d 3c 97 7f 82 bc
       0.15649082 -0.027866324 0.009640019 -0.01592998
0003b0 c6 c9 df bb 14 34 b9 bb 95 20 a1 bb 2f 84 9e bc
       -0.006829473 -0.00565196 -0.004917214 -0.01935014
0003c0 0b 01 54 be de 28 61 3d 80 ce cc bc 72 29 76 3d
       -0.20703523 0.054970615 -0.02500081 0.06009812
0003d0 6e d8 af 3d 57 05 79 bd e3 82 73 3d d0 72 0b be
       0.085862026 -0.060796108 0.059450995 -0.13618016
0003e0 e1 ab b1 3c b9 e6 46 be 42 d5 c9 3d 88 40 b7 bd
       0.021688404 -0.19423951 0.09855129 -0.08947855
0003f0 d8 aa ee 3c 8c ae 8c 3d 5f 9a 34 bd 1e 0c 18 bd
       0.029134199 0.0686923 -0.044092532 -0.03712093

network_body._body_endoder.seq_layers.2.bias f4 [256]
000000 c2 01 1f bc 7f 61 02 bd ab 29 3b bc 2b db 24 3c
       -0.009705009 -0.03183126 -0.011423509 0.010062019
000010 e6 b6 36 3c 12 a4 cf bb 20 93 a8 bc 0b 4a 26 bc
       0.011152005 -0.0063366974 -0.020577967 -0.010149489
000020 0d 5e 0b bd a1 6d 7f bc a8 50 68 3c 88 d5 3a bc
       -0.03402524 -0.015590102 0.014179386 -0.011403449
000030 a6 0d 12 bd 30 ac 98 bb b2 ef 6a bc 3c 97 d0 3b
       -0.035657547 -0.004659198 -0.014339374 0.006365685
000040 02 75 46 bd f0 b0 ae bc 06 18 35 ba 2f 2e 88 bd
       -0.04845143 -0.021324605 -0.0006908182 -0.06649434
000050 26 56 20 bb 7e 35 d1 bc e9 00 25 3c 77 b7 71 bc
       -0.002446541 -0.025538202 0.010071018 -0.014753214
000060 76 d8 af bc 79 6e 72 bc be f1 c5 39 1c 62 58 3b
       -0.021465521 -0.014796847 0.0003775488 0.0033017462
000070 dc 37 8a ba b2 ea 1f 3a 98 cc 82 bb 37 c7 89 bc
       -0.0010545212 0.0006100341 -0.0039916746 -0.016818626
000080 d1 e2 09 3d 56 da 66 3c 50 02 83 bc c3 f1 15 bd
       0.033663575 0.014090141 -0.015992314 -0.036607515
000090 31 55 a8 3c c1 18 0a 3b cf ab 81 bb 82 58 71 bb
       0.020548435 0.0021071883 -0.0039572488 -0.0036826436
0000a0 ac 8c f8 ba a3 93 e3 bc a2 89 31 bc 86 ec 82 bd
       -0.0018962822 -0.02778036 -0.010836037 -0.063927695
0000b0 fe e9 fd 3c 3c e3 9b bd 73 24 96 bc 05 85 e7 bb
       0.030995365 -0.07611701 -0.018327927 -0.0070654177
0000c0 12 7b 24 bd 7a 89 90 bc 91 86 ab bc 70 bc 96 bd
       -0.04015643 -0.017643679 -0.02093819 -0.0736016
0000d0 fe c7 b4 bb 6e 38 ad bc 2b 65 86 bc 35 d3 c9 bc
       -0.005517005 -0.021145072 -0.016405663 -0.024636844
0000e0 d0 7f 79 3d 84 90 03 3c b8 75 ea bc 44 91 dc bc
       0.060912907 0.008030061 -0.028620586 -0.026924737
0000f0 80 95 8c 3b 58 fb 07 bd 67 f8 86 bc 44 05 e6 bb
       0.0042902827 -0.033198684 -0.01647587 -0.0070196707
000100 ca 77 9b bc 54 36 52 3c db 58 46 bc 63 69 98 bc
       -0.018978018 0.012830336 -0.012106146 -0.01860494
000110 13 d8 1f bd 56 ac a9 3c 8b 48 84 bc 6b 78 2a bd
       -0.039024424 0.020712059 -0.016147872 -0.041618746
000120 51 34 da bb 47 10 9c 3b a6 ba 44 bc 95 ae d6 bb
       -0.0066590686 0.0047626826 -0.012007391 -0.0065515735
000130 81 9c c9 3b 5d 75 c7 ba 3d ae 25 bc 05 66 df ba
       0.00615269 -0.0015217472 -0.010112342 -0.0017043954
000140 55 78 c1 bc 6a 28 2c bd 9a d1 30 bc 9e 7e 0b bd
       -0.02361695 -0.04203073 -0.01079216 -0.0340563
000150 1b de f7 3c 08 94 9d 3b 26 33 33 3b 82 54 ea bc
       0.030257275 0.0048089065 0.002734372 -0.02860475
000160 14 03 0d bd ff 56 02 3c 91 21 07 bd 0e db 2e bb
       -0.034426764 0.007955312 -0.032990996 -0.002668086
000170 49 fd e8 bc fd d4 7b bc 16 5d 6b 3c 7a ff 4b 3b
       -0.028441088 -0.015370605 0.014365455 0.0031127618
000180 df f6 50 3a bf c3 e9 3b 5d 5b cd bb 55 d4 11 3b
       0.0007971357 0.0071339305 -0.006266995 0.0022251804
000190 e7 b0 c0 bd 43 65 c5 3c eb 07 ce bc f3 72 f4 bc
       -0.094087414 0.024096137 -0.02515026 -0.029839968
0001a0 10 3e 88 bc df ba c8 bb 43 69 29 bd 9d f6 82 bc
       -0.016631156 -0.0061257924 -0.04136015 -0.015986735
0001b0 56 1a 7d bc 00 b9 09 bc 49 1a 7f 3c 82 ba 87 bb
       -0.0154481735 -0.008405924 0.015570232 -0.0041421065
0001c0 b5 fe d7 3b d8 4b d7 bc d5 1c 8b bc 26 4f 50 3d
       0.0065916427 -0.026281282 -0.016981522 0.05085673
0001d0 9f cb bb bb c7 c0 47 3c 72 ec 00 bb 5f 64 45 bb
       -0.0057310606 0.012191958 -0.0019672182 -0.003011964
0001e0 9b 50 73 bd c6 ce b3 bb 2b f3 c8 bc 1e 97 2d bd
       -0.059403043 -0.005487296 -0.024530014 -0.042380445
0001f0 09 c9 a4 bc d8 61 50 bc 61 10 07 bd aa 86 1f 3a
       -0.020115392 -0.01271864 -0.032974605 0.0006085435
000200 21 54 f0 bc 98 a7 23 bd a1 51 ca 3c eb bc 0e 3c
       -0.02933699 -0.03995475 0.024697127 0.008712034
000210 eb 5e e9 bb 62 7f f0 bb 10 bc 9d bc 95 3a 23 bc
       -0.007121911 -0.007339404 -0.019254714 -0.0099626975
000220 57 13 28 bc af ac 1b bc 72 1b b4 bb cf 23 63 bc
       -0.010258517 -0.00950162 -0.005496436 -0.013863518
000230 7b 0d 5a bc 52 e1 8a bc b1 83 20 bd 84 fd bf bb
       -0.013308878 -0.016953144 -0.03918809 -0.005859079
000240 be 84 3a bc 6b e8 35 3a c7 d1 bd bc 7e 44 15 bd
       -0.011384187 0.0006939235 -0.023171319 -0.036442272
000250 c6 c3 9c bb 5a 1a ed ba 0e aa 16 bc 12 f4 2f 3c
       -0.00478408 -0.0018089518 -0.009195818 0.010739343
000260 77 e6 86 bc 2b 83 54 bc ef 75 5a 3a a9 c9 c8 bc
       -0.016467316 -0.012970726 0.00083336135 -0.024510222
000270 a2 0b a4 3c 2e 0b 32 bb cd 4b 57 3c 18 96 e3 bc
       0.020025078 -0.0027167308 0.013140631 -0.027781531
000280 03 25 02 bc 46 6f ea bc d2 64 62 3c 5c 4d 83 bc
       -0.007943395 -0.028617512 0.013817983 -0.016028099
000290 80 3f 4e bd c2 6c 25 bd 0c 90 cd 3b 5a bd 2e bc
       -0.050353527 -0.040386923 0.0062732752 -0.010665262
0002a0 42 fd 2c bd d7 8e e8 bc 56 a9 86 3b 34 56 91 bc
       -0.042233713 -0.028388424 0.004109542 -0.0177413
0002b0 2c 3c 90 bc a5 b7 8d bc 98 3a a9 bc 2f 8b 90 3c
       -0.017606817 -0.017299483 -0.020657822 0.017644493
0002c0 73 b8 b4 bc 3f 72 b1 3c 5e 91 91 3c 63 d7 2d bd
       -0.022060608 0.021660922 0.017769512 -0.042441737
0002d0 f8 10 a5 bb e2 01 88 bc 69 16 69 bd d5 80 02 bd
       -0.005037423 -0.01660246 -0.056906138 -0.031861145
0002e0 92 9b fb 3b c1 45 82 bc 16 b7 6a 3a d3 57 59 bc
       0.0076784575 -0.015902402 0.00089536735 -0.013265568
0002f0 2b 87 d0 bc f5 07 fb bc 79 de f0 ba 1e 47 a4 ba
       -0.025455078 -0.030643443 -0.0018376849 -0.0012533402
000300 2d dd c9 ba d3 18 94 bc 75 87 2e bd 36 98 5b bc
       -0.0015400999 -0.018078243 -0.04260965 -0.013402989
000310 67 d0 a0 bd 35 77 80 bb 88 f4 9f bc fd 02 d1 bc
       -0.078522496 -0.0039204606 -0.019525781 -0.02551412
000320 6d af 41 bd 50 84 bf 3b c5 af 3f bd 32 e2 1d 3c
       -0.04728644 0.0058446303 -0.046798486 0.009636449
000330 75 d2 ae bb 2a 9e 81 bc 08 ee b4 bc 39 d5 73 3b
       -0.005335147 -0.015822489 -0.022086158 0.0037205948
000340 8b d3 58 3c 67 a9 37 bd c2 29 0c 3c 80 4d cc bc
       0.0132340295 -0.04483929 0.008554878 -0.024939299
000350 d9 e6 f9 bb 34 9f f6 bc 68 6b d5 3b ea 38 07 bc
       -0.007626396 -0.03010521 0.006513048 -0.008253315
000360 26 9e 46 3c 7f 0c 95 3a 16 8d 90 bc fa 68 de bc
       0.012122666 0.0011371522 -0.0176454 -0.027149666
000370 90 28 2d bc 5c e9 12 38 76 93 1f bb 47 64 3e bd
       -0.010568753 3.5026445e-05 -0.0024349368 -0.04648235
000380 cc 53 fa bc f7 a9 a1 bc 70 92 8d 3a be 70 60 bc
       -0.030557536 -0.019734366 0.0010801088 -0.013698755
000390 e7 9f 35 ba 17 5c 42 bd f1 9f 00 bc 1e c4 7a 3a
       -0.00069284294 -0.047451105 -0.007850633 0.0009565967
0003a0 e4 f1 c6 ba c4 c5 bf 3c 1f 3b e1 bc 6b c3 bf bc
       -0.001517829 0.023409732 -0.027494011 -0.023408612
0003b0 06 8a de bc 8e a8 3f bd e4 1c a3 3b e1 f8 8d bc
       -0.027165424 -0.046791606 0.0049778093 -0.017330589
0003c0 48 f0 02 3b c9 0d ad bb e5 8d 7c bd b5 57 78 3c
       0.0019979645 -0.0052811843 -0.06165876 0.01515763
0003d0 8a fc 36 bd 3d 61 e7 3b d7 94 db bc d7 6a 77 3c
       -0.044674434 0.0070611523 -0.02680437 0.015101156
0003e0 c7 f6 08 bd 77 71 14 3c 18 17 18 bd b6 db 2c bd
       -0.03343847 0.009060255 -0.0371314 -0.04220172
0003f0 e4 88 2d bd 3d c6 15 3d 42 e3 c0 bb 30 4d bc bc
       -0.042366877 0.036566008 -0.0058864662 -0.022986025

action_model._continuous_distribution.log_sigma f4 [1, 2]
000000 f3 83 1a be 57 83 5e bd
       -0.15089397 -0.054324474

action_model._continuous_distribution.mu.weight f4 [2, 256]
000000 3e cc af 3c 04 78 a7 3b 5e f8 9a bd 97 c7 c9 bc
       0.021459695 0.0051107425 -0.075669035 -0.024631305
000010 3f 19 55 bc 72 1d 0a bc 4f 72 7d 3d da 6a 19 3d
       -0.013006507 -0.008429872 0.06187659 0.037455417
000020 d1 05 07 3d da 40 09 3c 7f 48 b6 3b 88 f8 4f ba
       0.03296453 0.008377278 0.0055628414 -0.00079334574
000030 72 3d fd 3b df c5 d1 3d de 0f 92 bc d1 80 b3 bc
       0.007728272 0.10242819 -0.017829832 -0.02191201
000040 13 2a 27 3c c9 2f 9e 3d 3b 9e 74 bc 49 f5 b4 3b
       0.010202902 0.07723958 -0.014930303 0.0055224043
000050 31 99 84 bd 92 18 9e 3c 3d 51 c5 bc b7 f8 12 bd
       -0.064745314 0.019298825 -0.024086589 -0.035881724
000060 0b c4 87 3d 2e c7 71 3c 00 14 8d 3c cd a2 b9 bc
       0.06629189 0.014756961 0.01722145 -0.022660637
000070 60 73 9c 3d e5 55 4f bc 45 28 3b 3d b2 04 a5 3c
       0.076391935 -0.012654756 0.0456927 0.02014384
000080 08 66 2d bd 32 00 47 3c 07 cd df 3d b0 ef 33 3c
       -0.042333633 0.012146043 0.10927778 0.010982439
000090 57 98 b4 bc d2 9c a6 bb af 39 fa 3d b3 2d 4a bc
       -0.022045298 -0.0050846124 0.122180335 -0.012339997
0000a0 cf f0 78 3c ef 29 9e 3d c4 bf 18 3d 48 2c e3 3d
       0.015194132 0.07722842 0.037292257 0.1109243
0000b0 27 30 18 bd d4 d1 44 3d 97 72 3d bc 73 86 a6 bc
       -0.037155297 0.04805167 -0.011562965 -0.020327782
0000c0 76 eb f2 3b a1 18 bc ba f4 8b 6c 3c 67 ea 7a 3d
       0.007413323 -0.0014350602 0.014437664 0.0612587
0000d0 61 41 37 3d 2b 91 89 ba 1e e4 93 3b cd 48 04 3d
       0.044740085 -0.0010495534 0.0045132777 0.03229599
0000e0 a0 93 b6 bc ec 14 1e bc 69 24 86 3d ea ce ea 3d
       -0.02228719 -0.009648543 0.065499134 0.11465247
0000f0 cd 78 88 3c 1d 30 41 3d d5 11 92 3d 92 6c 46 3d
       0.016659165 0.047165025 0.071323074 0.048443384
000100 5f fa 67 3d 65 5b 6e 3c 5e 44 31 3d fe a4 a0 3d
       0.056635257 0.014548157 0.04327809 0.0784397
000110 0d 81 91 3c 8a ee 80 3c f3 29 bb 3b 96 51 9d 3d
       0.017761732 0.015738744 0.005711788 0.07681577
000120 87 72 c1 3d 25 88 e9 bb a4 88 f4 b8 56 b4 ff bc
       0.094456725 -0.0071268254 -0.00011660278 -0.03121392
000130 2f 69 a8 3b 56 2b 3a 3d 2a 9e fb bc 91 75 4d 3d
       0.005139492 0.045451485 -0.030715067 0.05016095
000140 d4 6a 3e bd 60 a2 aa bc 8d e3 07 3c 22 f5 db 3d
       -0.046488598 -0.02082938 0.008293998 0.10740115
000150 69 74 8f bc 7a db 9b 3d 4b 80 c7 bb 16 6d f5 bc
       -0.017511563 0.07610221 -0.0060882918 -0.029959243
000160 9f e2 24 3d 3e 13 8d bc 4a 0b 46 3d a9 3a 68 bd
       0.040255185 -0.01722109 0.04835061 -0.056696568
000170 6c ce 5e bd 18 31 14 3d 26 1c ba bc 55 b3 7e bb
       -0.054396078 0.036179632 -0.0227185 -0.0038864214
000180 5b 0b cd 3c 9d 6d 83 3c 1c 76 f6 bc 23 00 9d bc
       0.025029829 0.016043479 -0.030085616 -0.019165104
000190 74 b1 f1 3c 8b a4 9e bc 01 a4 62 3c ab e2 48 bd
       0.029503562 -0.01936557 0.013833047 -0.049044292
0001a0 ff 34 46 3d ec 44 2d bc 31 e7 b3 3b ca ed 94 bc
       0.048390385 -0.010575514 0.0054902066 -0.018179793
0001b0 1d 4b df 3d f8 22 aa 3c f1 c1 a9 bc 8e e3 a1 bb
       0.109029986 0.020768628 -0.020722361 -0.0049404567
0001c0 98 e5 d2 3c 06 2a 59 bd 7c 2b b9 3c 60 73 5e bc
       0.025744244 -0.053018592 0.022603743 -0.013577312
0001d0 af dd 56 3c 03 d1 13 3c 80 19 18 bd a1 5a 87 3d
       0.013114377 0.009022 -0.037133694 0.06609083
0001e0 0c e6 06 3d c2 ca 93 3d 72 83 8e 3a 0e 17 4c 3c
       0.032934234 0.07216407 0.0010872914 0.012456669
0001f0 36 74 b7 3d 7a 34 4f 3d 10 69 9e 3d db 73 48 bc
       0.08957712 0.050587155 0.07734883 -0.012234653
000200 ad 2f 01 3e 72 11 ad 3d 98 ab c5 bc 50 ee 3d 3d
       0.12615843 0.08450593 -0.024129674 0.04636985
000210 d7 d2 98 3d b6 ee 8a 3d e7 3b 2a 3d e7 ea de 3c
       0.074620895 0.06783812 0.041561034 0.02721162
000220 df 5b 7e bd 12 3f 8a 3d ba 43 1d 3d f2 46 8b bc
       -0.062099334 0.06750311 0.038394667 -0.017001603
000230 0d 52 09 3e 18 8a 06 bd 64 38 33 3d bf 8f 0f 3c
       0.13410206 -0.03284654 0.04375495 0.008762299
000240 4d ca 26 3d 02 49 ad 3c f3 79 93 3d 58 dc 0e 3c
       0.040720273 0.021152977 0.07200994 0.008719526
000250 e7 82 0d 3c 0e 70 cc 3a 4e 2c 60 3d b2 ec 8d 3b
       0.008637167 0.001559736 0.054729752 0.004331195
000260 aa dd 58 3c ac 9d 37 3d 1c b7 03 bd 21 b4 77 bb
       0.013236443 0.044828102 -0.03215705 -0.0037796574
000270 5a ea 3b bd 11 43 b5 3b c1 3e 65 bc f4 7d 0e 3d
       -0.045877792 0.0055316766 -0.0139920125 0.034788087
000280 f2 06 d9 3c 71 7a 35 39 16 5a 6a bc 31 9a 32 ba
       0.02649257 0.00017307118 -0.014303705 -0.00068131374
000290 1f 15 40 bd 07 a3 03 bd 54 ae 0e bc e7 48 a3 bd
       -0.046895143 -0.032137897 -0.008708555 -0.079728894
0002a0 22 ab 3b 3d 1a b7 77 bb e0 2b 68 3d 5e bf d8 3d
       0.0458175 -0.0037798346 0.056682467 0.105833754
0002b0 aa e9 ab 3c ff 9c f9 3c 89 91 4d bc 37 9f e3 bb
       0.020985443 0.03047037 -0.012546905 -0.00694647
0002c0 8a f1 25 3d 35 ed 93 3c fc 65 fa bc 33 88 4c 3d
       0.040513553 0.018057445 -0.030566208 0.049934577
0002d0 12 dc 17 bd 12 26 25 bd 40 75 2c 3d 7e c0 26 3d
       -0.03707511 -0.04031951 0.042104006 0.04071092
0002e0 36 b2 08 3d 58 cf c0 ba ef d3 25 bd a3 28 4a bb
       0.03337308 -0.0014710231 -0.04048532 -0.0030846975
0002f0 5d 3a f7 bc 56 c5 8f 3c 00 df 76 3c da 65 dc 39
       -0.030179197 0.017550152 0.015067816 0.00042037555
000300 a5 c0 ba bb 9a 2d bb 3d 03 6c d1 bc 4c 06 2d bc
       -0.0056992345 0.09139557 -0.0255642 -0.010560583
000310 3e b7 ca 3c e9 74 7e 3d c1 6b a4 3d 98 e8 dd 3c
       0.02474558 0.062123213 0.08028365 0.027088448
000320 8d b9 98 bd a3 1d 33 bc fb 3a 75 3d 2b da f6 bc
       -0.07457266 -0.010932359 0.0598707 -0.030133327
000330 46 85 17 bd d7 99 88 3d 4b 26 02 bd e2 fb 4a bc
       -0.036992334 0.066699676 -0.0317748 -0.012389155
000340 ee a4 d9 3c 0e 78 cd bc a9 ba 01 bd c7 7c 84 3c
       0.026567902 -0.02508166 -0.031672154 0.01617278
000350 80 66 ee bb d6 db ec bc 3c 4f 3f 3b 69 a2 80 bb
       -0.0072754025 -0.02891342 0.0029191514 -0.003925611
000360 ac d9 e7 3d b8 15 04 bd 36 9a 52 3d 78 6c ef bc
       0.113208145 -0.032247275 0.0514166 -0.029226527
000370 f0 c1 cc 3c 87 96 b6 3d c0 eb 6d bd 2f bf 9b 3d
       0.02499482 0.089154296 -0.058086157 0.07604825
000380 fa 0f f9 3d 1f 89 dc 3c 70 3a 87 bd 88 97 2c 3d
       0.121612504 0.026920853 -0.06602943 0.0421367
000390 e2 74 79 3d 3a a0 1d 3c 26 b8 99 3d 9f 8e fa bc
       0.060902484 0.0096207205 0.07505827 -0.030585585
0003a0 b6 a0 84 bc 33 1a d2 bc d0 78 26 3e 06 85 b1 bd
       -0.016189914 -0.025647258 0.16257024 -0.0866795
0003b0 9c 50 6f 3c dc d1 af 3d f3 b3 87 3c 18 d7 b7 bc
       0.014606621 0.085849494 0.016565299 -0.022441432
0003c0 01 2f 4c 3d 31 cb 2f 3c a4 c7 20 3d 15 50 02 bd
       0.049849514 0.010729597 0.039252892 -0.031814653
0003d0 dc 1a b7 3c 77 f6 0a 3c fe b1 4a bd 5a 56 d3 bc
       0.022351675 0.008481613 -0.049486153 -0.025798012
0003e0 d5 8d 9b bd 96 fa 25 3c 9d b3 31 3c c5 00 8e 3d
       -0.07595412 0.010130545 0.010846046 0.069337405
0003f0 e7 36 56 3d 6d f2 0c bc 58 c3 d7 3d 3a 22 7e 3a
       0.052298453 -0.008602721 0.10535306 0.0009694431

action_model._continuous_distribution.mu.bias f4 [2]
000000 bb 94 be bc 20 0a 81 bc
       -0.02326428 -0.015751898

action_model._discrete_distribution.branches.0.weight f4 [2, 256]
000000 e8 55 db bb e7 6e f8 3c 3f 37 9a b9 14 2f ea 3c
       -0.0066935904 0.03032632 -0.0002941433 0.028586902
000010 d3 01 08 3d 34 f6 01 3d ec 80 56 3c e1 55 b9 3c
       0.033204865 0.03172894 0.013092261 0.022623958
000020 77 33 27 bd 8c 37 d0 3c b7 91 4c bc 92 a7 a5 3d
       -0.040820565 0.025417112 -0.012485913 0.08088602
000030 11 53 3a bc 5d 02 65 bd eb 47 fe bc 82 7d e5 3d
       -0.011372344 -0.055910457 -0.031040153 0.11205579
000040 f8 c7 b8 bc f0 21 96 3d cf f8 fb 3c 19 ac 12 be
       -0.02255629 0.07330692 0.03075829 -0.14323463
000050 cf 6c 26 bc 5d f9 48 bd 48 e0 a4 3d 89 cf 49 3c
       -0.010157778 -0.049065936 0.08050591 0.012317547
000060 a1 da 5c 3d e9 a8 63 3d aa 06 e1 bb 04 a2 8f bd
       0.05391944 0.055581007 -0.0068672495 -0.07013324
000070 a5 9d 05 3d ba 6a 64 bd e8 c9 4e bc 8f db 9a bb
       0.032621045 -0.055765845 -0.01262138 -0.0047258805
000080 76 af 25 3e 14 ee c5 bd 78 ca 6f bd 2c 01 a5 bd
       0.16180214 -0.096645504 -0.0585427 -0.08056864
000090 64 7b 67 3d df e2 16 3e d7 4c 67 bd c2 92 2d 3e
       0.05651416 0.14734982 -0.056469765 0.16950515
0000a0 17 14 40 bd 49 b0 2c bb 2f 31 c4 bc b3 97 ce bd
       -0.04689416 -0.0026350191 -0.023949234 -0.10087528
0000b0 96 be 57 3d db 8c 7a bc 86 60 10 bd 2c 7f 81 3d
       0.05267199 -0.015292372 -0.035248302 0.06323084
0000c0 24 e1 ea ba 83 bb 98 bb bd 01 a7 3d f6 24 73 bd
       -0.001791988 -0.004661025 0.081546284 -0.05936142
0000d0 5b 04 58 bc dd 3b a0 bc 80 a4 86 bd 30 2b 9e bd
       -0.013184632 -0.019559795 -0.06574345 -0.07723081
0000e0 76 27 7e 3e 19 6c bc 3d 23 59 22 bd 58 90 d8 3c
       0.2481974 0.092003055 -0.03963579 0.026436016
0000f0 22 b1 14 3e d0 81 9e bd 99 dc 8c 3c 35 62 6f 3d
       0.14520696 -0.077396035 0.017195033 0.058443267
000100 6a b3 fb 3b e6 10 bb 3d 39 95 3a bd f6 e4 2a 3d
       0.0076813 0.091340825 -0.045552466 0.04172226
000110 d7 84 55 3d ec 3c 99 3d ea 48 6a 3c 67 b0 f7 bc
       0.05212864 0.07482323 0.014299611 -0.030235482
000120 49 48 7d 3d fe d6 55 3e d6 ca 7b 3d 1c b5 6d bc
       0.061836515 0.20882794 0.061472736 -0.014508512
000130 5e f6 1f 3d 66 08 b4 bd b3 05 69 3d 6f f7 a1 bd
       0.039053313 -0.087906644 0.0568902 -0.07908522
000140 23 a4 8c bd 04 21 de bb a3 64 92 3c 5a 10 4e bc
       -0.06867244 -0.006778838 0.017870253 -0.012577141
000150 de 44 d3 3d 20 c6 11 3d 27 83 28 3e a8 31 82 bd
       0.1031587 0.035589337 0.1645628 -0.063571274
000160 56 69 3e bd 86 59 79 3d 07 d5 35 bc 71 37 97 3c
       -0.046487175 0.06087639 -0.011098153 0.018459054
000170 3f fd 36 bc 90 7c 33 3d 97 10 0f 3d 1d 06 66 3e
       -0.011168777 0.043819964 0.03492793 0.2246327
000180 1f 83 24 bd 34 89 76 3e 01 32 77 bc 65 99 4d 3d
       -0.04016411 0.24075776 -0.015087605 0.050195117
000190 fd 05 b8 bd 3a 95 8c 3e fc d9 9e bc d4 4b a5 3c
       -0.08985517 0.274576 -0.019391052 0.02017776
0001a0 e8 0b 78 bb df bc 9e bb 26 fe 9d 3c b6 d8 1c bd
       -0.0037848894 -0.0048442925 0.019286226 -0.03829261
0001b0 75 fb 46 3c 2e 81 6d bd f6 51 d3 3a f3 b7 eb bb
       0.012144913 -0.057984523 0.0016122449 -0.0071935593
0001c0 89 21 04 3d b0 b4 83 bd 6c e6 86 bc 56 49 df 3e
       0.032258544 -0.06430948 -0.016467296 0.43610638
0001d0 b6 14 ab 3d c7 89 f1 3d 9e 0d 00 3b ee d5 10 be
       0.0835356 0.11793857 0.0019539366 -0.14144108
0001e0 7c f0 99 bd c3 ba 3c 3c a3 be d3 3d ed 3c 95 bd
       -0.07516572 0.011519137 0.103390954 -0.07287011
0001f0 22 af b6 bd 8b 5b c0 3c 47 a7 23 bc 66 ee 5e bc
       -0.08920123 0.023481151 -0.0099886125 -0.013606643
000200 06 9f 6d 3d ac ab 1b bd 8b 84 05 3e be 14 a2 3d
       0.058012985 -0.038005516 0.13038842 0.079141125
000210 9f c6 0e 3d ec b0 9a bd a1 63 37 bd 6b fc 9d bd
       0.03485739 -0.075532764 -0.044772748 -0.077141605
000220 b5 4d 16 3d e4 0f 91 bc b5 78 98 3a ac 4e 52 bc
       0.0366952 -0.017707773 0.0011632653 -0.01283614
000230 22 94 02 3d 38 3f 14 bd ac 1d 7f bd 67 55 07 3c
       0.03187955 -0.036193103 -0.062284157 0.008260108
000240 71 0b b0 bd cd b5 71 bd 1f 62 b9 3d 6b ab 86 bd
       -0.08595932 -0.05901127 0.09051918 -0.06575664
000250 76 36 fb 3b 00 ba d1 3b 3c 90 74 bb 6d 95 e9 3d
       0.0076664044 0.0064003468 -0.0037317416 0.11405454
000260 1f 59 24 bc 8d 43 aa 3d 88 50 6e 3c 42 92 cf bd
       -0.010031014 0.083136655 0.014545567 -0.10135318
000270 6a 28 ff bc bc fc 1a 3d 0c 39 1f 3e ed c7 91 bc
       -0.0311472 0.037838683 0.15549105 -0.017795527
000280 68 85 30 bd a8 68 06 bd 8d 62 26 3d 0b c8 fb bd
       -0.043095976 -0.03281465 0.04062133 -0.122940145
000290 e2 ed f8 bd ff 52 0b be 85 ff 8b 3c 45 1f 14 3d
       -0.121547475 -0.13605879 0.017089615 0.036162633
0002a0 c8 dc 88 bd ee 7e 11 3d 96 ff f6 bc 7a f8 01 bc
       -0.06682736 0.03552144 -0.03015117 -0.007932777
0002b0 68 46 f7 bd 39 e1 2c bc 9d 9e 00 bd e6 3d 78 3c
       -0.12073976 -0.010551744 -0.031401265 0.0151514765
0002c0 9e e2 6f 3c d8 0e b3 3d c8 d1 a0 3d fa 44 57 bd
       0.014641432 0.087430656 0.078525126 -0.052556016
0002d0 2b ef 99 bb da 65 04 bd 1a 0d 6e bd 02 d1 b8 bd
       -0.0046977005 -0.032323696 -0.058117963 -0.0902424
0002e0 1d 27 0d 3e f3 9b f0 3c c5 61 23 3d eb d2 03 3d
       0.13784452 0.029371237 0.039888162 0.03218357
0002f0 e9 0a 41 3c dc ed 2f bc b1 3c d4 3c 33 a3 d6 3d
       0.011782386 -0.010737862 0.025907846 0.104803465
000300 19 a0 48 3d 17 05 9b bc ff 4d 76 3a 72 09 c4 bd
       0.048980806 -0.018923325 0.00093957776 -0.09572114
000310 87 cb 9e bb cb 70 11 3d 52 16 11 bb 53 d8 60 bb
       -0.0048460397 0.03550796 -0.0022138548 -0.0034308627
000320 52 f7 9a 3c 7b 53 ad 3d 74 db 57 bd 76 21 c8 3d
       0.01891676 0.08463188 -0.05269952 0.09772007
000330 b5 c9 0e 3d 60 b5 1a 3d 61 6e 3a bd b9 14 8b 3c
       0.03486033 0.03777063 -0.04551542 0.016977655
000340 94 46 18 bc 47 44 7e bd d2 82 55 3d ed cf 03 3d
       -0.009294171 -0.062076833 0.052126713 0.032180715
000350 6d d1 c7 bd 32 7b 1c bd d9 d1 69 3e 9b 73 54 3c
       -0.09756742 -0.038203426 0.22833957 0.012967016
000360 95 71 53 bd bc 61 00 be d1 28 ae 3d fd f8 de 3c
       -0.051621992 -0.12537283 0.08503879 0.027218336
000370 04 65 ab 3d 1e d0 d3 bd 13 f5 d1 3c 50 8f d2 3b
       0.083688766 -0.103424296 0.025629556 0.0064257756
000380 0a c1 01 ba c3 34 06 bd c8 da 09 3d 09 b1 34 3c
       -0.00049497245 -0.03276516 0.03365591 0.011028537
000390 77 eb 8a bd 23 1b 6c bd 7d d5 de bc aa b9 e2 3d
       -0.067831926 -0.057643067 -0.027201409 0.11070569
0003a0 63 6d 34 3d 99 60 0b 3e d1 21 c1 bc d7 08 a1 bd
       0.04404963 0.13611068 -0.023575695 -0.07863014
0003b0 dd 4d b3 bd 2c 4f 29 3d 5f ee c2 ba d5 e1 5f bd
       -0.087550856 0.04133527 -0.0014872066 -0.05465873
0003c0 ea f3 4e 3d 40 ce cd 3d 66 71 a2 bd c0 fa 9a 3d
       0.050525583 0.10049105 -0.07931785 0.07567358
0003d0 12 65 89 bd 1c c9 c3 3d 29 84 ae 3c 77 42 60 3d
       -0.06708731 0.09559843 0.021303253 0.054750886
0003e0 55 6b b5 3c 66 d5 a9 bd 1e 42 cb bd f9 66 07 bd
       0.022145906 -0.08292656 -0.0992472 -0.033057187
0003f0 1a 16 d1 bc b0 55 8c 3e b7 3c 1d bb 6c 9a ff bd
       -0.025523234 0.27409124 -0.0023992488 -0.124806255

action_model._discrete_distribution.branches.0.bias f4 [2]
000000 76 81 d1 3d 3b 80 d1 bd
       0.10229771 -0.10229536

action_model._discrete_distribution.branches.1.weight f4 [2, 256]
000000 69 0c 22 3d b7 12 a7 bd 3d cd 91 3c 96 b6 69 bd
       0.039562616 -0.081578664 0.01779806 -0.057058893
000010 50 9a be bd d9 26 d1 3c 2d e0 9e bd ba 88 13 3c
       -0.093067765 0.02553122 -0.07757602 0.009004766
000020 31 9b e7 bc 1a 4d 9c 3d 7b e0 ff 3c ca 9d 3d bc
       -0.028272243 0.076318935 0.03123497 -0.011573264
000030 82 c5 6f bd c7 e4 ce 3c 33 ca 99 bc c8 df 00 3d
       -0.058537968 0.025255574 -0.018773174 0.031463414
000040 7c d4 8c bd 6f 9c 88 bc a3 ab eb 3c 68 73 0a bd
       -0.06876466 -0.016676156 0.028768366 -0.033801466
000050 fe a1 2e bd d1 3e 42 bc 3c b5 3f bd f2 a9 08 bd
       -0.042634957 -0.011855797 -0.046803698 -0.033365197
000060 05 f2 4c 3d 4f e8 ad 3d 26 11 15 bd d7 a8 ac bc
       0.050035495 0.08491575 -0.036393307 -0.021076603
000070 cc ef 12 bd 46 5f 90 3c 82 5c 83 bb 50 35 bf bc
       -0.03587322 0.017623555 -0.0040088305 -0.023340851
000080 e3 1d f6 3b 49 63 0e 3e f1 55 3a bb 12 28 3f bc
       0.007510887 0.13905062 -0.0028432573 -0.011667268
000090 dc e5 35 3d 31 3a 17 3d 7a 65 b7 3d 53 b2 46 3c
       0.044408664 0.03692073 0.08954902 0.012127477
0000a0 72 61 b6 3d 75 6e a2 3c 9e 80 85 3d 22 1d 3e bc
       0.08905305 0.01982806 0.065186724 -0.0116036255
0000b0 1a 36 d2 3c 28 28 1e 3c 81 36 96 bd c3 c5 83 3d
       0.025660563 0.009653129 -0.073346145 0.064342044
0000c0 7b 2f 6c bd 31 20 e4 bc 25 0f 9f 3b 7e 74 0f 3b
       -0.05766247 -0.027847381 0.0048541003 0.0021889503
0000d0 f5 14 29 3d 4f ec 46 be 32 3b 52 bb 13 1c 1f bd
       0.04127975 -0.19426082 -0.003207874 -0.038845133
0000e0 25 01 7b 3c ba a7 5f 3b 9d ba 1d bd a6 65 3b bd
       0.015320097 0.0034127072 -0.038508046 -0.045751236
0000f0 c5 d7 94 3a cb 8c 20 bd 14 60 fe 3c e3 36 5c bc
       0.0011355808 -0.03919677 0.031051673 -0.01344082
000100 2c 51 12 3e f3 86 88 bc 70 65 89 bd 1a b3 26 bb
       0.14288777 -0.016665911 -0.06708801 -0.0025436343
000110 0c f7 8e bd ae 9f 56 3d a1 41 6d bd a4 26 25 bd
       -0.06980714 0.052398376 -0.057923917 -0.040320054
000120 a3 4d 89 3d 5a f0 b5 3c 2a 41 33 3d 5f b5 73 bd
       0.06704261 0.022209335 0.043763317 -0.05949914
000130 a1 b1 98 3c e7 ee 43 bd f4 82 e8 3c 5d c6 55 bd
       0.018639388 -0.047835257 0.028382756 -0.052191127
000140 aa 47 40 bd 5a 9d 56 bb 74 7a 3f bc dc 92 7c 3d
       -0.046943344 -0.0032747597 -0.01168691 0.061663494
000150 19 bf 19 bc 89 6d 2c bd 1e 2f 37 bc ad 46 6e 3a
       -0.00938394 -0.04209665 -0.011180667 0.0009089511
000160 b1 4a 2b bd 09 84 51 bd d9 59 68 3c 6c 57 a4 bd
       -0.04181928 -0.05115131 0.014181578 -0.08024487
000170 f3 d6 d5 3c 51 3b 52 3c 54 22 20 bd a8 e0 d2 3b
       0.026103472 0.012831525 -0.039095238 0.0064354725
000180 1b bb dc 3d 11 52 b0 bc 8b f8 3c bd 79 82 9a 3b
       0.10777875 -0.021523507 -0.046135467 0.0047152606
000190 f2 d4 a9 bd 74 f1 0e 3c ee 11 27 3d 40 7a bb 3c
       -0.08292569 0.008724559 0.040788583 0.022885442
0001a0 4f ce 86 3d 19 0f cd bb 26 45 e3 3c e0 c8 3a bd
       0.06582319 -0.0062579033 0.027742933 -0.045601726
0001b0 d0 6f a3 bd ee b3 07 3d 99 ba 48 bd e8 09 54 3c
       -0.07980311 0.03313058 -0.04900608 0.012941815
0001c0 de 9f 0e 3d 99 a0 6a bc 5a 7e 41 3d ac df 6c 3c
       0.03482043 -0.014320516 0.04723964 0.014457624
0001d0 cf e1 fe bc d2 22 82 bc 6c 67 2f bd b7 7a 96 bd
       -0.031113533 -0.015885744 -0.04282324 -0.07347625
0001e0 ce a2 a1 bb 18 a4 4c 3c 58 be 48 bc bb 69 94 3d
       -0.004932738 0.012490295 -0.012252413 0.07246729
0001f0 9f 4a 3c bd e3 3f d2 bd 3e ad 9e bd 1e 9a a4 bd
       -0.0459696 -0.10266092 -0.07747887 -0.08037208
000200 f7 d6 16 3d ad 93 89 bd 2e 84 a1 bd 61 69 9c 3c
       0.0368261 -0.0671762 -0.078865394 0.019093217
000210 b4 79 03 bd 96 52 19 bd bd 65 2b bd bd aa e5 3d
       -0.032098487 -0.037432276 -0.041845072 0.11214206
000220 2b ff bc bd 00 a2 86 3d fa bd 22 bd fa 09 b8 bd
       -0.09228357 0.06573868 -0.039731957 -0.08986278
000230 07 3e 9b bc 56 8b 34 bd fb f7 59 bd 0a b6 9f 3c
       -0.018950475 -0.044078194 -0.05321501 0.019495983
000240 2f a9 82 3d 20 8e 37 3c 0c aa 15 3b 36 8c 77 3c
       0.063799255 0.011203319 0.0022836952 0.0151091125
000250 d7 b0 bb 3c 7f 3b 56 bd d5 24 96 3d b0 99 a8 3c
       0.022911472 -0.052302834 0.07331244 0.020581096
000260 7b a9 39 bc cf 8c 4e 3c 95 3d 18 3d dd f6 bb bd
       -0.011331911 0.012606814 0.037168104 -0.09177945
000270 e8 32 b0 bc 97 c2 a6 bd 29 eb a4 bc 13 55 62 bc
       -0.021508649 -0.08142584 -0.020131664 -0.013814229
000280 ef 7b 0e bd 95 e4 81 3c 64 2d 92 3d 7c 3b d7 3d
       -0.03478616 0.015856067 0.07137564 0.105093926
000290 97 75 4c 3b d0 65 dd bc 04 69 db 3b d0 88 c6 3b
       0.0031198019 -0.027026087 0.0066958684 0.00605879
0002a0 7f 50 6f bd 41 c1 12 bd 50 8a bc 3d 4a 28 df bc
       -0.058426376 -0.035828833 0.092060685 -0.027240891
0002b0 f4 ec 6d bc 9c 1b 09 bd 23 3f cf bc 42 76 5b 3b
       -0.014521826 -0.033473596 -0.02529866 0.0033487235
0002c0 fe 16 3d be 5f c9 b3 bd 45 10 e3 3c 7d 11 42 bd
       -0.18465802 -0.08778643 0.027717719 -0.04737996
0002d0 ef 9e 01 bd c2 10 e9 3b a6 af b5 bd e0 53 0c bd
       -0.03164571 0.0071125934 -0.08871393 -0.034259677
0002e0 dc b1 3b 3d 38 c6 a7 bc 81 47 a0 bc 2f b2 b0 3a
       0.045823917 -0.02048026 -0.019565346 0.0013480837
0002f0 53 c1 87 3d a3 cd ef bb fb c4 6c 3d 62 f9 dc 3c
       0.066286705 -0.007318215 0.057805043 0.026974384
000300 88 83 0c bd f4 2b 2b 3d 40 2e 52 3d 5d 89 b4 3d
       -0.034305125 0.041789964 0.05131364 0.088152625
000310 11 73 2a be 4b 0f de 3c 02 cc 33 3d 3b 78 ab 3b
       -0.16645457 0.027106902 0.04389573 0.0052328384
000320 e8 c7 8d bd 91 31 00 bc a9 99 ab bd bc a2 d1 3a
       -0.06922895 -0.007824318 -0.08378918 0.0015993933
000330 96 56 93 bc cc b4 3e 3d f6 de 1c bd cc 9e 0e 3d
       -0.017985623 0.04655914 -0.03829857 0.03481941
000340 e5 55 29 bd 41 4d 02 be 35 6e 9a 3c 90 cc 1e 3c
       -0.04134168 -0.12724783 0.018851379 0.009692326
000350 1e 99 59 bd 34 cc 9e bd a9 56 de bc b5 17 21 bd
       -0.05312454 -0.077537924 -0.027140932 -0.03932925
000360 55 04 51 3d 05 1d 10 be 63 3e 00 bc 9b 15 9f bd
       0.051029522 -0.1407357 -0.007827374 -0.07767793
000370 53 2e b5 bc ca 3d 53 3d 8b 7a 02 3c 36 49 e8 3d
       -0.022116816 0.0515726 0.007963787 0.11342089
000380 ac 61 c7 bc f8 9b 0c 3e 44 bc 1a 3d fe 7b 90 bc
       -0.024338566 0.13731372 0.0377772 -0.01763725
000390 a1 6e 96 bc c6 5d 6b 3d 75 09 88 bc dd 66 f8 3c
       -0.018363299 0.057462476 -0.016606072 0.030322487
0003a0 17 5b 33 3d 11 ea 6b bd b3 43 46 3d 90 41 69 bc
       0.043788042 -0.05759627 0.048404407 -0.014236823
0003b0 b3 08 dc bd 8d 58 a8 3d 76 39 97 3d aa e1 f2 bb
       -0.10743847 0.08220015 0.07384007 -0.007412155
0003c0 fd 96 91 3d 44 cd 58 bc 9b 40 12 38 75 ce e8 bc
       0.07108877 -0.013232533 3.486928e-05 -0.028418759
0003d0 5b 56 84 bd 94 62 a5 bd ad ea 0c bc 14 10 5e bc
       -0.064617835 -0.08075443 -0.008600873 -0.013553638
0003e0 3a af e9 bb ee 8c d6 3c df 35 61 3d 1f f7 9e 3c
       -0.0071314843 0.026190247 0.054983016 0.019404946
0003f0 c7 ec ca bd 0e bd 23 bc 14 35 20 bd cf 97 9c 3c
       -0.09908443 -0.009993805 -0.03911312 0.019115357

action_model._discrete_distribution.branches.1.bias f4 [2]
000000 95 56 4e 3b 1c 56 4e bb
       0.0031484712 -0.003148443
