Assets/ML-Agents/config/results/tank_beta_0.001_1_layers_32_batch_size/AgentTank/AgentTank-1999947.onnx (onnx, 45795 bytes, 10 tensors)

discrete_action_output_shape f4 [1, 2]
2.0 2.0
00000000: 0000 0040 0000 0040

network_body._body_endoder.seq_layers.0.weight f4 [256, 34]
-1.2897724 -0.081131086 0.2077664 -0.12542689 -1.7742655 -0.21352603 -0.112110436 -0.057193488
-1.5167843 0.30369475 0.34543443 -0.24788046 0.2693686 -0.14329281 -1.0439785 -0.13808966
-1.3376355 0.18592623 -0.25427833 -0.47946167 0.65959525 0.18183613 -0.8458109 -0.33189768
-1.0544715 0.25276974 -0.38147247 -0.2025198 -0.00069032673 -0.22319199 0.12322152 0.31363106
0.3038436 0.52912784 0.017639417 0.20547771 0.16562942 -0.4844026 -0.31831092 0.4897803
0.92284614 -0.1078913 -0.10631374 0.41964766 0.28266266 -0.5310708 -0.62818277 0.12932351
0.3776873 -0.08381947 0.4643109 0.07010502 0.12029116 -0.54868066 0.3165095 0.22577854
-0.10328209 -0.5504414 0.41766468 -0.71869284 0.37926674 -0.01704443 -0.17648092 -0.3670465
0.015797567 -0.03326832 -0.3487058 0.33543497 -0.8750496 0.2579801 0.44243878 -0.22076246
0.5426363 0.18012047 -0.3973588 -0.5905146 -1.0556493 -0.2736284 0.38774702 -0.43956432
1.8593895 0.0011952008 -0.9677412 -0.3673406 -0.751869 -0.5602637 0.3981719 -0.4084306
1.2349051 -0.3186174 -0.21741877 -0.6213341 -1.1508307 0.6010717 0.20865612 -0.15668869
-0.008700217 -0.112181425 -0.14282754 -0.35556155 0.10825717 -0.32742032 -0.15322787 -0.42511213
-0.0801394 -0.032399055 -0.09506697 -0.30080646 0.15725337 0.31059575 -0.11401095 -0.5652274
-0.03253721 -0.055464502 0.36584973 -0.58656967 -0.12826593 -0.172354 -0.02764012 -0.54850185
0.11601952 0.072895125 -0.208627 0.4290741 -1.0463053 -0.022689044 -0.33372152 -0.9934553
0.38864198 0.27478707 -1.015425 -0.12194004 -0.19710933 -0.6015845 0.19935103 -0.95353556
0.07790736 0.60647833 -0.08230652 -0.55017316 -0.16678813 -0.37887236 0.252486 -0.12051477
-0.6558917 -0.7827421 0.12945095 -0.13489705 1.1464654 -0.10970279 -0.7264825 -0.27106977
-0.76055574 0.37416062 0.18986401 -0.33954906 1.1907204 -0.3838515 -0.83712447 -0.457956
-0.5529517 0.66243404 -0.0062053823 -0.24056444 0.10170189 -0.22297953 -0.13667853 0.68512434
-0.019098394 -0.6747897 -0.2786314 0.38674462 0.6711761 -0.6317234 0.4779141 0.1426499
0.52031386 -0.116181456 -0.53480136 0.050591532 0.11567872 -0.5062683 0.71110815 -0.2362989
0.2001927 -0.5840034 -1.6397433 0.4222058 0.5915783 -0.081351675 -0.3894774 0.68688893
0.6458897 -0.36176643 -1.7621636 -0.77890944 0.3259972 -0.36837068 -0.23238356 0.084795564
-0.07618981 -0.20104153 0.078311674 0.13211292 -0.26745215 -0.13275579 0.33419615 -0.005023764
-0.42602706 -0.45580783 -0.7347232 -0.09801517 0.6083377 0.17964317 -0.15743278 0.096903086
-0.3268411 -0.1075534 -0.8608591 -0.050181285 -0.5006304 -0.11892586 0.0015648636 0.12661046
-0.39552784 -0.24498694 -0.0130766155 -0.08831676 -0.65239197 0.6229341 0.06070214 0.36729243
-0.09071411 -0.08487668 -0.27222466 -0.026654484 0.00081296597 -0.40249535 -0.18780048 0.083424985
-0.18515596 -0.31134826 -0.26307377 -0.51761496 0.035571687 0.04045159 -0.2079535 0.3637327
-0.04508272 0.48264593 0.24593945 0.51203007 0.29917496 -0.13068432 -0.35830435 -0.21606554
00000000: 4317 a5bf 0e28 a6bd b7c0 543e e86f 00be
00000010: 221b e3bf 91a6 5abe 289a e5bd b843 6abd
00000020: fd25 c2bf e17d 9b3e c8dc b03e 60d4 7dbe
00000030: aeea 893e 5abb 12be 16a1 85bf 6067 0dbe
00000040: a437 abbf 7263 3e3e c530 82be 007c f5be
00000050: 3cdb 283f 4033 3a3e 1087 58bf 7eee a9be
00000060: ecf8 86bf 096b 813e 5c50 c3be 5a61 4fbe
00000070: 0bf7 34ba 718c 64be 905b fc3d 4094 a03e
00000080: 6391 9b3e ec74 073f 8a80 903c c068 523e
00000090: c29a 293e 9e03 f8be a6f9 a2be 7cc4 fa3e
000000a0: a53f 6c3f 1df6 dcbd 05bb d9bd 0fdc d63e
000000b0: 29b9 903e 42f4 07bf 96d0 20bf 626d 043e
000000c0: 3b60 c13e 8ba9 abbd 29ba ed3e 3993 8f3d
000000d0: 365b f63d 5676 0cbf 880d a23e 7d32 673e
000000e0: 8f85 d3bd bae9 0cbf 25d8 d53e 41fc 37bf
000000f0: 402f c23e c3a0 8bbc 6ab7 34be 85ed bbbe
00000100: e669 813c 5d44 08bd 9189 b2be 22be ab3e
00000110: 4003 60bf f815 843e 5687 e23e 8e0f 62be
00000120: 36ea 0a3f 8071 383e 9d72 cbbe f72b 17bf
00000130: 841f 87bf 0619 8cbe c786 c63e 930e e1be
00000140: 7a00 ee3f 49a8 9c3a e3bd 77bf 1114 bcbe
00000150: 7d7a 40bf 716d 0fbf 30dd cb3e d11d d1be
00000160: 5f11 9e3f d221 a3be 07a3 5ebe c00f 1fbf
00000170: 6c4e 93bf d6df 193f f3a9 553e 0073 20be
00000180: 5b8b 0ebc 60bf e5bd 6241 12be 2a0c b6be
00000190: efb5 dd3d a3a3 a7be c4e7 1cbe 4ca8 d9be
000001a0: 2020 a4bd dfb4 04bd 79b2 c2bd 4e03 9abe
000001b0: 0707 213e 6806 9f3e 937e e9bd beb2 10bf
000001c0: bd45 05bd bf2e 63bd a850 bb3e 6e29 16bf
000001d0: 2558 03be 917d 30be 886d e2bc 9e6a 0cbf
000001e0: a49b ed3d 0a4a 953d 51a2 55be 9aaf db3e
000001f0: 55ed 85bf 60de b9bc 8cdd aabe 1653 7ebf
00000200: 15fc c63e e4b0 8c3e 72f9 81bf b3bb f9bd
00000210: 07d7 49be 7101 1abf ad22 4c3e e81a 74bf
00000220: e58d 9f3d 2a42 1b3f 5290 a8bd 26d8 0cbf
00000230: 82ca 2abe 8ffb c1be d845 813e 73d0 f6bd
00000240: 85e8 27bf c961 48bf ca8e 043e 7422 0abe
00000250: 61bf 923f dbab e0bd c2fa 39bf a8c9 8abe
00000260: c8b3 42bf fb91 bf3e b66b 423e 60d9 adbe
00000270: 8769 983f 2f88 c4be ca4d 56bf 3579 eabe
00000280: 3e8e 0dbf 4795 293f 8556 cbbb 8656 76be
00000290: 1549 d03d bf54 64be 75f5 0bbe 4f64 2f3f
000002a0: 3c74 9cbc 05bf 2cbf c6a8 8ebe 6403 c63e
000002b0: 32d2 2b3f a0b8 21bf 28b1 f43e d112 123e
000002c0: 4a33 053f 8bf0 edbd bee8 08bf 1139 4f3d
000002d0: f7e8 ec3d cd9a 01bf 2f0b 363f 57f8 71be
000002e0: 51ff 4c3e 3f81 15bf 1ce3 d1bf 5c2b d83e
000002f0: ad71 173f b59b a6bd 9569 c7be f4d7 2f3f
00000300: 0759 253f 7339 b9be 948e e1bf 9c66 47bf
00000310: 1be9 a63e 159b bcbe f5f5 6dbe 4ca9 ad3d
00000320: 6709 9cbd d5dd 4dbe df61 a03d 9c48 073e
00000330: 7def 88be 22f1 07be c21b ab3e 639e a4bb
00000340: 3820 dabe a55f e9be d216 3cbf 2dbc c8bd
00000350: 05bc 1b3f 61f4 373e 0f36 21be 2075 c63d
00000360: b757 a7be f544 dcbd 4361 5cbf e48a 4dbd
00000370: 5029 00bf 678f f3bd 1c1c cd3a 2ca6 013e
00000380: a082 cabe dbdd 7abe 4d3f 56bc 6bdf b4bd
00000390: 2903 27bf 9c78 1f3f cfa2 783d c10d bc3e
000003a0: 52c8 b9bd d3d3 adbd 0861 8bbe 815a dabc
000003b0: 391d 553a df13 cebe c54e 40be b8da aa3d
000003c0: 8699 3dbe 0a69 9fbe 9bb1 86be 6a82 04bf
000003d0: 9eb3 113d 91b0 253d c3f1 54be 2c3b ba3e
000003e0: a9a8 38bd 5e1d f73e 8dd7 7b3e 6714 033f
000003f0: 762d 993e 1cd2 05be ab73 b7be 4940 5dbe

network_body._body_endoder.seq_layers.0.bias f4 [256]
-0.3075183 -0.2455934 -0.23146193 0.02268474 -0.18185052 -0.31118435 -0.27637833 -0.20820035
-0.27610457 -0.4147999 -0.096035294 -0.18362932 -0.80349195 0.004046479 -0.086768165 -0.16746414
-0.37577015 -0.027558403 -0.016975692 -0.059557937 0.092744514 -0.15059482 0.023137767 -0.0489777
-0.007880334 -0.24260405 -0.17666568 -0.12756397 -0.32257682 -0.7761138 -0.06255404 -0.07539942
0.038903426 -0.07497929 -0.0755237 -0.021746948 -0.07826988 -0.16754383 -0.07339316 -0.18214743
-0.21167924 -0.14198084 -0.0050376407 -0.17107852 -0.1318497 -0.7574611 -0.33749652 -0.10481099
-0.05775976 -0.1424686 -0.17277017 -0.19293824 -0.63899845 -0.5152277 -0.0049148765 -0.15611038
-1.5359068 -0.15877219 -0.26333034 -0.3765347 -0.021800097 0.02079932 -0.51192296 -0.13043942
-0.07020855 -0.3079343 -0.28691262 -0.049694642 0.033583418 -0.08722155 -0.20268914 0.011653381
-0.15071964 -0.3171477 -0.1066139 -0.012327759 -0.1000777 -0.14157395 -0.6701967 -0.27199307
-0.983796 -0.019338598 -0.11188427 -0.086678796 -0.106271535 -0.323286 -0.035975885 -0.08239628
-0.16117686 -0.34717792 -0.14415203 -0.2990871 -0.0564591 -0.04339499 -1.008187 -0.08091472
0.0015297354 -0.10666614 -0.15935288 -0.10521344 -1.1499431 -0.09614604 -1.270601 -0.033112027
-0.5292248 -0.013111248 -1.6205461 -0.2237317 -0.21758024 -0.28712225 0.10406586 -0.20568357
-0.04953681 -0.17332701 -0.17059167 -0.41421613 -0.80872154 -0.096700534 -0.73853874 -0.92340434
0.015921311 -0.037263803 -0.14134082 -0.07210281 -0.08221981 -0.1071314 -0.79067326 -0.29841125
-0.55902743 -0.37073538 0.019730024 -0.4508455 -0.013162713 -0.08025671 -0.047853038 -0.269685
-0.40187815 -0.112599984 -0.04657349 -0.093305826 -0.46868438 -0.109553784 -0.3432465 -0.059736267
-0.042113423 -0.06487456 -1.0578648 0.01540662 -0.05034836 -0.07665778 -0.51015604 -0.30382147
-0.084126495 -0.24681747 -0.13259354 -0.5012675 -0.5550266 -0.1881163 -0.2664119 -0.34526926
-0.17250289 -0.14864974 -1.0070355 0.05671663 -0.2178737 -0.08203729 -0.200832 -0.21145056
-1.1064068 -0.57381463 -0.08581625 -0.03846247 -0.1459547 -0.19137931 -0.09968584 -0.16012414
-0.12259475 -0.0037146602 -0.16646068 -0.8448233 -0.54358375 -0.038472936 -0.08198378 -0.12604393
-0.010588412 -0.122599386 -0.21642244 -0.2872252 -0.09673143 -0.34623545 -0.33237845 -0.1005753
-0.06095362 -0.078127064 -0.123312145 -0.10242619 -0.021791331 -0.040780835 -0.24768601 -0.17223446
-0.13331652 -0.8227277 -0.5472315 -0.15565112 -0.1438942 -0.05462787 -0.2994246 -0.64950716
-0.15271954 -0.05202478 -0.066196725 -0.7185933 0.017933024 -1.2112869 -0.1011874 -1.09116
-0.2054818 -0.11169316 -0.031989917 -0.34841642 -0.1074375 0.0051574595 -0.11575608 -0.05526139
-0.59159505 0.04298195 -0.071704194 -0.22947183 -0.022536369 -0.26535583 -0.34040543 -0.057247195
-0.01693316 -0.047767363 -1.6242801 -0.12711246 -0.16244821 -0.23514646 -0.30750751 -0.4976966
-0.76590955 -0.15927249 -0.15557317 -0.12584825 -0.18405627 -0.03953798 -0.29190487 -0.29879493
-0.16569825 -0.3281863 -0.06600825 -0.03235062 -0.027187003 -1.3886794 -0.12647766 -0.29371494
00000000: 0a73 9dbe d67c 7bbe 5b04 6dbe 59d5 b93c
00000010: 0637 3abe 8e53 9fbe 7681 8dbe 7932 55be
00000020: 945d 8dbe a760 d4be 27ae c4bd 5309 3cbe
00000030: a6b1 4dbf 5398 843b 82b3 b1bd b87b 2bbe
00000040: f264 c0be 29c2 e1bc 9b10 8bbc 06f3 73bd
00000050: d6f0 bd3d 8735 1abe 6a8b bd3c d79c 48bd
00000060: 841c 01bc 326d 78be d9e7 34be 21a0 02be
00000070: ca28 a5be 65af 46bf 551c 80bd 036b 9abd
00000080: 3359 1f3d be8e 99bd 2bac 9abd a826 b2bc
00000090: f54b a0bd 9c90 2bbe 274f 96bd db84 3abe
000000a0: 71c2 58be 6d63 11be cb12 a5bb 352f 2fbe
000000b0: 9c03 07be f8e8 41bf 58cc acbe 25a7 d6bd
000000c0: 8095 6cbd 4ae3 11be aaea 30be 9a91 45be
000000d0: 6795 23bf f6e5 03bf f90c a1bb 66db 1fbe
000000e0: 9898 c4bf 2d95 22be 3cd3 86be 28c9 c0be
000000f0: 1e96 b2bc 5663 aa3c 620d 03bf e991 05be
00000100: 80c9 8fbd 91a9 9dbe 36e6 92be 9c8c 4bbd
00000110: c48e 093d 36a1 b2bd be8d 4fbe d3ed 3e3c
00000120: 4056 1abe 2f61 a2be 6358 dabd 5efa 49bc
00000130: 8af5 ccbd c3f8 10be 0392 2bbf ad42 8bbe
00000140: 0eda 7bbf fb6b 9ebc 9523 e5bd a784 b1bd
00000150: e4a4 d9bd be85 a5be 735b 13bd 61bf a8bd
00000160: 8c0b 25be 4ec1 b1be 979c 13be f221 99be
00000170: a841 67bd f2be 31bd 460c 81bf 9eb6 a5bd
00000180: 6781 c83a c773 dabd 672d 23be 257a d7bd
00000190: 5631 93bf 37e8 c4bd 0ea3 a2bf 7aa0 07bd
000001a0: 477b 07bf 8fd0 56bc 0e6e cfbf ec19 65be
000001b0: 5bcd 5ebe b001 93be 7b20 d53d b79e 52be
000001c0: 1ce7 4abd a37c 31be 95af 2ebe 2314 d4be
000001d0: 6008 4fbf ee0a c6bd e010 3dbf 3a64 6cbf
000001e0: 696d 823c eea1 18bd a6bb 10be a3aa 93bd
000001f0: dc62 a8bd b567 dbbd 9069 4abf 5cc9 98be
00000200: 6c1c 0fbf 07d1 bdbe dca0 a13c 39d5 e6be
00000210: 6ba8 57bc a15d a4bd 8c01 44bd 2714 8abe
00000220: f9c2 cdbe d29a e6bd d8c3 3ebd 2017 bfbd
00000230: 66f7 efbe bc5d e0bd 01be afbe 04ae 74bd
00000240: 207f 2cbd f4dc 84bd 1d68 87bf 0c6c 7c3c
00000250: 153a 4ebd c1fe 9cbd 9699 02bf 7d8e 9bbe
00000260: 834a acbd b8bd 7cbe 9ac6 07be 1153 00bf
00000270: 3916 0ebf 8fa1 40be 2467 88be 22c7 b0be
00000280: 99a4 30be a337 18be 8ae6 80bf b24f 683d
00000290: 491a 5fbe 2b03 a8bd e7a6 4dbe 7f86 58be
000002a0: bd9e 8dbf 84e5 12bf 6ec0 afbd d38a 1dbd
000002b0: 2675 15be f0f8 43be 1728 ccbd 95f7 23be
000002c0: f512 fbbd a871 73bb ab74 2abe 5746 58bf
000002d0: 4e28 0bbf cc95 1dbd 1de7 a7bd a911 01be
000002e0: 057b 2dbc 6315 fbbd d89d 5dbe 2e0f 93be
000002f0: 211b c6bd c645 b1be 822d aabe 6cfa cdbd
00000300: 81aa 79bd 1501 a0bd 148b fcbd d3c4 d1bd
00000310: bc83 b2bc ce09 27bd 67a1 7dbe 3b5e 30be
00000320: 2084 08be 489e 52bf 5d17 0cbf 0263 1fbe
00000330: 0059 13be 79c1 5fbd 2e4e 99be 1a46 26bf
00000340: 8362 1cbe f017 55bd 2692 87bd bbf5 37bf
00000350: 47e8 923c 730b 9bbf 573b cfbd 22ab 8bbf
00000360: d269 52be 62bf e4bd dc07 03bd a363 b2be
00000370: 3108 dcbd e8ff a83b 8611 edbd c459 62bd
00000380: c672 17bf d70d 303d a6d9 92bd aafa 6abe
00000390: 319e b8bc b8dc 87be 9f49 aebe 097c 6abd
000003a0: 69b7 8abc b6a7 43bd 69e8 cfbf c529 02be
000003b0: d358 26be 3cca 70be a071 9dbe 17d2 febe
000003c0: a612 44bf 5418 23be 934e 1fbe 5dde 00be
000003d0: 3f79 3cbe 94f2 21bd 8e74 95be a6fb 98be
000003e0: cdac 29be 0908 a8be 552f 87bd 1582 04bd
000003f0: 47b7 debc 3fc0 b1bf 5c83 01be ce61 96be

action_model._continuous_distribution.log_sigma f4 [1, 2]
-3.0082622 -2.982573
00000000: 5e87 40c0 7ae2 3ec0

action_model._continuous_distribution.mu.weight f4 [2, 256]
-0.038027707 0.00031875374 0.15461025 -0.22127134 0.1314994 0.0058190194 -0.03604153 0.00058144715
0.1425264 0.16291834 -0.022239184 0.002430525 0.08085433 -0.004654506 -0.0056563937 0.0071731047
-0.0050212336 0.048478574 -0.009462196 0.0039569614 0.2385172 -0.0066396277 0.0024365052 -0.0023554831
-0.2436155 -0.03638435 0.00087729364 -0.0027212265 -0.004240109 0.005664204 0.00071990176 -0.00012365388
-0.005655915 -0.2362203 0.01151807 -0.21235989 -0.08016096 0.008863101 -0.0059456388 0.04542242
0.036377892 0.0007608185 -0.31345513 -0.008861671 0.00035597302 0.13630447 -0.051820602 -0.0016782914
0.0007037817 0.0030048005 -0.0015794976 -0.0060304734 -0.017295292 0.069467895 -0.040978197 0.0107769715
0.049243525 -0.005319274 -0.009841284 0.17035699 -0.14691041 -0.17463695 0.13692348 0.00068891863
-0.00089491217 0.002194373 0.025514746 -0.0024283133 -0.04327166 -0.0034116858 0.0040530795 -0.0037733216
0.0015930474 -0.013392251 -0.0019005646 -0.0029884523 0.0037553709 -0.000640154 0.0598953 0.013633643
0.008902998 -0.008028613 -0.0008616654 -0.0031728072 -0.00076599215 -0.044756997 -0.003743037 -0.014387938
0.10440898 0.0642471 -0.004727887 -0.0030190698 -0.007198546 0.0048912666 0.025772206 -0.0027869076
0.081322 -0.0020434028 -0.0022553313 -0.013582147 0.021552617 -0.0001254487 0.14850676 -0.17522399
-0.0004950828 0.0066765645 0.08107266 -0.068810545 -0.005083888 -0.0071237106 0.17791408 0.015900802
-0.0020146377 0.0035624204 0.009796364 -0.024781883 0.033090074 0.0023215935 0.004456172 0.087147504
-0.63485247 0.006797029 0.00046148966 0.0034719277 -0.0043594167 -0.0034346217 0.0013507877 -0.010138349
0.05322527 0.10771048 -0.027607115 -0.007919431 0.0007157897 0.0023296745 -0.0059152185 -0.11529536
-0.029167019 -0.009986126 0.0018332709 -0.010444303 0.10482461 -0.0030204777 0.15679164 -0.00373838
-0.005326413 0.0046318397 0.090032734 0.0018546341 -0.0028120726 0.0011636358 0.048445545 0.11432169
-0.10219575 -0.1273337 0.0011467271 0.049972072 0.026661409 -0.0033093537 -0.053306963 -0.021896755
0.0069761267 -0.21060342 0.023916252 6.37315e-05 0.00015019947 1.9339554e-06 0.0021520024 -0.19995877
0.08369982 0.009611723 0.0043907505 0.000344572 0.0022502372 0.006386758 0.0003916762 -0.00395711
-0.006404293 -0.17474836 0.0006447408 0.25183123 -0.023619382 -0.002052544 0.009530998 0.077291206
-0.0028105504 0.010204303 -0.07268476 0.018000502 -0.25535485 0.006202679 -0.022490768 0.003069039
-0.00063895027 -0.00562003 0.032758962 2.24879e-05 0.002686695 -0.0050712014 0.013419965 -0.14040962
-0.010831314 0.020701325 0.03294128 0.0030910203 0.15686998 0.0046795616 -0.12900274 0.06483319
0.0019122517 -0.12782705 -0.0018355577 0.039066087 0.0022968703 -0.010293022 -0.118830696 0.0075586652
0.28965816 0.0008746624 -0.14049247 0.013610425 -0.0050737807 0.00024660194 -0.0060501182 -0.18155678
0.06983683 -0.005102344 0.004282605 0.13502789 0.0084983455 0.0016985007 0.15338038 -0.0043891557
0.31379333 -0.17769669 0.14045487 -0.0045521627 0.005098802 -0.0025643508 0.009573634 0.07402811
0.026932247 0.045305617 -0.0021533368 0.0138073 -0.09648246 0.012753033 0.0444544 0.2376707
0.3496088 0.13353227 -0.0008345973 0.0024464976 -0.008753145 -0.03230052 -0.0018541912 -0.07568874
00000000: f1c2 1bbd 671e a739 2652 1e3e f494 62be
00000010: c7a7 063e 79ad be3b 49a0 13bd 426c 183a
00000020: 71f2 113e 11d4 263e f32e b6bc 7149 1f3b
00000030: f496 a53d d484 98bb 4559 b9bb 5d0c eb3b
00000040: 2989 a4bb 7891 463d 5407 1bbc 66a9 813b
00000050: da3d 743e 3c91 d9bb c6ad 1f3b 735e 1abb
00000060: 5776 79be c207 15bd 2efa 653a 9b56 32bb
00000070: 9df0 8abb c99a b93b cab7 3c3a 16a9 01b9
00000080: 4155 b9bb bce3 71be 49b6 3c3c df74 59be
00000090: 6e2b a4bd 8a36 113c a2d3 c2bb dc0c 3a3d
000000a0: fc00 153d aa71 473a 317d a0be 8b30 11bc
000000b0: e4a1 ba39 6693 0b3e d741 54bd 1dfa dbba
000000c0: fe7d 383a 30ec 443b 2507 cfba 479b c5bb
000000d0: dbae 8dbc 2f45 8e3d c1d8 27bd e591 303c
000000e0: 94b3 493d 4e4d aebb 563d 21bc 1072 2e3e
000000f0: af6f 16be 07d4 32be ab35 0c3e 8c98 343a
00000100: 8a98 6aba 78cf 0f3b 4d04 d13c 5624 1fbb
00000110: a03d 31bd 9796 5fbb b2cf 843b d549 77bb
00000120: cdcd d03a 2c6b 5bbc 5e1c f9ba e9d9 43bb
00000130: ab1c 763b 02d0 27ba c654 753d a55f 5f3c
00000140: e1dd 113c 728a 03bc 63e1 61ba dfee 4fbb
00000150: ddcc 48ba 1d53 37bd be4d 75bb 63bb 6bbc
00000160: 60d4 d53d fc93 833d 64ec 9abb 96db 45bb
00000170: c8e1 ebbb eb46 a03b 3c20 d33c 8da4 36bb
00000180: 268c a63d 9cea 05bb 2ece 13bb a787 5ebc
00000190: 1d8f b03c e18a 03b9 2812 183e eb6d 33be
000001a0: 72c8 01ba 15c7 da3b 6c09 a63d 8bec 8cbd
000001b0: be96 a6bb 046e e9bb 1c2f 363e 6642 823c
000001c0: 0308 04bb 7f77 693b ee80 203c 6003 cbbc
000001d0: 7589 073d e025 183b 1505 923b 647a b23d
000001e0: b185 22bf 9db9 de3b 18f4 f139 4889 633b
000001f0: 70d9 8ebb 6417 61bb ea0c b13a 511b 26bc
00000200: be02 5a3d 5097 dc3d 5128 e2bc 80c0 01bc
00000210: d5a3 3b3a 74ad 183b 73d4 c1bb f91f ecbd
00000220: acef eebc d99c 23bc 5d4a f03a 951e 2bbc
00000230: 49ae d63d 35f3 45bb fd8d 203e 9cff 74bb
00000240: 3189 aebb b0c6 973b 1563 b83d 3217 f33a
00000250: c04a 38bb 2385 983a d66e 463d 7d21 ea3d
00000260: 014c d1bd c463 02be c74d 963a 84af 4c3d
00000270: 0769 da3c bee1 58bb 6758 5abd d360 b3bc
00000280: fe97 e43b 6ca8 57be 04ec c33c 97a7 8538
00000290: dd7e 1d39 1ac9 0136 9c08 0d3b fec1 4cbe
000002a0: d06a ab3d 7d7a 1d3c 49e0 8f3b aca7 b439
000002b0: b778 133b 0248 d13b e459 cd39 a5aa 81bb
000002c0: 1adb d1bb 3cf1 32be d303 293a 06f0 803e
000002d0: 6f7d c1bc f983 06bb e727 1c3c da4a 9e3d
000002e0: 3631 38bb f32f 273c bfdb 94bd ca75 933c
000002f0: dfbd 82be d83f cb3b 8f3e b8bc ee21 493b
00000300: 3a7f 27ba 3b28 b8bb 432e 063d 66a4 bc37
00000310: 4313 303b 522c a6bb 6adf 5b3c 8ac7 0fbe
00000320: d375 31bc d395 a93c 70ed 063d b792 4a3b
00000330: 86a2 203e 0257 993b 4b19 04be 43c7 843d
00000340: 85a4 fa3a 18e5 02be 1997 f0ba c303 203d
00000350: 1787 163b 10a4 28bc 825d f3bd aeae f73b
00000360: 134e 943e 9a49 653a 42dd 0fbe 43fe 5e3c
00000370: f541 a6bb 5a4a 8139 1240 c6bb 05ea 39be
00000380: 9d06 8f3d 9031 a7bb 1855 8c3b c044 0a3e
00000390: a53c 0b3c 3aa0 de3a bf0f 1d3e e8d2 8fbb
000003a0: 85a9 a03e 1ff6 35be 67d3 0f3e 4f2a 95bb
000003b0: da13 a73b ab0e 28bb bbda 1c3c 0d9c 973d
000003c0: 04a1 dc3c 6292 393d ff1e 0dbb 0338 623c
000003d0: 9998 c5bd 19f2 503c d115 363d f35f 733e
000003e0: edff b23e afbc 083e e0c8 5aba 6b55 203b
000003f0: 5a69 0fbc 8d4d 04bd 5508 f3ba b302 9bbd

action_model._continuous_distribution.mu.bias f4 [2]
0.08739662 -0.093928955
00000000: 00fd b23d d35d c0bd

action_model._discrete_distribution.branches.0.weight f4 [2, 256]
-0.6479789 -0.6161135 -0.11685434 -0.1752536 -0.55907625 -0.77869356 -0.3935078 -0.42587876
-0.23299357 -0.82163614 -1.6917758 -0.75830555 0.04538381 0.68156457 -0.3026251 0.21624894
-0.047342878 -0.90532255 -0.00790915 -0.11447973 -0.7990646 -0.17668603 1.20259 -0.28629744
-0.056811932 -0.7792254 0.98907346 -0.63693774 0.55950797 -0.68829757 0.015032608 0.17934985
-0.7678114 -0.32020986 -0.059936464 -0.36380753 -0.21079947 0.5517329 -0.67020637 -1.052918
-1.0263203 -0.36461627 0.15218772 -0.07885501 -0.037297156 1.3605251 -0.6265003 -0.9301037
0.4936134 -0.1054299 0.15253739 -0.057229023 0.24535388 0.85742 0.18726006 -0.15260738
-0.014391828 1.2113366 0.1506326 -1.0525888 -0.24953116 -0.2605491 1.1804805 -0.3584864
0.085270055 0.14606613 1.1440389 0.3013424 0.07834124 -0.4420787 0.52039635 1.2936963
-0.27063036 -0.1544545 -0.19789848 0.2549218 0.6166731 -0.6509635 0.5792047 -0.8281321
-0.3933576 0.14054608 0.32590395 -0.16251375 0.11233217 0.31367657 0.23243883 -0.11425766
-0.9621956 -0.96933126 0.048574895 -0.78913826 0.25228718 0.2790827 -0.39646277 0.080965996
0.13620807 -0.4954569 -0.2912272 0.059659947 1.4439684 0.08140806 -0.2688731 -0.10338353
-0.28507835 -0.2215635 0.36041602 0.19813274 -0.18185636 0.9115932 -0.5911482 -0.24755432
0.47113156 0.16609451 0.36620286 -0.2653119 0.21649523 0.19159608 -0.22472283 0.5769643
0.52611583 0.15629908 0.4726018 -0.12852064 0.046215143 -0.3780949 1.0974975 -0.79977775
-0.057095915 -0.8870639 -0.862496 -0.58747387 0.18620138 0.032464895 0.101291455 -1.0879781
-0.4457093 -0.78272957 -0.3022094 -0.17161438 -0.38396072 -0.35990635 -0.15938792 0.2345131
-0.5552167 0.17357875 0.22549754 -0.0077952165 0.110650934 0.054847013 0.75103015 -0.15234216
-0.83031917 0.2622384 0.8978222 0.4521674 0.8783907 0.6706509 0.20465289 -0.81930447
-0.38513854 -0.41265726 0.32162017 -0.004431722 -0.74194497 0.22120884 -0.65635026 0.050519608
0.056541707 0.681998 -0.50616217 -0.1548752 0.20786715 -0.6018225 0.43366653 -0.29453582
-0.22136885 -0.42068842 -0.07397372 0.034342557 0.4935904 0.2367559 -0.15738234 0.79461306
0.8464378 0.3705436 -0.516618 -0.6998652 -0.6652966 0.28105098 0.3933316 0.65410566
0.32098398 0.042550072 -0.5568529 0.4084123 -0.6215951 0.31968957 -1.0807706 -0.12724455
-0.8048332 -0.25499102 -0.13271093 0.49183998 -0.0038537239 -0.0653569 -0.49509624 0.71026754
0.7297608 -0.5484117 -0.012349527 0.53544426 -0.041434437 1.5924715 -0.34087175 -0.016512109
-0.35869777 0.4957841 -0.12770562 0.13472694 -0.032727595 -0.5249176 0.47268048 -1.0859319
0.27221423 -0.13236448 -0.020850321 -0.45252535 -0.042080123 -0.666496 0.1424398 0.5872182
-0.32281643 -0.13880152 0.32952225 -1.0075761 -0.035209723 -0.3422574 -1.1352144 -0.6105995
0.6455184 -1.801798 0.17892238 -0.4501465 -0.1912244 -0.38775894 -0.7604832 -0.2596289
-0.17388913 -0.71637124 0.5497001 0.26322803 0.090952404 0.47910902 -0.14998312 -1.3070816
00000000: f2e1 25bf 9db9 1dbf 5451 efbd ae75 33be
00000010: 9f1f 0fbf 7658 47bf db79 c9be c80c dabe
00000020: de95 6ebe bf56 52bf 1c8c d8bf 5020 42bf
00000030: 60e4 393d 047b 2e3f adf1 9abe 5d70 5d3e
00000040: 9bea 41bd 38c3 67bf 6195 01bc 5974 eabd
00000050: 7f8f 4cbf 2fed 34be 78ee 993f 9495 92be
00000060: a1b3 68bd 517b 47bf eb33 7d3f 5a0e 23bf
00000070: ea3b 0f3f 4534 30bf 544b 763c 7da7 373e
00000080: 4a8f 44bf 8cf2 a3be f07f 75bd fb44 babe
00000090: d1db 57be 5e3e 0d3f a592 2bbf 04c6 86bf
000000a0: 775e 83bf fcae babe 19d7 1b3e bc7e a1bd
000000b0: e7c4 18bd b025 ae3f 5362 20bf 471b 6ebf
000000c0: e5ba fc3e a2eb d7bd c332 1c3e fb68 6abd
000000d0: 0c3e 7b3e e17f 5b3f 1ac1 3f3e 1c45 1cbe
000000e0: b4cb 6bbc 140d 9b3f 6f3f 1a3e 3bbb 86bf
000000f0: 1985 7fbe b166 85be fc19 973f 888b b7be
00000100: 11a2 ae3d 5c92 153e de6f 923f 8d49 9a3e
00000110: 5f71 a03d 2458 e2be b238 053f d797 a53f
00000120: 1090 8abe 5229 1ebe e6a5 4abe 1c85 823e
00000130: 4ade 1d3f 8ba5 26bf c246 143f 7700 54bf
00000140: 2b66 c9be 50eb 0f3e e2dc a63e 016a 26be
00000150: 690e e63d 379a a03e 7204 6e3e ecff e9bd
00000160: 7352 76bf 1826 78bf 78f6 463d f704 4abf
00000170: c92b 813e ede3 8e3e 2bfd cabe 80d1 a53d
00000180: 217a 0b3e 87ac fdbe bb1b 95be fd5d 743d
00000190: f5d3 b83f 45b9 a63d bca9 89be bfba d3bd
000001a0: caf5 91be 8be1 62be 7388 b83e 4fe3 4a3e
000001b0: 8e38 3abe 2c5e 693f 7d55 17bf e17e 7dbe
000001c0: 2838 f13e ae14 2a3e f17e bb3e f6d6 87be
000001d0: edb0 5d3e c331 443e be1d 66be efb3 133f
000001e0: 87af 063f de0c 203e ddf8 f13e ea9a 03be
000001f0: 174c 3d3d a895 c1be cc7a 8c3f 3cbe 4cbf
00000200: 68dd 69bd 9f16 63bf 8acc 5cbf b064 16bf
00000210: 93ab 3e3e e9f9 043d e571 cf3d de42 8bbf
00000220: 0234 e4be f760 48bf 31bb 9abe aebb 2fbe
00000230: 8096 c4be a545 b8be 9636 23be 3424 703e
00000240: af22 0ebf a1be 313e d4e8 663e 046f ffbb
00000250: f59c e23d 43a7 603d 8343 403f 95ff 1bbe
00000260: cc8f 54bf 1d44 863e add7 653f 7c82 e73e
00000270: 37de 603f c7af 2b3f 8790 513e f0bd 51bf
00000280: e130 c5be d047 d3be 66ab a43e fb37 91bb
00000290: 1bf0 3dbf 9284 623e 9206 28bf a6ed 4e3d
000002a0: 4798 673d 6c97 2e3f d893 01bf 9b97 1ebe
000002b0: 20db 543e 0a11 1abf 8a09 de3e 66cd 96be
000002c0: 84ae 62be 7964 d7be 897f 97bd c8aa 0c3d
000002d0: e2b7 fc3e 2370 723e d628 21be c36b 4b3f
000002e0: 26b0 583f e4b7 bd3e 1441 04bf 5e2a 33bf
000002f0: e150 2abf eae5 8f3e c262 c93e 7873 273f
00000300: 0358 a43e fc48 2e3d e98d 0ebf 6b1b d13e
00000310: db20 1fbf 5aae a33e b156 8abf 654c 02be
00000320: 8c09 4ebf 2f8e 82be 60e5 07be 73d2 fb3e
00000330: c28e 7cbb d7d9 85bd 417d fdbe 18d4 353f
00000340: 9bd1 3a3f b664 0cbf ac55 4abc e012 093f
00000350: 28b7 29bd 1bd6 cb3f be86 aebe 6744 87bc
00000360: 3ca7 b7be 6ad7 fd3e 43c5 02be dcf5 093e
00000370: 5f0d 06bd 0061 06bf 2d03 f23e d1ff 8abf
00000380: aa5f 8b3e 8e8a 07be 4bce aabc 67b1 e7be
00000390: 355c 2cbd 7b9f 2abf bddb 113e ef53 163f
000003a0: 3248 a5be fc21 0ebe 24b7 a83e 41f8 80bf
000003b0: 1238 10bd 5d3c afbe b54e 91bf 4050 1cbf
000003c0: b240 253f 51a1 e6bf 6e37 373e 9a79 e6be
000003d0: 54d0 43be 5788 c6be 07af 42bf 14ee 84be
000003e0: fe0f 32be 1b64 37bf 25b9 0c3f d3c5 863e
000003f0: 4145 ba3d c74d f53e 2d95 19be 734e a7bf

action_model._discrete_distribution.branches.0.bias f4 [2]
0.6845461 -0.68452615
00000000: 6a3e 2f3f 1b3d 2fbf

action_model._discrete_distribution.branches.1.weight f4 [2, 256]
0.051117074 0.27272663 -0.31790936 0.11303157 0.22543842 0.038444933 0.20827931 0.1724383
-0.13223185 -0.59128684 0.13572237 -0.20021436 0.12350823 0.23840849 -0.061302073 -0.47476226
-0.52321804 -0.35121045 0.48938826 0.10277125 0.24713196 0.11581045 0.23051324 0.042967815
0.0018048094 -1.0864611 0.25052825 0.077457555 -0.39577663 0.034312475 -0.09333797 -0.31983605
-0.08717043 -0.27078956 0.19569384 -0.033136524 0.0628798 0.087404594 -0.06356912 -0.30309182
0.27159727 0.08304908 0.091778405 0.033408865 -0.15736505 0.76481986 0.018049052 0.020108776
-0.051350553 -0.034284715 0.11651762 0.30906266 0.78637326 0.3107857 -0.13213262 -0.11771316
-0.2392668 0.33094978 -0.61343867 -0.10904958 0.5703106 -0.46316683 1.1159842 0.04434249
0.046665803 0.09585294 0.02741696 -0.06504889 -0.931584 0.14823322 -0.08313707 -0.04137529
0.031080825 -0.3150681 0.063865796 -0.021848451 -0.015012396 -0.014175055 1.1202866 -0.5305962
-0.3446609 0.056033198 0.0236497 -0.16467518 0.054194123 0.44186094 0.052950792 0.07631757
0.0065955985 -0.16361134 0.12832145 -0.44442642 -0.066171244 -0.120706074 -0.11523319 -0.12846664
0.27812934 0.09514518 0.09359783 0.042676184 -0.30698162 0.15836738 -0.10119972 -0.53750247
0.8618307 -0.27240506 0.044782054 -0.1846939 -1.0674946 -0.60995275 -0.014277789 -0.18846878
0.33548754 0.042283934 -0.10730491 0.28705686 -0.24622668 0.16576837 0.07850631 -0.46679768
0.15867287 0.08458106 -0.098567635 0.14781639 0.14144422 0.055869438 0.089602895 -0.2566616
0.322757 -0.20128638 -0.45211008 0.59778404 -0.14757761 -0.026777538 -0.084653854 0.27472863
0.4541414 0.22076078 0.067250386 -0.0011281312 1.1757298 0.12396278 0.19980817 -0.09118547
-0.072917216 -0.023707595 -0.5755912 0.08594139 0.060514465 -0.13385043 0.751142 0.24116588
0.07459827 -0.19432299 0.061348442 1.1745291 0.23105738 0.2414064 0.605827 -0.3985279
-0.24416508 0.21978725 -0.15832892 -0.0607624 -0.051266782 -0.04997196 -0.072619766 0.5792988
0.3725961 0.9134972 -0.17324524 -0.019058818 -0.08255854 -0.12127905 -0.072400026 -0.08633944
0.23041007 -0.15184143 -0.12962875 -0.13766634 0.46816468 -0.0077021895 -0.28532574 0.13753948
-0.107661374 0.03414059 0.00066027365 -0.17928672 0.000988625 -0.33429664 -0.50046664 0.02407683
-0.16425356 0.18056734 0.2780332 -0.013432343 0.004216737 0.031742297 0.21414556 -0.3823786
0.0123658795 -0.27323475 0.8098336 0.20202613 0.097265735 0.019708581 -0.112296574 0.15394004
-0.10704126 -0.24593188 -0.16773827 0.066869944 0.07833065 -0.32836837 -0.122634456 -0.32730377
-0.44157174 0.04999392 -0.022010492 0.13481154 -0.05743018 -0.011324078 -0.025662018 0.22396997
0.71599245 0.1435964 0.14714266 -0.0003954121 0.021394879 -0.7701728 1.1694571 0.6385774
0.22005631 0.2596412 -0.08091537 0.32620743 0.11851948 -0.010053756 -0.2688837 1.1584799
0.0525888 -0.56183505 0.24810146 -0.15446287 -0.14829995 -0.14887649 0.021022648 -0.43395764
-0.21849963 0.6666595 -0.009084912 0.15907481 0.22069159 0.61163706 -0.06341937 0.05317861
00000000: 2360 513d d3a2 8b3e 04c5 a2be 197d e73d
00000010: 54d9 663e 6f78 1d3d 2c47 553e aa93 303e
00000020: c967 07be 935e 17bf cefa 0a3e fe04 4dbe
00000030: e2f1 fc3d 5b21 743e e217 7bbd 0a14 f3be
00000040: 9ef1 05bf dbd1 b3be 1991 fa3e bc79 d23d
00000050: 2910 7d3e 072e ed3d aa0b 6c3e 05ff 2f3d
00000060: 5b8f ec3a 2811 8bbf 3d45 803e 11a2 9e3d
00000070: 3ca3 cabe 3d8b 0c3d fa27 bfbd 8dc1 a3be
00000080: 6986 b2bd eea4 8abe f763 483e 2aba 07bd
00000090: 20c7 803d 2e01 b33d 8730 82bd da2e 9bbe
000000a0: cc0e 8b3e a315 aa3d 51f6 bb3d bcd7 083d
000000b0: 4e24 21be 3ccb 433f 9bdb 933c 29bb a43c
000000c0: f554 52bd 216e 0cbd caa0 ee3d 763d 9e3e
000000d0: c24f 493f 4e1f 9f3e c64d 07be 9913 f1bd
000000e0: 5b02 75be 4072 a93e 510a 1dbf 6355 dfbd
000000f0: e0ff 113f 3424 edbe 92d8 8e3f 79a0 353d
00000100: a424 3f3d 8c4e c43d 8899 e03c 5a38 85bd
00000110: 4a7c 6ebf 73ca 173e c543 aabd 2379 29bd
00000120: 379d fe3c 9b50 a1be 12cc 823d 86fb b2bc
00000130: 8df6 75bc 7d3e 68bc 8d65 8f3f 27d5 07bf
00000140: 6577 b0be 1183 653d 04bd c13c 9ca0 28be
00000150: a8fa 5d3d 993b e23e eee2 583d 634c 9c3d
00000160: e41f d83b bb89 27be b366 033e dc8b e3be
00000170: ca84 87bd bf34 f7bd 61ff ebbd c28c 03be
00000180: f866 8e3e 7adb c23d 38b0 bf3d 39cd 2e3d
00000190: b22c 9dbe 0f2b 223e cc41 cfbd c399 09bf
000001a0: f0a0 5c3f ad78 8bbe 636d 373d 6620 3dbe
000001b0: aaa3 88bf dd25 1cbf 63ed 69bc f6fd 40be
000001c0: 06c5 ab3e eb31 2d3d adc2 dbbd 1ef9 923e
000001d0: d922 7cbe 2fbf 293e ebc7 a03d 1b00 efbe
000001e0: 247b 223e d638 ad3d d4dd c9bd 2e5d 173e
000001f0: c1d6 103e 5ad7 643d b981 b73d 2669 83be
00000200: 6840 a53e 041e 4ebe f97a e7be 6008 193f
00000210: 961e 17be 915c dbbc 005f adbd 3ba9 8c3e
00000220: 3985 e83e 1d0f 623e 92ba 893d cddd 93ba
00000230: 507e 963f 33e0 fd3d 839a 4c3e 73bf babd
00000240: 9f55 95bd 6e36 c2bc f259 13bf 0a02 b03d
00000250: 04de 773d 1610 09be d84a 403f 30f4 763e
00000260: fac6 983d 9bfc 46be 8148 7b3d f856 963f
00000270: 4e9a 6c3e 3d33 773e 7a17 1b3f d90b ccbe
00000280: 6906 7abe e90f 613e fa20 22be ffe1 78bd
00000290: 1efd 51bd 66af 4cbd acb9 94bd ed4c 143f
000002a0: ebc4 be3e f4da 693f 3367 31be 3d21 9cbc
000002b0: 7414 a9bd 2761 f8bd 7746 94bd bbd2 b0bd
000002c0: 9ef0 6b3e 527c 1bbe 66bd 04be 68f8 0cbe
000002d0: 48b3 ef3e a662 fcbb 3716 92be 26d7 0c3e
000002e0: 917d dcbd 01d7 0b3d 3716 2d3a f096 37be
000002f0: c094 813a ee28 abbe 951e 00bf c63c c53c
00000300: 1632 28be a5e6 383e 5e5a 8e3e 5413 5cbc
00000310: 8e2c 8a3b 3604 023d f948 5b3e 21c7 c3be
00000320: 429a 4a3c 6de5 8bbe 4151 4f3f f0df 4e3e
00000330: 4233 c73d e473 a13c bffb e5bd 75a2 1d3e
00000340: 7338 dbbd 91d5 7bbe 95c3 2bbe 1cf3 883d
00000350: d26b a03d e61f a8be c627 fbbd 5c94 a7be
00000360: b115 e2be 6dc6 4c3d 594f b4bc 090c 0a3e
00000370: e93b 6bbd a088 39bc 2739 d2bc 6258 653e
00000380: 484b 373f ef0a 133e 91ac 163e 504f cfb9
00000390: 5044 af3c 0b2a 45bf c5b0 953f cf79 233f
000003a0: 7156 613e b1ef 843e f5b6 a5bd a904 a73e
000003b0: 57ba f23d 82b8 24bc 20ab 89be 1249 943f
000003c0: 5b67 573d 6cd4 0fbf 4f0e 7e3e 842b 1ebe
000003d0: f1db 17be 1473 18be b037 ac3c b22f debe
000003e0: 5ebe 5fbe 32aa 2a3f e2d8 14bc 82e4 223e
000003f0: fafc 613e 3f94 1c3f 04e2 81bd d0d1 593d

action_model._discrete_distribution.branches.1.bias f4 [2]
0.03549985 -0.035499357
00000000: 4a68 113d c667 11bd
