Assets/ML-Agents/config/results/tank_beta_0.001_1_layers_32_batch_size/AgentTank/AgentTank-1499907.onnx (onnx, 45795 bytes, 10 tensors)

discrete_action_output_shape f4 [1, 2]
2.0 2.0
00000000: 0000 0040 0000 0040

network_body._body_endoder.seq_layers.0.weight f4 [256, 34]
-1.370017 -0.07602147 0.26114038 -0.048251722 -1.7657493 -0.19134144 -0.04580723 0.016467394
-1.5144718 0.30874854 0.38512245 -0.1963286 0.50237745 -0.13262837 -1.005207 -0.08809117
-1.3320234 0.20213194 -0.19710068 -0.45157272 0.848427 0.19354494 -0.80564433 -0.26773867
-0.9354844 0.2663837 -0.3233242 -0.15031491 0.064664386 -0.22319199 0.13173486 0.2938782
0.30428723 0.56531394 0.1592297 0.11527104 0.17602383 -0.42221966 -0.26967093 0.3825188
0.9615804 -0.048382737 0.027699828 0.3674073 0.3029026 -0.47297123 -0.5772011 -0.03753701
0.38410577 -0.02367342 0.5261779 0.0067801033 0.18773918 -0.47585607 0.46707046 0.072343074
-0.115571335 -0.48739964 0.56865937 -0.55744296 0.33494008 0.0022345874 -0.2093903 -0.3670465
0.007674831 0.12479177 -0.35848778 0.21078719 -1.1449648 0.24469796 0.52975494 -0.102539204
0.44433156 0.19579038 -0.31959742 -0.49731177 -1.1639115 -0.29850596 0.4176928 -0.35329953
1.7817113 0.006755332 -0.90523237 -0.28329545 -0.77811116 -0.5498434 0.42425787 -0.34069276
1.1510993 -0.27110735 -0.15342344 -0.55519813 -1.1607227 0.62902087 0.25419846 -0.08951194
0.031198127 -0.112181425 -0.12322769 -0.29361778 0.1005835 -0.22478999 -0.15748714 -0.41842324
-0.09059496 -0.02306424 -0.03089291 -0.30429897 0.17492221 0.31544763 -0.14022982 -0.5728836
0.007643529 -0.045726836 0.4226958 -0.5739351 -0.11535729 -0.16702183 0.028103545 -0.56756663
0.12407773 0.079747826 -0.14087889 0.4869927 -0.96965486 -0.010054251 -0.37044284 -1.0400301
0.36890295 0.28366452 -1.014306 -0.12194004 0.00985467 -0.5377031 0.011190086 -0.987479
0.020425512 0.5526896 -0.07243887 -0.5345823 -0.22709288 -0.42558292 0.2657847 -0.1217221
-0.6915958 -0.83556956 0.11707302 -0.13717923 1.0996884 -0.16882673 -0.73014104 -0.25994602
-0.7102885 0.32044095 0.20684364 -0.33537292 1.1163094 -0.43427855 -0.7817847 -0.41466606
-0.54708934 0.5922991 0.056409236 -0.22673744 0.109599374 -0.22297953 -0.13303754 0.6812271
-0.05328941 -0.6055532 -0.30490774 0.45614624 0.61157215 -0.6151162 0.22734502 0.16062918
0.4794804 -0.09283655 -0.48555073 0.1562686 0.072705604 -0.49021295 0.63740784 -0.27030194
0.14615074 -0.55587 -1.5721823 0.40771475 0.58931446 -0.046117865 -0.4489379 0.65067726
0.60326266 -0.3551171 -1.6381894 -0.6997383 0.32101005 -0.34718266 -0.20672485 0.084795564
-0.078777626 -0.059082933 0.075108655 0.057629894 -0.25406608 -0.14434195 0.2593868 4.2054544e-05
-0.35979214 -0.470886 -0.73642224 -0.09238992 0.5617479 0.1423513 -0.071786664 0.10645033
-0.19556263 -0.15848184 -0.88641024 -0.042359732 -0.54533046 -0.14357455 -0.029949449 0.1276921
-0.20575155 -0.27200952 0.068551086 -0.08937478 -0.7676736 0.68139446 0.023027822 0.36457196
-0.061964635 -0.08487668 -0.17824382 -0.08595781 -0.043147907 -0.40687624 -0.16544643 0.10756208
-0.2109094 -0.30116042 -0.31254175 -0.46272615 0.048276275 0.050605547 -0.2556877 0.30635828
-0.03543131 0.4925358 0.2292929 0.48513877 0.32438913 -0.1236114 -0.3989176 -0.19560458
00000000: b85c afbf 25b1 9bbd 31b4 853e 99a3 45bd
00000010: 1304 e2bf 03ef 43be 5da0 3bbd a1e6 863c
00000020: 36da c1bf 4a14 9e3e c52e c53e 5d0a 49be
00000030: cf9b 003f bbcf 07be 9faa 80bf 2569 b4bd
00000040: be7f aabf adfb 4e3e c3d4 49be 8a34 e7be
00000050: 8332 593f a530 463e b53e 4ebf 0b15 89be
00000060: e87b 6fbf 7263 883e c08a a5be 27ec 19be
00000070: c36e 843d 718c 64be 81e5 063e 3477 963e
00000080: 89cb 9b3e 6ab8 103f 1c0d 233e 3913 ec3d
00000090: 973f 343e 2d2d d8be 4f12 8abe 81d9 c33e
000000a0: 222a 763f fa2c 46bd c0ea e23c cf1c bc3e
000000b0: 0d16 9b3e 4929 f2be 74c3 13bf 68c0 19bd
000000c0: 83a9 c43e c3ee c1bc 98b3 063f a12b de3b
000000d0: b33e 403e 68a3 f3be dc23 ef3e 9b28 943d
000000e0: aab0 ecbd 728c f9be a993 113f 95b4 0ebf
000000f0: 447d ab3e 2872 123b 696a 56be 85ed bbbe
00000100: 267d fb3b d492 ff3d b68b b7be 99d8 573e
00000110: 358e 92bf 1a92 7a3e 059e 073f 1300 d2bd
00000120: 6d7f e33e 467d 483e 46a2 a3be a69f febe
00000130: 0dfb 94bf c6d5 98be d5db d53e ade3 b4be
00000140: 1e0f e43f d55b dd3b 4fbd 67bf 1a0c 91be
00000150: 4b32 47bf 89c2 0cbf 5438 d93e 486f aebe
00000160: 3957 933f 95ce 8abe 091b 1dbe 7721 0ebf
00000170: 9092 94bf 8307 213f 4d26 823e 0952 b7bd
00000180: 3793 ff3c 60bf e5bd cd5e fcbd 1255 96be
00000190: b9fe cd3d 592f 66be 4f44 21be 923b d6be
000001a0: da89 b9bd 38f1 bcbc 2113 fdbc 13cd 9bbe
000001b0: cf1e 333e 5a82 a13e 6898 0fbe 80a8 12bf
000001c0: 9276 fa3b 104c 3bbd 956b d83e 69ed 12bf
000001d0: 7140 ecbd c507 2bbe 6839 e63c 0c4c 11bf
000001e0: 771c fe3d d452 a33d 8e42 10be 1b57 f93e
000001f0: 4d3b 78bf 96ba 24bc afaa bdbe b51f 85bf
00000200: d9e0 bc3e 7a3c 913e c7d4 81bf b3bb f9bd
00000210: 7b75 213c e9a6 09bf 9f56 373c 6ccb 7cbf
00000220: 6753 a73c 117d 0d3f d55a 94bd 63da 08bf
00000230: 098b 68be 01e6 d9be ef14 883e 7049 f9bd
00000240: 6c0c 31bf e3e7 55bf fbc3 ef3d b678 0cbe
00000250: 97c2 8c3f eae0 2cbe 86ea 3abf a517 85be
00000260: 78d5 35bf d610 a43e d2ce 533e 00b6 abbe
00000270: 3ae3 8e3f c259 debe 0b23 48bf 1c4f d4be
00000280: 0c0e 0cbf eaa0 173f 5f0d 673d dc2d 68be
00000290: a375 e03d bf54 64be fe3a 08be e664 2e3f
000002a0: ff45 5abd 8905 1bbf de1c 9cbe 008c e93e
000002b0: fe8f 1c3f 4178 1dbf 22cd 683e fa7b 243e
000002c0: 747e f53e 1721 bebd 1b9a f8be e004 203e
000002d0: ade6 943d 31fd fabe 292d 233f 0465 8abe
000002e0: 8aa8 153e 7f4d 0ebf 453d c9bf fdbf d03e
000002f0: 50dd 163f 16e6 3cbd 30db e5be c992 263f
00000300: 6c6f 1a3f e9d1 b5be 31b0 d1bf 0d22 33bf
00000310: 6e5b a43e edc1 b1be aeaf 53be 4ca9 ad3d
00000320: 2a56 a1bd f200 72bd 91d2 993d 530d 6c3d
00000330: f314 82be 60ce 13be 59ce 843e b963 3038
00000340: ad36 b8be f817 f1be 2b86 3cbf ed36 bdbd
00000350: b6ce 0f3f 8ac4 113e e304 93bd a102 da3d
00000360: 9241 48be 1049 22be c8eb 62bf 6681 2dbd
00000370: c79a 0bbf 3505 13be 8c58 f5bc b8c1 023e
00000380: 89b0 52be d544 8bbe 8364 8c3d 200a b7bd
00000390: 4286 44bf de6f 2e3f d8a4 bc3c 2da9 ba3e
000003a0: a1ce 7dbd d3d3 adbd 8c85 36be a60a b0bd
000003b0: dcbb 30bd 1552 d0be ca6a 29be 8249 dc3d
000003c0: a2f8 57be b331 9abe 7905 a0be 71ea ecbe
000003d0: 58bd 453d c347 4f3d 80e9 82be feda 9c3e
000003e0: 6c20 11bd a72d fc3e c2cb 6a3e 1c64 f83e
000003f0: 5516 a63e f927 fdbd ed3e ccbe 914c 48be

network_body._body_endoder.seq_layers.0.bias f4 [256]
-0.26837012 -0.2016189 -0.1922591 0.0298508 -0.18044834 -0.24652341 -0.26614258 -0.19699101
-0.26566458 -0.46347454 -0.10698622 -0.15373066 -0.8394914 0.009455879 -0.10070485 -0.16833168
-0.30001017 -0.019022983 -0.008514385 -0.058408804 0.13747005 -0.17112009 -0.07740726 -0.061883386
0.016883176 -0.25528872 -0.18751377 -0.09418683 -0.22091943 -0.47246784 -0.075942606 -0.08627848
0.048138514 -0.083196886 -0.08023547 -0.016303908 -0.10023213 -0.18057807 -0.05197238 -0.17381594
-0.19959487 -0.14297704 0.006709141 -0.18713628 -0.14538677 -0.78444356 -0.338318 -0.09881068
-0.04494786 -0.17425787 -0.1697097 -0.20601186 -0.6762906 -0.531126 0.0025407686 -0.18915854
-1.4412252 -0.20410506 -0.2555177 -0.3687007 -0.022066368 0.027432634 -0.5708923 -0.15715986
-0.08230769 -0.31589654 -0.27811813 -0.047952835 0.04458366 -0.06648331 -0.21123324 0.0013526494
-0.18111202 -0.24952619 -0.09829317 -0.0074253953 -0.112297446 -0.11182799 -0.6255342 -0.25050572
-0.7183652 -0.008309617 -0.16724955 -0.104938306 -0.103084065 -0.28857398 -0.04892797 -0.093420245
-0.16603173 -0.3788736 -0.12585421 -0.15257345 -0.073699564 -0.045345403 -0.76121557 -0.087627895
0.010936512 -0.08919384 -0.15144204 -0.11192155 -1.1005545 -0.090381026 -1.2594283 -0.039973516
-0.38953954 -0.027389532 -1.5800701 -0.21648121 -0.24341534 -0.20333394 0.10476148 -0.2071479
-0.05334444 -0.18131396 -0.17773318 -0.27620852 -0.63968104 -0.08722495 -0.62267095 -0.9189984
0.015249907 -0.0166645 -0.13545482 -0.06985731 -0.068420544 -0.11069264 -0.5998091 -0.20108257
-0.48290473 -0.3367983 0.023037601 -0.2331665 0.004340521 -0.11538545 -0.10169894 -0.2837272
-0.36641476 -0.09158176 -0.032613486 -0.14020556 -0.36763093 -0.09361219 -0.3173322 -0.05017278
-0.030859567 -0.11338743 -1.0268651 0.008242418 -0.07714366 -0.087022685 -0.50343746 -0.28639823
-0.100117095 -0.2538584 -0.13158429 -0.5388587 -0.5352285 -0.18865325 -0.24509983 -0.35163924
-0.17552786 -0.16007124 -0.7274377 0.085299775 -0.19487333 -0.07512224 -0.1830213 -0.21548092
-1.1017517 -0.560094 -0.09467622 -0.04124028 -0.15037555 -0.16965869 -0.10176816 -0.17126079
-0.13158779 -0.006192955 -0.2127514 -0.855984 -0.5088002 -0.03205266 -0.08782276 -0.07882335
-0.0107404655 -0.12194597 -0.21678784 -0.28014272 -0.06776962 -0.31013182 -0.29578635 -0.108312465
-0.07012733 -0.08918182 -0.07998485 -0.08498186 -0.011488832 -0.028411357 -0.20297398 -0.1586534
-0.11570111 -0.6003927 -0.49785244 -0.16998237 -0.12941009 -0.071633115 -0.3084474 -0.62913144
-0.15461916 -0.054925714 -0.086231954 -0.706464 0.004250308 -1.150416 -0.07303891 -0.8390042
-0.16947588 -0.115933694 -0.027116224 -0.30076486 -0.12294942 0.023369836 -0.10600431 -0.084788546
-0.5984589 0.051667128 -0.10730505 -0.17679156 -0.024706163 -0.20134129 -0.3472601 -0.11984081
0.009681955 -0.04166492 -1.6131375 -0.10581322 -0.20044266 -0.20901178 -0.2766952 -0.46232262
-0.5779607 -0.14723991 -0.16380064 -0.11671467 -0.2150057 -0.06257401 -0.20897456 -0.30928776
-0.1749798 -0.282226 -0.060150057 -0.031157847 -0.03241013 -1.4246151 -0.13534266 -0.27628982
00000000: cf67 89be 2f75 4ebe 92df 44be aa89 f43c
00000010: 73c7 38be a270 7cbe d743 88be 03b8 49be
00000020: 3005 88be 894c edbe 971b dbbd 926b 1dbe
00000030: e9e8 56bf d5ec 1a3c 583e cebd 245f 2cbe
00000040: ef9a 99be 16d6 9bbc eb7f 0bbc 123e 6fbd
00000050: f3c4 0c3e 1b3a 2fbe b387 9ebd 6f79 7dbd
00000060: 964e 8a3c 34b5 82be 9c03 40be 06e5 c0bd
00000070: b438 62be 4ee7 f1be cc87 9bbd c6b2 b0bd
00000080: e42c 453d 2163 aabd 7e52 a4bd c68f 85bc
00000090: 8146 cdbd 75e9 38be fee0 54bd cefc 31be
000000a0: 9962 4cbe 9368 12be 5bd8 db3b a7a0 3fbe
000000b0: 45e0 14be 4bd1 48bf 0438 adbe 415d cabd
000000c0: 3f1b 38bd a870 32be 61c8 2dbe c6f4 52be
000000d0: 6121 2dbf e0f7 07bf 0683 263b c7b2 41be
000000e0: 117a b8bf eb00 51be 37d3 82be 57c6 bcbe
000000f0: 87c4 b4bc 67ba e03c ff25 12bf 84ee 20be
00000100: ef90 a8bd 31bd a1be 8065 8ebe 316a 44bd
00000110: 5b9d 363d 6728 88bd 874d 58be 624b b13a
00000120: 6e75 39be cb83 7fbe ee4d c9bd bb50 f3bb
00000130: 34fc e5bd 1306 e5bd 0223 20bf 4942 80be
00000140: c8e6 37bf 0f25 08bc 7743 2bbe e5e9 d6bd
00000150: bd1d d3bd f8bf 93be b268 48bd 1d53 bfbd
00000160: 3904 2abe b8fb c1be eddf 00be 373c 1cbe
00000170: ccef 96bd 1abc 39bd 06df 42bf 4176 b3bd
00000180: 0e2f 333c 43ab b6bd 9f13 1bbe 2037 e5bd
00000190: f8de 8cbf b019 b9bd f234 a1bf 45bb 23bd
000001a0: ba71 c7be 0360 e0bc bd3f cabf 40ad 5dbe
000001b0: df41 79be c636 50be 308d d63d 941e 54be
000001c0: b37f 5abd 5eaa 39be b0ff 35be 346b 8dbe
000001d0: 23c2 23bf ffa2 b2bd 5d67 1fbf 7b43 6bbf
000001e0: bfda 793c fd83 88bc abb4 0abe 5911 8fbd
000001f0: 1220 8cbd d3b2 e2bd 178d 19bf 97e8 4dbe
00000200: 4a3f f7be d470 acbe 5ab9 bc3c 33c3 6ebe
00000210: ee3a 8e3b 354f ecbd 8947 d0bd b144 91be
00000220: b79a bbbe 388f bbbd b895 05bd 0c92 0fbe
00000230: 1f3a bcbe bfb7 bfbd 5e79 a2be f981 4dbd
00000240: 34cd fcbc ab37 e8bd 5170 83bf 350b 073c
00000250: 7ffd 9dbd f338 b2bd 47e1 00bf caa2 92be
00000260: 310a cdbd baf9 81be 08be 06be a5f2 09bf
00000270: bc04 09bf 512e 41be 73fb 7abe 0f0a b4be
00000280: 93bd 33be b7e9 23be 5b39 3abf a6b1 ae3d
00000290: e08c 47be b0d9 99bd f069 3bbe 08a7 5cbe
000002a0: 3306 8dbf 5262 0fbf 9be5 c1bd 91eb 28bd
000002b0: 0cfc 19be 02bb 2dbe d36b d0bd fd5e 2fbe
000002c0: f3be 06be 46ee cabb 81db 59be c421 5bbf
000002d0: bb40 02bf a649 03bd 6bdc b3bd 236e a1bd
000002e0: c7f8 2fbc cfbe f9bd a2fd 5dbe de6e 8fbe
000002f0: ccca 8abd 99c9 9ebe 4f71 97be edd2 ddbd
00000300: eb9e 8fbd f5a4 b6bd 19cf a3bd f80a aebd
00000310: a73b 3cbc efbe e8bc 69d8 4fbe 0976 22be
00000320: b4f4 ecbd 56b3 19bf 84e6 febe dc0f 2ebe
00000330: 1484 04be 62b4 92bd d1ec 9dbe c20e 21bf
00000340: 7c54 1ebe c9f9 60bd 619a b0bd d3da 34bf
00000350: 2b46 8b3b d540 93bf 6d95 95bd fbc8 56bf
00000360: 168b 2dbe a56e edbd d822 debc dafd 99be
00000370: e8cc fbbd 1972 bf3c ca18 d9bd 9ea5 adbd
00000380: 9a34 19bf e9a0 533d c0c2 dbbd d908 35be
00000390: 9464 cabc 692c 4ebe 13cc b1be 196f f5bd
000003a0: 10a1 1e3c d6a8 2abd 4a7b cebf 9ab4 d8bd
000003b0: d740 4dbe 2f07 56be feaa 8dbe 8db5 ecbe
000003c0: 3cf5 13bf 0fc6 16be 5bbb 27be 1a08 efbd
000003d0: 742a 5cbe cd26 80bd 6dfd 55be f75a 9ebe
000003e0: e82d 33be ed7f 90be e85f 76bd be3e ffbc
000003f0: 7cc0 04bd ca59 b6bf 4497 0abe dc75 8dbe

action_model._continuous_distribution.log_sigma f4 [1, 2]
-2.6293764 -2.8702447
00000000: b447 28c0 17b2 37c0

action_model._continuous_distribution.mu.weight f4 [2, 256]
-0.07038874 0.005168102 0.15919775 -0.20650466 0.09715665 0.014599278 -0.042133138 -0.006306609
0.13292785 0.13169372 -0.037794072 0.0061247973 0.09618011 0.008747717 0.0022958366 0.011000476
-0.022123434 0.040862635 -0.023257758 0.0051747262 0.24512674 -0.003951287 0.025082733 0.0015555671
-0.24092457 -0.100568295 0.012578612 -0.003046965 -0.031141942 -0.010560045 -0.00667096 0.00016481151
0.012342105 -0.22283791 0.00021229923 -0.20232375 -0.07533289 -0.0021793267 -0.01782149 -0.012510497
0.031197306 -0.0026012221 -0.3370486 -0.0076745576 0.0009683349 0.062269583 -0.02960303 0.0020062632
-0.0050919335 -0.010777779 0.004070427 0.026723359 0.0038995007 0.06297754 -0.012955043 -0.0035799234
0.035743125 -0.002359832 -0.008643966 0.13158436 -0.13056688 -0.16581605 0.038211163 0.00043758875
-0.0006453895 -0.003079512 0.014969564 -0.0071679563 -0.053723957 0.0009079376 -0.008303924 0.0063415556
-0.011270463 0.029825611 0.0013809329 -0.003184996 -0.0005077917 0.01563362 0.0066500427 -0.0048100157
0.010559591 0.009278385 -0.000521501 -0.0026483152 -0.012499859 -0.07995248 -0.0036566844 0.00060890627
0.08573888 0.022726115 0.0033712315 -0.04763485 -0.0053411266 0.0012845164 0.017133892 0.0010393944
0.07329542 0.038867407 -0.00022752825 0.00066270446 0.024013776 -0.0023360113 0.1277248 -0.19105552
-0.0046074623 0.00083327614 0.09233548 -0.057862245 0.05015245 -0.03552578 0.2040815 -0.01836596
0.0031732835 -0.0070319264 0.000114113485 -0.0129418615 0.01839947 -0.0015889617 0.03680545 0.057874218
-0.62184626 -0.0015646993 -0.0021577876 -0.004779124 -0.0058203773 -0.010436689 0.014992568 -0.016209263
0.021842241 0.09644879 -0.045723774 -0.01920066 0.024117578 0.005337958 0.00029831706 -0.09142356
-0.004459149 -0.009285964 -0.0033332545 -0.0021749118 0.21436538 -0.0025503365 0.15149839 -0.0016203884
0.0030763205 -0.0038468083 0.07893962 -0.0057993005 0.00017045575 0.0016849561 -0.03023627 0.08826495
-0.09098472 -0.11661692 0.003511929 0.0037334056 0.024175134 0.013388396 -0.07855391 -0.01598788
0.00021624792 -0.20428823 -0.004673452 0.0049036876 0.010076573 0.0013764765 -0.0040738713 -0.19688861
0.054119077 0.038488753 0.00019658492 0.00038425572 -0.00076651043 0.0018236015 0.003164515 -0.0031191085
-0.0014740599 -0.15325761 0.022943096 0.20637523 -0.07909092 0.0017385717 0.006813536 0.09896769
0.0057101133 -0.005115925 -0.06146663 -0.022367269 -0.30273405 -0.012309825 -0.04404363 -0.0049953396
-0.0040455037 -0.0155731905 0.041577853 0.004436304 -0.014014117 -0.0014089621 0.0018188027 -0.123271994
0.001485078 -0.022938665 0.05297836 -0.025306514 0.1858453 -0.0023168027 -0.14179903 0.037817813
-0.0032596677 -0.12870279 0.009178453 0.05117657 -0.0049109096 0.005188516 -0.11448497 -0.006612151
0.34011722 0.004495091 -0.11683512 -0.030836664 -0.0009499477 -0.0031773883 0.0016986618 -0.17059271
0.024079373 0.002148413 -0.0010888393 0.16963816 0.002260526 0.009862797 0.090211 0.025977902
0.28158164 -0.15934585 0.12195036 -0.013882495 0.002232958 -0.0035630097 -0.009914468 0.105731905
0.008040941 0.025967041 0.0019366209 3.722932e-05 -0.07750714 -0.0066625453 0.029693943 0.22750096
0.3666819 0.14019361 0.0005347172 0.008994292 -0.0020906446 -0.06966948 -0.009636295 -0.04990547
00000000: f927 90bd 2f59 a93b bc04 233e f575 53be
00000010: 11fa c63d cf31 6f3c cc93 2cbd aca7 cebb
00000020: 3d1e 083e b8da 063e f5cd 1abd 86b2 c83b
00000030: 14fa c43d 9652 0f3c bf75 163b 573b 343c
00000040: 343c b5bc 945f 273d 0e87 bebc c090 a93b
00000050: 8102 7b3e cc79 81bb 4e7a cd3c 2ce4 cb3a
00000060: eeb4 76be c0f6 cdbd 8616 4e3c 97af 47bb
00000070: 631d ffbc 0a04 2dbc 1298 dabb 41d1 2c39
00000080: 8a36 4a3c 9f2f 64be a49c 5e39 f52d 4fbe
00000090: 2148 9abd 09d3 0ebb 60fe 91bc d4f8 4cbc
000000a0: 7e91 ff3c 4479 2abb a291 acbe db7a fbbb
000000b0: dbd7 7d3a 640e 7f3d 0e82 f2bc 837b 033b
000000c0: 3cda a6bb 4895 30bc 3761 853b f2ea da3c
000000d0: c48e 7f3b 5efa 803d 6441 54bc 269d 6abb
000000e0: 6267 123d 69a7 1abb 6c9f 0dbc 0dbe 063e
000000f0: 53b3 05be afcb 29be 4f83 1c3d 2b6c e539
00000100: 5b2f 29ba a3d1 49bb e742 753c 2de1 eabb
00000110: a70d 5cbd a902 6e3a 2f0d 08bc d3cc cf3b
00000120: bfa7 38bc d754 f43c 6b00 b53a 5ebb 50bb
00000130: 531d 05ba 1412 803c 9ae8 d93b 569d 9dbb
00000140: 2302 2d3c 5e04 183c 57b5 08ba 5b8f 2dbb
00000150: 35cc 4cbc 20be a3bd fca4 6fbb 029f 1f3a
00000160: de97 af3d 1e2c ba3c e1ef 5c3b c31c 43bd
00000170: 9e04 afbb 385d a83a 605c 8c3c 4a3c 883a
00000180: e91b 963d 6e33 1f3d a694 6eb9 58b9 2d3a
00000190: 8ab8 c43c c417 19bb 4aca 023e 0fa4 43be
000001a0: 32fa 96bb 3770 5a3a 621a bd3d f600 6dbd
000001b0: a86c 4d3d 7b83 11bd befa 503e 3674 96bc
000001c0: ddf6 4f3b 136c e6bb 3650 ef38 1a0a 54bc
000001d0: 7cba 963c b544 d0ba 50c1 163d 840d 6d3d
000001e0: 5131 1fbf 9916 cdba ab69 0dbb 339a 9cbb
000001f0: ddb8 bebb a5fe 2abc 63a3 753c 4ac9 84bc
00000200: 80ee b23c f186 c53d da48 3bbd b44a 9dbc
00000210: 3a92 c53c 0aea ae3b 7067 9c39 473c bbbd
00000220: 0e1e 92bb 2824 18bc bb72 5abb f788 0ebb
00000230: 9982 5b3e 8c23 27bb 6522 1b3e 3663 d4ba
00000240: 189c 493b bc1a 7cbb 18ab a13d 0f08 bebb
00000250: 5ebc 3239 bfd9 dc3a 0eb2 f7bc 41c4 b43d
00000260: 3256 babd dad4 eebd 6428 663b 27ac 743b
00000270: ee0a c63c 015b 5b3c dfe0 a0bd 04f9 82bc
00000280: 9cc0 6239 ef30 51be c223 99bb 1daf a03b
00000290: 3618 253c e36a b43a 1c7e 85bb 2b9d 49be
000002a0: f7ab 5d3d 62a6 1d3d 5d22 4e39 ee75 c939
000002b0: a5ef 48ba ea05 ef3a c063 4f3b f569 4cbb
000002c0: 3e35 c1ba 90ef 1cbe 29f3 bb3c 0754 533e
000002d0: 6cfa a1bd c9e0 e33a 1544 df3b 92af ca3d
000002e0: e71b bb3b 7da3 a7bb 6fc4 7bbd 903b b7bc
000002f0: f5ff 9abe 26af 49bc 1867 34bd f2af a3bb
00000300: 2590 84bb b226 7fbc 8a4d 2a3d 6a5e 913b
00000310: 789b 65bc ecac b8ba e464 ee3a 0776 fcbd
00000320: f3a6 c23a dee9 bbbc d6ff 583d 9b4f cfbc
00000330: 3b4e 3e3e 80d5 17bb c433 11be dae6 1a3d
00000340: 26a0 55bb aaca 03be 3961 163c 869e 513d
00000350: b2eb a0bb 6d04 aa3b 1977 eabd beaa d8bb
00000360: d823 ae3e 8e4b 933b 4047 efbd 2c9d fcbc
00000370: e905 79ba bb3b 50bb a2a5 de3a dbaf 2ebe
00000380: 1b42 c53c 64cc 0c3b 62b7 8eba a0b5 2d3e
00000390: 5525 143b 9297 213c 8bc0 b83d 9ccf d43c
000003a0: 782b 903e 8f2b 23be 1cc1 f93d 6873 63bc
000003b0: d256 123b 6281 69bb 4b70 22bc f889 d83d
000003c0: 27be 033c d5b8 d43c 37d6 fd3a ae26 1c38
000003d0: 10bc 9ebd 7b51 dabb b640 f33c 03f6 683e
000003e0: bbbd bb3e ea8e 0f3e 442c 0c3a cb5c 133c
000003f0: 3203 09bb dfae 8ebd 8de1 1dbc ae69 4cbd

action_model._continuous_distribution.mu.bias f4 [2]
0.082584016 -0.087147795
00000000: cf21 a93d 8b7a b2bd

action_model._discrete_distribution.branches.0.weight f4 [2, 256]
-0.4358757 -0.19849063 0.00017938024 -0.050319083 -0.46532938 -0.31310922 -0.33546323 -0.4483116
-0.0829776 -0.68485296 -1.687267 -0.61125225 0.00736054 0.67353255 -0.18578765 -0.029814608
-0.22621123 -0.7391285 -0.0999016 -0.21764092 -0.70694304 -0.07013451 1.2507524 -0.40403995
-0.2811054 -0.23935734 1.0470337 -0.44074744 0.5055442 -0.65119404 0.30255613 0.24869071
-0.59086674 -0.16005902 0.32736033 -0.467365 -0.18781868 0.62798095 -0.6564856 -0.8444433
-1.1159257 -0.52465904 -0.21425016 -0.062333345 -0.051238406 1.0264823 -0.5739692 -0.8514742
0.36051124 0.10179898 0.046659976 0.12074417 -0.13155772 0.5368198 0.746709 -0.10200143
-0.022621987 1.3063293 0.22687201 -1.1484135 -0.6743844 -0.5026296 0.8519232 -0.4843889
0.29403612 0.19768502 1.0650232 0.29376408 -0.16249208 -0.6925655 0.566846 1.1801968
-0.11985892 -0.02444878 -0.43189415 0.25444388 0.811188 -0.52360064 0.43568328 -0.75649667
-0.3190278 0.24345021 0.1628758 -0.32272926 -0.0146134095 0.36565885 -0.121076465 -0.045149792
-0.86339587 -0.7120783 0.44668862 -0.6085313 -0.1491153 0.29204324 -0.40490904 0.010275943
0.45098898 -0.6265495 -0.20304596 0.2895498 1.164731 0.39580262 -0.25437546 -0.3363044
-0.17734064 -0.29578492 0.43755853 -0.12951732 -0.06009929 0.86531305 -0.50055045 -0.2073649
0.030356772 0.53493005 0.29520914 -0.268824 0.12493501 0.14673431 -0.4535498 0.22448257
0.12769501 0.46154484 0.12196462 0.098035835 -0.00015931699 -0.4155367 0.9577896 -0.5570664
-0.3227888 -0.5462726 -0.9736868 -0.50123686 0.013413785 -0.23085137 -0.0784103 -1.1491263
-0.26849285 -0.72754157 -0.14964373 0.17328484 -0.63597137 0.057260387 -0.27506244 0.24876145
-0.06834781 -0.33261594 -0.12765588 -0.24567308 0.08650653 0.1086133 0.45959496 0.016335005
-1.1515474 0.005422994 0.60990727 0.19535455 0.74293464 0.8609121 -0.15552479 -0.72368693
-0.3560663 -0.4410518 0.05821603 -0.10790119 -0.5597301 0.23738013 -0.61858296 -0.30281985
-0.27307525 0.74790496 -0.5307199 0.078568906 0.025332276 -0.47871435 0.66860646 -0.32606828
-0.1379837 -0.4582845 0.10939195 0.12338431 0.19545726 0.13737221 -0.13671249 0.7678969
0.56021667 0.40617552 -0.6725887 -0.48971358 -0.49816048 0.31276986 0.05550137 0.56202596
0.10148682 0.015306504 -0.4090949 0.48780608 -0.5429178 0.40398377 -0.85980654 -0.06108909
-0.7551564 -0.37408262 -0.12165591 0.5796043 0.023615692 0.10727479 -0.36467868 0.27296847
0.37401247 -0.44979587 -0.10586925 0.25786763 -0.16688758 1.2786388 -0.42229518 -0.075526714
-0.6860476 0.2570044 -0.15116636 0.5270003 0.35842788 -0.32267487 0.22519463 -0.9887904
-0.13746266 0.17670459 0.090949416 -0.21834221 0.02167679 -0.36240783 0.10685978 0.58704424
-0.6336201 -0.13117526 0.29185575 -1.0594342 -0.20744629 -0.4591784 -0.8227418 -0.5114492
0.31741607 -1.670029 0.25785014 -0.36777616 -0.20027676 -0.49927953 -0.5697094 -0.2587954
0.0029967872 -0.53516924 0.4512906 0.41889066 0.218129 0.08198926 -0.13166355 -1.067377
00000000: 1a2b dfbe 2141 4bbe 0418 3c39 621b 4ebd
00000010: a73f eebe da4f a0be d6c1 abbe 1989 e5be
00000020: 29f0 a9bd 8652 2fbf 5df8 d7bf 077b 1cbf
00000030: af30 f13b a16c 2c3f 1e3f 3ebe c43d f4bc
00000040: eba3 67be 8637 3dbf 3699 ccbd 43dd 5ebe
00000050: 38fa 34bf afa2 8fbd a818 a03f 53de cebe
00000060: 0ced 8fbe 171a 75be 3305 863f a6a9 e1be
00000070: 586b 013f a7b4 26bf a3e8 9a3e c7a8 7e3e
00000080: 0b43 17bf 83e6 23be c69b a73e 774a efbe
00000090: 8a53 40be 5cc3 203f 710f 28bf 702d 58bf
000000a0: a7d6 8ebf 0e50 06bf 6564 5bbe 4051 7fbd
000000b0: 5ddf 51bd c663 833f a5ef 12bf 37fa 59bf
000000c0: ee94 b83e fc7b d03d 881e 3f3d b848 f73d
000000d0: 11b7 06be 066d 093f 5228 3f3f 20e6 d0bd
000000e0: bf51 b9bc cc35 a73f 2351 683e 37ff 92bf
000000f0: 75a4 2cbf 55ac 00bf a417 5a3f d201 f8be
00000100: e78b 963e f16d 4a3e ae52 883f 3f68 963e
00000110: 5364 26be f94b 31bf d21c 113f b010 973f
00000120: 9878 f5bd cf48 c8bc 3b21 ddbe 7846 823e
00000130: 04aa 4f3f b10a 06bf e111 df3e c4a9 41bf
00000140: 9d57 a3be 034b 793e eac8 263e c53c a5be
00000150: 156d 6fbc a337 bb3e f0f6 f7bd fdee 38bd
00000160: 8307 5dbf c34a 36bf 5fb4 e43e b5c8 1bbf
00000170: aeb1 18be b186 953e 3d50 cfbe 6e5c 283c
00000180: 07e8 e63e 8c65 20bf 48eb 4fbe df3f 943e
00000190: e815 953f a4a6 ca3e 803d 82be 1730 acbe
000001a0: c998 35be 1f71 97be ac07 e03e 30a0 04be
000001b0: ac2a 76bd 2885 5d3f 1324 00bf 7757 54be
000001c0: c4ae f83c 2df1 083f a725 973e 4da3 89be
000001d0: eddd ff3d 8541 163e ae37 e8be c2de 653e
000001e0: 7bc2 023e 9b4f ec3e 96c8 f93d 03c7 c83d
000001f0: 540e 27b9 3ac1 d4be b331 753f e79b 0ebf
00000200: 9344 a5be 85d8 0bbf 8a43 79bf 0f51 00bf
00000210: 7ec5 5b3c 4d64 6cbe 9495 a0bd 9216 93bf
00000220: e577 89be 2a40 3abf 353c 19be 9571 313e
00000230: 05cf 22bf de89 6a3d fcd4 8cbe 52bb 7e3e
00000240: f0f9 8bbd a34c aabe 39b8 02be b991 7bbe
00000250: 562a b13d a670 de3d 0850 eb3e fdd0 853c
00000260: e865 93bf 5fb3 b13b e222 1c3f 060b 483e
00000270: f730 3e3f bc64 5c3f e441 1fbe 8c43 39bf
00000280: 524e b6be 8bd1 e1be ef73 6e3d 4dfb dcbd
00000290: 794a 0fbf c713 733e 745b 1ebf 340b 9bbe
000002a0: 85d0 8bbe b376 3f3f 42dd 07bf bce8 a03d
000002b0: a285 cf3c 0c1a f5be cb29 2b3f 6cf2 a6be
000002c0: 994b 0dbe 44a4 eabe e308 e03d eab0 fc3d
000002d0: f325 483e 4dab 0c3e 5cfe 0bbe e494 443f
000002e0: 5c6a 0f3f 3df6 cf3e c62e 2cbf bdbb fabe
000002f0: e40e ffbe 5f23 a03e 6855 633d efe0 0f3f
00000300: 52d8 cf3d 22c8 7a3c e374 d1be b8c1 f93e
00000310: a9fc 0abf f6d6 ce3e 481c 5cbf 8e38 7abd
00000320: ee51 41bf c287 bfbe bc26 f9bd f360 143f
00000330: b275 c13c e3b2 db3d 2ab7 babe 86c2 8b3e
00000340: 907e bf3e a54b e6be fad1 d8bd 3a07 843e
00000350: 94e4 2abe 70aa a33f 1337 d8be c0ad 9abd
00000360: d1a0 2fbf 1596 833e 5bcb 1abe 7ee9 063f
00000370: dc83 b73e a435 a5be 6c99 663e 5e21 7dbf
00000380: 03c3 0cbe 0cf2 343e b043 ba3d 1a95 5fbe
00000390: 8693 b13c 858d b9be 4dd9 da3d 8848 163f
000003a0: ed34 22bf cf52 06be 1e6e 953e 8a9b 87bf
000003b0: cd6c 54be 6e19 ebbe 359f 52bf 56ee 02bf
000003c0: 5c84 a23e 83c3 d5bf ef04 843e 284d bcbe
000003d0: 5a15 4dbe 91a1 ffbe 7ad8 11bf d580 84be
000003e0: bf65 443b da00 09bf 900f e73e d678 d63e
000003f0: 355d 5f3e fce9 a73d cfd2 06be cf9f 88bf

action_model._discrete_distribution.branches.0.bias f4 [2]
0.57657963 -0.5765629
00000000: b99a 133f a099 13bf

action_model._discrete_distribution.branches.1.weight f4 [2, 256]
0.036658242 0.31716558 -0.5018896 0.018513827 0.07765767 0.10729693 0.14443642 0.051179904
-0.12434152 -0.42692092 0.106086306 -0.17869806 0.0620072 0.15250207 0.14144199 -0.4339973
-0.51117796 -0.33265147 0.44007614 -0.18993346 0.02188575 0.07302108 0.110453755 0.09732429
-0.14159659 -0.6833353 0.20800371 0.16206862 -0.4343963 -0.08188366 0.03568519 -0.10057887
0.06520167 -0.35743368 0.055450473 0.039367024 -0.060516518 -0.1212585 -0.008008094 -0.23498061
0.1848927 0.13261865 -0.03273121 0.058111545 -0.03648614 0.70117205 -0.089014105 0.051764548
0.0025299524 -0.0128591955 -0.08210102 0.42245847 0.58964247 0.20687155 -0.20006365 -0.11966832
-0.28808883 0.20227164 -0.5122778 0.20487121 0.63621 -0.43614697 0.8696231 0.1714955
0.034956235 0.023289498 -0.12047014 0.07822903 -0.7489731 0.19839528 -0.02236584 -0.13764267
0.2739568 -0.4379131 0.11865511 0.08030544 -0.1499536 -0.011840652 0.81901544 -0.6708225
-0.33483312 0.11670705 -0.34154946 -0.084015615 0.20885819 0.57947093 0.090822905 0.1007074
0.022374563 -0.18737826 0.1664739 -0.3719214 0.07648495 -0.10839689 -0.17730539 -0.11475638
0.36845633 -0.0009675375 0.08293991 0.08248686 -0.19241494 0.09822926 -0.19418554 -0.5760768
0.70348936 -0.06331709 -0.03823361 -0.21794808 -0.9627025 -0.6736313 -0.050323356 -0.13486658
0.4316013 0.0048488406 -0.1806555 0.21984626 -0.35381258 0.04024069 0.011010603 -0.42393526
-0.04898572 -0.02371735 -0.1512595 0.07971409 0.37253222 0.19498126 -0.080069914 -0.29873073
-0.12664355 -0.0659038 -0.34098467 0.48710984 -0.15720631 -0.049908996 0.003995349 0.11235864
0.37603563 0.41102162 -0.06453447 0.04803017 1.2201942 -0.0023348618 -0.08436943 -0.04637609
-0.0546848 0.01908026 -0.40022463 0.16568196 0.040316824 -0.2368712 0.12206646 0.094130345
-0.009808321 -0.45851934 -0.17797264 0.827492 0.18642087 0.09154177 0.32837534 -0.49764168
-0.061352585 0.22387522 -0.123479836 -0.021816835 -0.094173655 -0.015559766 -0.022141859 0.4292323
0.089703724 0.65695316 -0.031801537 -0.06059376 -0.015659314 0.017128035 -0.011304162 -0.016496923
0.07472004 -0.23285213 -0.42522198 -0.2715861 0.17584963 0.021200057 -0.109868094 0.22507946
-0.09494475 0.078836896 0.05787488 -0.08398069 -0.19391803 -0.4116131 -0.4685736 -0.096041076
0.044508506 0.26455885 0.2663069 -0.09556435 0.07589799 0.013383286 0.10231061 -0.4803317
0.05944473 -0.24059534 0.54133606 0.20541704 0.12888958 0.21509282 -0.13536389 0.1484311
-0.010561663 -0.20125082 -0.04465402 -0.077924736 0.07921291 -0.3537863 -0.2736193 -0.32309163
-0.14373313 -0.03693641 0.00053946185 0.15926237 0.037248913 -0.009675216 -0.0693975 0.16268249
0.5000349 0.17607233 0.025992043 -0.054728076 0.10254187 -0.6380614 1.1155891 0.5266862
0.17430337 0.3525957 -0.121505715 0.35019445 0.024332795 -0.027856551 -0.20810084 1.0746788
-0.050041042 -0.3911142 0.30124268 -0.1481115 -0.13289213 0.047788147 -0.051148 -0.3304339
-0.18398933 0.7260325 -0.16246139 0.100847945 0.19308512 0.2719821 -0.29151928 0.22138081
00000000: f426 163d 8763 a23e d67b 00bf 4faa 973c
00000010: fc0a 9f3d 7ebe db3d 24e7 133e 05a2 513d
00000020: c4a6 febd 6195 dabe c743 d93d a0fc 36be
00000030: 43fb 7d3d 8129 1c3e 2bd6 103e e534 debe
00000040: 8fdc 02bf 4b51 aabe a951 e13e eb7d 42be
00000050: bf49 b33c 138c 953d 9435 e23d f551 c73d
00000060: b2fe 10be 10ef 2ebf edfe 543e 51f5 253e
00000070: 3169 debe 9fb2 a7bd a22a 123d 4bfc cdbd
00000080: 7488 853d 8c01 b7be 0920 633d 513f 213d
00000090: 2be0 77bd 6056 f8bd 6134 03bc c29e 70be
000000a0: 8354 3d3e 2fcd 073e 2911 06bd 5f06 6e3d
000000b0: 7e72 15bd 0380 333f 074d b6bd 1007 543d
000000c0: 8fcd 253b 60af 52bc 9424 a8bd 7a4c d83e
000000d0: cff2 163f 23d6 533e 7cdd 4cbe aa14 f5bd
000000e0: 6180 93be 4c20 4f3e a324 03bf c2c9 513e
000000f0: a9de 223f a84e dfbe 9f9f 5e3f 849c 2f3e
00000100: 452e 0f3d 9ec9 be3c 0cb9 f6bd 8b36 a03d
00000110: b3bc 3fbf 2228 4b3e 9138 b7bc 33f2 0cbe
00000120: 1144 8c3e 2536 e0be 7301 f33d 2e77 a43d
00000130: 708d 19be 4bff 41bc ffaa 513f 06bb 2bbf
00000140: 3f6f abbe 1b04 ef3d 92df aebe 6110 acbd
00000150: ecde 553e 3558 143f 5c01 ba3d ae3f ce3d
00000160: dc4a b73c 16e0 3fbe 2278 2a3e 7b6c bebe
00000170: 24a4 9c3d 30ff ddbd 8b8f 35be 6505 ebbd
00000180: 4fa6 bc3e 58a2 7dba 66dc a93d dfee a83d
00000190: 6c08 45be 6c2c c93d 93d8 46be c579 13bf
000001a0: e117 343f 64ac 81bd d99a 1cbd c82d 5fbe
000001b0: ac73 76bf 1a73 2cbf dd1f 4ebd 771a 0abe
000001c0: d8fa dc3e 06e3 9e3b c1fd 38be 611f 613e
000001d0: ec26 b5be 6cd3 243d d165 343c 0b0e d9be
000001e0: 40a5 48bd e34a c2bc c5e3 1abe 2441 a33d
000001f0: 8bbc be3e 2ba9 473e b2fb a3bd 3cf3 98be
00000200: d9ae 01be 92f8 86bd 8b95 aebe 7666 f93e
00000210: b1fa 20be 606d 4cbd 6beb 823b 491c e63d
00000220: be87 c03e 6d71 d23e a62a 84bd 49bb 443d
00000230: 532f 9c3f 7b04 19bb e1c9 acbd dbf4 3dbd
00000240: 2bfd 5fbd 354e 9c3c 3eea ccbe 88a8 293e
00000250: 4123 253d 5d8e 72be fbfd f93d 69c7 c03d
00000260: 14b3 20bc 0cc3 eabe 763e 36be 84d6 533f
00000270: 1de5 3e3e 407a bb3d d020 a83e e4ca febe
00000280: d94c 7bbd 8c3f 653e ffe2 fcbd 38b9 b2bc
00000290: 1ede c0bd 64ee 7ebc d862 b5bc 56c4 db3e
000002a0: 96b6 b73d 152e 283f 5442 02bd 2a31 78bd
000002b0: f647 80bc 1850 8c3c 1835 39bc 8e24 87bc
000002c0: d206 993d ca70 6ebe b2b6 d9be 550d 8bbe
000002d0: ed11 343e beab ad3c 8602 e1bd 3b7b 663e
000002e0: 6572 c2bd 3d75 a13d 360e 6d3d 11fe abbd
000002f0: 7392 46be f4be d2be e1e8 efbe 2fb1 c4bd
00000300: 8d4e 363d 4274 873e 6159 883e 3eb7 c3bd
00000310: 6870 9b3d 9245 5b3c 3a88 d13d 09ee f5be
00000320: 517c 733d a05e 76be 0095 0a3f d858 523e
00000330: a1fb 033e 4b41 5c3e d59c 0abe 53fe 173e
00000340: d30a 2dbc b214 4ebe 22e7 36bd 0197 9fbd
00000350: 613a a23d 7a23 b5be d417 8cbe 446c a5be
00000360: c72e 13be a24a 17bd ac6a 0d3a ad15 233e
00000370: 5192 183d cc84 1ebc 4720 8ebd 3d96 263e
00000380: 4a02 003f 4e4c 343e 44ed d43c 8c2a 60bd
00000390: 7901 d23d fe57 23bf a0cb 8e3f e8d4 063f
000003a0: 957c 323e 6c87 b43e fdd7 f8bd b04c b33e
000003b0: 9255 c73c 6c33 e4bc 6318 55be 138f 893f
000003c0: d6f7 4cbd 1f40 c8be 7b3c 9a3e 8baa 17be
000003d0: e014 08be 81bd 433d 9180 51bd a22e a9be
000003e0: b367 3cbe 44dd 393f 475c 26be 5e89 ce3d
000003f0: 1bb8 453e 3d41 8b3e 0442 95be a7b1 623e

action_model._discrete_distribution.branches.1.bias f4 [2]
0.09951001 -0.0995094
00000000: e7cb cb3d 96cb cbbd
