Assets/ML-Agents/config/results/tank_beta_0.001_2_layers_buffer_4096_epsil_0.3/AgentTank/AgentTank-2499912.onnx (onnx, 309310 bytes, 12 tensors)

discrete_action_output_shape f4 [1, 2]
2.0 2.0
00000000: 0000 0040 0000 0040

network_body._body_endoder.seq_layers.0.weight f4 [256, 34]
-0.3238932 0.11724154 -0.0220847 0.28114063 -0.34351036 -0.3553724 0.14823742 0.11276328
-0.07823131 0.21643183 -0.39306322 -0.027733266 0.16407293 0.46495593 0.23997639 0.08831482
0.10028177 -0.17431767 0.15910031 0.17252928 -0.11118802 -0.22668663 0.07685855 0.061544757
0.21714352 0.26262474 -0.17104012 0.20449224 -0.06627332 0.22592409 0.0677998 -0.46972656
-0.031529285 0.21826659 -0.23551202 -0.018160751 -0.11814939 0.16630718 0.2579084 -0.18398958
-0.24631675 -0.14204185 0.09171573 0.08842073 -0.142766 0.1604891 -0.04838792 0.20656425
-0.32479557 0.39306468 -0.092510045 -0.008869122 0.46614483 0.13347825 -0.16582842 -0.16446476
-0.04086515 0.040046144 0.047953285 -0.18358192 -0.29947332 -0.048935484 -0.3319103 0.095045775
-0.12556663 -0.124786325 0.003264452 0.3300811 0.5718567 -0.14992924 -0.24009049 0.3077205
-0.20593134 0.07323127 -0.16958268 0.14540406 0.18384352 0.14574808 0.083782665 -0.13312487
-0.32174 0.19857143 -0.052485615 0.1653985 -0.015928403 -0.108872585 0.00011331586 -0.11921426
-0.22384368 0.17143102 0.17151055 -0.24239995 -0.4169755 -0.32236275 0.18978897 0.054300636
-0.0027295821 -0.17925474 -0.07302672 -0.10868964 -0.05573002 -0.17172177 -0.42109862 0.12468825
0.09688046 0.24844687 0.0445385 0.22589594 -0.19089352 0.39338076 0.25467598 -0.30546317
-0.16135149 -0.110111296 0.002225345 -0.089938775 0.1007617 0.053655896 -0.3452713 0.2120845
-0.021299329 0.002414149 0.07016322 -0.12280902 0.3335057 -0.3447412 0.3379888 0.45737228
0.013397312 -0.08636803 -0.2531773 -0.23727667 -0.09366149 -0.40621284 -0.20824794 0.246923
-0.064230815 0.14893344 -0.17936814 -0.14048009 0.26886356 0.07232639 -0.061519373 -0.26999223
0.20281585 0.20025714 -0.21295252 -0.043790806 0.14153962 -0.28931034 -0.013228974 -0.0073633566
-0.21023382 0.058187757 -0.16345903 0.06179748 0.036715973 0.10700741 0.1748873 0.22869618
-0.107862286 0.1351148 0.11214712 -0.06357325 -0.13740918 -0.44479734 0.00083298184 0.040285677
0.053434506 0.24565424 -0.007558975 -0.2685295 0.26008624 -0.09398595 0.076349944 -0.15118392
-0.12896867 0.09631233 0.24155144 0.16162704 -0.15063496 -0.17075926 -0.22758266 0.11464325
0.043213565 -0.06276268 -0.064915836 -0.13742678 0.029889807 0.08642808 0.0922979 -0.055032548
0.2971911 -0.0850102 0.3253825 -0.23722664 -0.19666737 0.14980385 -0.029699564 -0.21630272
0.089651436 0.19233681 0.02975341 0.15623756 0.49863148 -0.071855925 -0.20522608 -0.086969666
-0.20067522 0.29616776 -0.073969245 0.038045406 0.22916327 -0.03751916 0.08813115 0.13940017
-0.17731902 0.09548959 0.03697843 0.068762735 0.21492942 -0.1339171 -0.22197072 0.105785854
-0.3873752 0.24638978 -0.032384504 -0.012297674 0.10377038 -0.21166559 0.026642485 0.047086097
-0.10779476 0.20308357 -0.4915773 0.2712676 -0.089167655 0.36493036 -0.0006611419 -0.12604491
-0.19073705 -0.12529047 0.16771422 0.25088656 -0.0779975 -0.44773823 0.16309191 -0.0029487782
-0.346842 -0.21438485 0.15194581 0.2564911 -0.4580764 0.10855636 0.2238445 0.1196056
00000000: 54d5 a5be 551c f03d f9ea b4bc aaf1 8f3e
00000010: 97e0 afbe 5ff3 b5be 8dcb 173e 6ff0 e63d
00000020: bd37 a0bd 4ea0 5d3e 953f c9be e030 e3bc
00000030: bc02 283e b40e ee3e 5fbc 753e 66de b43d
00000040: 8760 cd3d 5580 32be 31eb 223e 84ab 303e
00000050: 8bb6 e3bd 8a20 68be 0468 9d3d 5b16 7c3d
00000060: df5a 5e3e c076 863e 2425 2fbe 6a66 513e
00000070: 4eba 87bd a558 673e 9fda 8a3d 0080 f0be
00000080: da24 01bd 4781 5f3e 102a 71be dbc5 94bc
00000090: 4ff8 f1bd 6e4c 2a3e 920c 843e c467 3cbe
000000a0: 753a 7cbe 6b73 11be 75d5 bb3d ed15 b53d
000000b0: 4031 12be 4157 243e 6932 46bd 9485 533e
000000c0: 9b4b a6be c63f c93e e875 bdbd cb4f 11bc
000000d0: 89aa ee3e 86ae 083e edce 29be 7369 28be
000000e0: 3762 27bd 6d07 243d aa6a 443d e6fc 3bbe
000000f0: 9154 99be 9370 48bd 26f0 a9be 5ca7 c23d
00000100: 8a94 00be f98f ffbd 6bf0 553b 6400 a93e
00000110: 3365 123f 0d87 19be 48da 75be 8b8d 9d3e
00000120: aadf 52be 47fa 953d 15a7 2dbe cde4 143e
00000130: 7a41 3c3e fc3e 153e 3f96 ab3d e351 08be
00000140: 1bbb a4be 4f56 4b3e 28fb 56bd 395e 293e
00000150: 487c 82bc 97f8 debd fda3 ed38 9b26 f4bd
00000160: 4737 65be 9d8b 2f3e 76a0 2f3e b137 78be
00000170: d07d d5be bb0c a5be 0a58 423e 586a 5e3d
00000180: cae2 32bb 8e8e 37be 088f 95bd ad98 debd
00000190: 2945 64bd d5d7 2fbe 3d9a d7be 8e5c ff3d
000001a0: 4369 c63d db68 7e3e 016e 363d 4451 673e
000001b0: 9779 43be 3469 c93e e464 823e ab65 9cbe
000001c0: 5339 25be 0882 e1bd 18d7 113b d231 b8bd
000001d0: 265c ce3d 49c6 5b3d 66c7 b0be ae2c 593e
000001e0: ee7b aebc b336 1e3b bcb1 8f3d 4c83 fbbd
000001f0: 42c1 aa3e eb81 b0be de0c ad3e b32c ea3e
00000200: 6680 5b3c b9e1 b0bd 74a0 81be a8f8 72be
00000210: 98d1 bfbd 21fb cfbe f33e 55be 62d9 7c3e
00000220: 728b 83bd 0282 183e 48ac 37be 03da 0fbe
00000230: 7ca8 893e dc1f 943d bdfb 7bbd 6c3c 8abe
00000240: f5ae 4f3e 3510 4d3e 3a10 5abe fd5d 33bd
00000250: c3ef 103e 7c20 94be 57be 58bc 5048 f1bb
00000260: 8947 57be 4956 6e3d ce61 27be 5b1f 7d3d
00000270: 7d63 163d b326 db3d a815 333e 552f 6a3e
00000280: e7e6 dcbd 895b 0a3e 64ad e53d b132 82bd
00000290: feb4 0cbe 7abc e3be 775c 5a3a 9802 253d
000002a0: 24de 5a3d c98c 7b3e 47b1 f7bb b37c 89be
000002b0: 062a 853e b57b c0bd 5c5d 9c3d f5cf 1abe
000002c0: 5d10 04be 663f c53d 4359 773e 8f81 253e
000002d0: 0d40 1abe 84db 2ebe 6e0b 69be 15ca ea3d
000002e0: b500 313d b889 80bd 98f2 84bd 9bb9 0cbe
000002f0: 78db f43c 3501 b13d ae06 bd3d cf69 61bd
00000300: 6f29 983e d419 aebd 8998 a63e 8aeb 72be
00000310: 2c63 49be 2e66 193e 804c f3bc 767e 5dbe
00000320: 2c9b b73d f1f3 443e 6cbd f33c bdfc 1f3e
00000330: a04c ff3e 3329 93bd c926 52be 271d b2bd
00000340: ce7d 4dbe 4da3 973e 307d 97bd 80d5 1b3d
00000350: c7a9 6a3e b1ad 19bd 1b7e b43d ebbe 0e3e
00000360: 1e93 35be 0c90 c33d b276 173d 7ad3 8c3d
00000370: 7516 5c3e 9021 09be 4b4c 63be 41a6 d83d
00000380: 0b56 c6be 9a4d 7c3e 9da5 04bd 2f7c 49bc
00000390: 9185 d43d ddbe 58be 5741 da3c 5add 403d
000003a0: 80c3 dcbd 24f5 4f3e 05b0 fbbe 96e3 8a3e
000003b0: 889d b6bd 27d8 ba3e 7b50 2dba eb11 01be
000003c0: 9350 43be 254c 00be 47bd 2b3e 3474 803e
000003d0: 27bd 9fbd f23d e5be 9101 273e 4a40 41bb
000003e0: 4695 b1be b487 5bbe af97 1b3e cd52 833e
000003f0: fd88 eabe cc52 de3d 7e37 653e c8f3 f43d

network_body._body_endoder.seq_layers.0.bias f4 [256]
-0.033120733 0.045702618 -0.02925101 0.01598071 -0.011712664 0.044777278 0.03197988 0.062711276
0.015960297 0.0024118389 -0.020484667 0.037972853 -0.008193004 -0.023673302 -0.08509921 0.034914434
0.012511162 0.006459074 -0.07162959 0.03455455 -0.06994674 0.04860181 0.108938545 0.069087945
0.023479518 -0.00830319 0.03845445 0.011038056 0.060683165 0.07516062 0.053802002 0.050514895
0.002163757 -0.037454017 0.059548993 0.054003164 -0.045092247 -0.018269692 -0.064172454 0.026619297
0.020247187 0.024603037 0.047306657 0.02530541 0.014381117 -0.07999312 -0.0012106793 0.031123335
0.048778754 0.018839004 0.031951997 -0.03688669 0.041964095 -0.027311197 -0.015495653 0.048817527
0.0050754254 0.012836665 0.0074727195 0.027820917 0.008792371 0.029183142 -0.009384655 -0.001038656
0.008999198 0.040022716 -0.0039314306 0.0023641214 0.016323911 0.065486655 0.06812655 0.09970743
0.046746556 0.027284639 -0.010099938 0.010976022 0.056092866 -0.027444309 0.047703765 0.02726793
0.05335399 -0.02231236 -0.031275447 0.0060851974 0.07084261 0.012433086 0.0753499 0.0029659094
-0.0005381967 0.03171224 0.029280026 0.046885166 0.02070757 0.030446496 0.0037485962 4.5522393e-05
-0.01377033 -0.01785979 0.08578507 -0.021481374 0.010299587 0.020428296 -0.0065503144 -0.026375141
0.02133517 0.044654362 0.027936712 0.047225576 0.017162269 0.045321096 0.026840907 -0.019282108
0.022067409 0.009680491 -0.014319885 0.053378966 0.0079273535 -0.020726455 0.050794154 -0.021770108
-0.06189433 0.080132365 0.036716852 0.0018312486 0.031427894 0.040020853 0.035675835 0.02005017
0.027061159 0.057783425 0.053948212 0.002896455 -0.02099975 0.049696367 -0.010760223 0.01733255
0.004456031 0.01940579 -0.07536749 -0.056237154 -0.033983584 -0.05123843 -0.1043786 0.02943918
-0.0340985 0.10787041 -0.04555333 -0.024620814 0.039615143 0.0071934513 -0.03130004 0.046108104
0.0009452821 0.031195967 -0.024598615 0.01713955 -0.017934872 0.083232716 0.087886795 0.0050080307
-0.061375104 0.06076353 -0.014819122 0.05240478 0.0129315825 0.037089325 -0.0027570224 0.077302925
0.0012172293 -0.04738485 0.03178385 -0.030974729 -0.023928467 0.013217151 0.045065753 0.06987462
-0.04488012 0.046581253 0.006089423 0.018733937 0.03336215 -0.0037939989 -0.022179 0.050082963
-0.020644957 0.004962005 0.08591084 0.008542611 0.034079995 -0.031227158 0.06883757 0.035193454
0.015682098 0.025025051 0.0115041295 -0.022608044 0.029862368 0.06126697 -0.00395319 0.13509753
0.061314877 0.04156566 -0.06210452 -0.025764028 0.04065712 0.021947406 0.025458168 0.09327455
0.061100647 0.07980653 0.06009624 0.045987602 0.044114236 0.019087194 0.013226401 0.035934407
-0.029225102 0.03842226 -0.032009844 0.02709417 0.033885412 0.0407087 0.015041776 0.07103752
0.07923188 -0.072242215 0.012999545 -0.06735561 0.06787124 0.010074106 -0.015140388 0.005389099
-0.0762683 0.036902707 0.023865223 0.0032805754 0.056485582 0.07726458 -0.08154127 0.025335591
-0.011723584 0.07540472 0.0033511594 0.028218735 -0.028417975 -0.0013018429 0.046475153 0.034070995
-0.0079385 0.026033001 0.13470323 0.0049801134 -0.057988625 0.021201339 -0.047525417 0.032722753
00000000: 9ba9 07bd ab32 3b3d d09f efbc fae9 823c
00000010: 79e6 3fbc 6168 373d 56fd 023d c56e 803d
00000020: 2bbf 823c f10f 1e3b 76cf a7bc 6c89 1b3d
00000030: f33b 06bc 83ee c1bc 7f48 aebd 7002 0f3d
00000040: 9efb 4c3c a4a6 d33b 89b2 92bd 1289 0d3d
00000050: 3d40 8fbd b112 473d 2c1b df3d fb7d 8d3d
00000060: 1e58 c03c 1a0a 08bc 6a82 1d3d f6d8 343c
00000070: e98e 783d d0ed 993d 7d5f 5c3d b5e8 4e3d
00000080: d2cd 0d3b 6269 19bd a5e9 733d 6c32 5d3d
00000090: a6b2 38bd 52aa 95bc d96c 83bd b610 da3c
000000a0: 6edd a53c 4f8c c93c a0c4 413d 4b4d cf3c
000000b0: c79e 6b3c 6fd3 a3bd a8af 9eba 5df6 fe3c
000000c0: 3bcc 473d 4154 9a3c 19e0 023d 7f16 17bd
000000d0: 8be2 2b3d bbbb dfbc 7be1 7dbc e3f4 473d
000000e0: c14f a63b e050 523c b7dd f43b b1e8 e33c
000000f0: e00d 103c 7c11 ef3c 19c2 19bc 8323 88ba
00000100: 5f71 133c dcee 233d 3bd3 80bb 60ef 1a3b
00000110: b9b9 853c de1d 863d ef85 8b3d 6933 cc3d
00000120: 5179 3f3d 0984 df3c 367a 25bc c6d4 333c
00000130: a2c1 653d e3d2 e0bc 0665 433d fe60 df3c
00000140: b789 5a3d 69c8 b6bc af1a 00bd 5666 c73b
00000150: ee15 913d 24b4 4b3c 0c51 9a3d b45f 423b
00000160: c515 0dba b2e4 013d aadc ef3c a90a 403d
00000170: eca2 a93c ee6a f93c 02ab 753b 4cef 3e38
00000180: f39c 61bc b24e 92bc 15b0 af3d b5f9 afbc
00000190: 99bf 283c 3e59 a73c 05a4 d6bb ae10 d8bc
000001a0: 18c7 ae3c 7ee7 363d 88db e43c 9b6f 413d
000001b0: e397 8c3c 9da2 393d 76e1 db3c 83f5 9dbc
000001c0: b6c6 b43c ec9a 1e3c f39d 6abc e7a3 5a3d
000001d0: bbe1 013c 87ca a9bc 880d 503d 3a57 b2bc
000001e0: e984 7dbd 701c a43d 6964 163d 8206 f03a
000001f0: 89ba 003d e8ec 233d d320 123d 4140 a43c
00000200: 5daf dd3c 50ae 6c3d cdf8 5c3d 73d2 3d3b
00000210: ab07 acbc 6b8e 4b3d a54b 30bc fefc 8d3c
00000220: e603 923b e4f8 9e3c 455a 9abd ee58 66bd
00000230: 5f32 0bbd 63df 51bd 73c4 d5bd 6f2a f13c
00000240: deaa 0bbd 29eb dc3d 2196 3abd 97b1 c9bc
00000250: 7d43 223d 0bb7 eb3b 7934 00bd dadb 3c3d
00000260: cfcc 773a af8e ff3c 0983 c9bc 3e68 8c3c
00000270: 27ec 92bc ea75 aa3d fefd b33d 681a a43b
00000280: 7664 7bbd 2ee3 783d e7cb 72bc 65a6 563d
00000290: fdde 533c faea 173d 29af 34bb ff50 9e3d
000002a0: 708b 9f3a 9e16 42bd c82f 023d b7be fdbc
000002b0: a205 c4bc c08c 583c de96 383d 6d1a 8f3d
000002c0: 37d4 37bd fccb 3e3d c889 c73b ea77 993c
000002d0: c0a6 083d bda4 78bb bcb0 b5bc cb23 4d3d
000002e0: 9d1f a9bc 5198 a23b 06f2 af3d 4ff6 0b3c
000002f0: 7797 0b3d 19d0 ffbc b6fa 8c3d 0327 103d
00000300: be77 803c 5601 cd3c d17b 3c3c 8134 b9bc
00000310: eda1 f43c 13f3 7a3d c389 81bb 0257 0a3e
00000320: 4f25 7b3d c140 2a3d 4f61 7ebd 150f d3bc
00000330: 1588 263d 0ccb b33c a68d d03c ba06 bf3d
00000340: ac44 7a3d 9b71 a33d 7a27 763d 7f5d 3c3d
00000350: 21b1 343d bf5c 9c3c 8cb3 583c f52f 133d
00000360: 7b69 efbc a960 1d3d c11c 03bd 98f4 dd3c
00000370: 6ecb 0a3d 2abe 263d c871 763c 1f7c 913d
00000380: 5344 a23d baf3 93bd 0bfc 543c bdf1 89bd
00000390: 1400 8b3d dd0d 253c 640f 78bc 0a97 b03b
000003a0: 8e32 9cbd 4b27 173d 0081 c33c ecfe 563b
000003b0: 6d5d 673d e43c 9e3d 1cff a6bd 968c cf3c
000003c0: 4614 40bc ca6d 9a3d 209f 5b3b fa2a e73c
000003d0: d0cc e8bc 99a2 aaba bb5c 3e3d 078e 0b3d
000003e0: 7b10 02bc 2943 d53c a5ef 093e 3830 a33b
000003f0: 7b85 6dbd 6eae ad3c 03aa 42bd 4b08 063d

network_body._body_endoder.seq_layers.2.weight f4 [256, 256]
0.05039644 0.13370217 -0.08943106 -0.14639555 -0.06991284 -0.02125468 -0.025780896 0.020523518
-0.13211699 0.12738062 -0.02764748 -0.022662632 -0.050057925 0.03222265 -0.13969283 -0.057853926
0.0026436637 -0.066078134 -0.005109302 -0.003862367 -0.120279536 0.016713522 -0.18226372 -0.065590955
-0.053017426 0.21461797 -0.13319354 0.19556041 0.011894207 -0.012543448 0.08717135 -0.08745652
-0.15488544 -0.09446934 -0.1995392 -0.1128309 0.15593573 0.012969725 0.0879872 -0.20043427
0.07392205 0.013071616 -0.14161325 0.23441878 0.0950406 -0.07520368 -0.14818358 -0.2030891
-0.03939424 -0.012496097 0.13120934 0.025060736 -0.013470721 -0.06147884 0.0036272951 0.043793537
0.06814844 0.025209643 -0.06977477 0.13766155 -0.017543929 0.2537261 0.15608838 -0.06932381
0.06210714 0.076940574 -0.03592502 -0.3866899 -0.016819766 0.04144527 0.2112524 -0.026995728
0.16004573 -0.09487517 0.13670292 -0.122619964 -0.1264532 0.046051886 0.0073785214 -0.06837184
0.06538828 -0.0131840315 0.056526374 0.13610543 0.08705088 -0.15675028 -0.05303514 -0.04551642
0.14088583 0.056636542 0.0030927253 -0.16287263 0.0403137 0.08364861 -0.035567895 -0.054789405
-0.3245458 -0.090164274 0.090212695 -0.039348256 0.07871033 0.09947868 0.112427205 0.007154231
-0.3977339 0.13284422 -0.1845175 -0.06691827 0.10648924 0.121506035 0.0905641 0.1479275
-0.13023163 0.12326682 0.020291612 -0.25967738 -0.12602288 0.05508998 -0.28184792 0.3160806
-0.08505214 0.042968463 -0.02194203 0.1307693 -0.025958791 0.02463598 -0.12308273 -0.1336353
0.019169822 -0.10424603 -0.05635457 -0.017119542 -0.07890022 0.0058385413 -0.05020525 0.076944575
0.10825203 -0.011417559 -0.031802714 0.032309636 0.08249762 -0.10050962 0.036024693 0.07021736
0.07672229 -0.19503331 0.0027733983 0.0932393 -0.018706322 0.06507388 -0.07420237 0.0386052
0.004806898 -0.10905445 0.033727318 0.05265938 -0.05792283 0.0061149 -0.16914852 0.2098497
0.059879795 -0.020734228 0.1577853 0.045279905 0.123654716 -0.15807344 0.072781034 0.12920357
-0.16504075 -0.0407837 -0.14499699 -0.01085998 -0.19192687 -0.101675846 -0.073370084 -0.13582475
0.060325872 -0.074847914 0.02408746 -0.24698043 -0.013843034 -0.18786193 0.041506916 0.09955915
-0.046802375 0.24876003 -0.07405424 -0.0859106 0.0034103573 0.14318727 -0.00089029555 -0.07659795
-0.13681898 -0.10934386 0.0018631668 -0.017047396 -0.08082603 -0.084784634 -0.08934118 0.023108022
-0.013688456 -0.05784498 -0.08798052 -0.07387477 0.02524857 -0.1123233 -0.0107916 0.055960085
-0.08556241 -0.201598 0.0038157578 0.05026553 -0.15260029 0.021129943 -0.16517223 -0.06426953
-0.016361732 0.14719848 0.12464917 0.053113446 -0.31386945 0.09776258 0.120048635 -0.30542055
-0.014835836 0.02882186 -0.014528358 -0.22574589 0.06975687 -0.2125206 -0.015662413 0.31339994
-0.14845449 -0.26211166 0.1486781 -0.07010322 0.089363076 0.17512795 0.11019563 0.012878746
-0.1062445 -0.15032277 -0.10028419 0.027516808 -0.044397593 0.15234643 0.010870324 0.028777493
-0.0018706437 -0.12320729 -0.029134696 0.053393636 0.061827354 0.14050078 0.17983212 0.017497309
00000000: 7f6c 4e3d 39e9 083e a227 b7bd b7e8 15be
00000010: 772e 8fbd 4b1e aebc 7532 d3bc f020 a83c
00000020: ad49 07be 1170 023e f87c e2bc fca6 b9bc
00000030: 8a09 4dbd e6fb 033d a30b 0fbe 3df8 6cbd
00000040: 5141 2d3b f953 87bd ee6b a7bb c41f 7dbb
00000050: 1e55 f6bd ccea 883c 57a3 3abe 8d54 86bd
00000060: cd28 59bd d0c4 5b3e e363 08be fd40 483e
00000070: ecdf 423c 0983 4dbc e586 b23d 671c b3bd
00000080: 4a9a 1ebe 2479 c1bd 0154 4cbe e313 e7bd
00000090: 9ead 1f3e f87e 543c a232 b43d a43e 4dbe
000000a0: 7264 973d 552a 563c 1003 11be 7a0b 703e
000000b0: a5a4 c23d 6304 9abd 70bd 17be 97f6 4fbe
000000c0: db5b 21bd 6ebc 4cbc be5b 063e 2c4c cd3c
000000d0: 4db4 5cbc 3cd1 7bbd eab7 6d3b da60 333d
000000e0: 6991 8b3d 7484 ce3c 13e6 8ebd 26f7 0c3e
000000f0: 49b8 8fbc 63e8 813e a2d5 1f3e a4f9 8dbd
00000100: 0e64 7e3d 0593 9d3d 1d26 13bd 38fc c5be
00000110: 9bc9 89bc 84c2 293d 8d52 583e 2526 ddbc
00000120: 07e3 233e ea4d c2bd dafb 0b3e 2d20 fbbd
00000130: f37c 01be e7a0 3c3d 86c7 f13b 8906 8cbd
00000140: 4aea 853d d601 58bc 3388 673d 395f 0b3e
00000150: bb47 b23d 2583 20be 603b 59bd 6d6f 3abd
00000160: 6044 103e b8fb 673d 52af 4a3b 15c8 26be
00000170: fa1f 253d f64f ab3d a4af 11bd db6a 60bd
00000180: de2a a6be 0ca8 b8bd 6fc1 b83d a32b 21bd
00000190: e232 a13d 7abb cb3d 3c40 e63d 0a6e ea3b
000001a0: c7a3 cbbe 5108 083e 28f2 3cbe 720c 89bd
000001b0: 0817 da3d 28d8 f83d ac79 b93d 4e7a 173e
000001c0: 715b 05be 5173 fc3d 983a a63c 6ff4 84be
000001d0: 240c 01be 08a6 613d 5f4e 90be 51d5 a13e
000001e0: d12f aebd b3ff 2f3d c6bf b3bc 63e8 053e
000001f0: 88a7 d4bc 65d1 c93c cc12 fcbd b1d7 08be
00000200: 080a 9d3c f17e d5bd 0dd4 66bd 483e 8cbc
00000210: 7096 a1bd 3c51 bf3b 05a4 4dbd 1e95 9d3d
00000220: 3eb3 dd3d b710 3bbc 9043 02bd 1c57 043d
00000230: 83f4 a83d fdd7 cdbd a18e 133d 1fce 8f3d
00000240: 9320 9d3d d0b6 47be e7c1 353b 3ff4 be3d
00000250: 003e 99bc 7445 853d 6af7 97bd 7c20 1e3d
00000260: 2f83 9d3b f157 dfbd a825 0a3d 5db1 573d
00000270: 7d40 6dbd 805f c83b 4535 2dbe d7e2 563e
00000280: 8444 753d d4da a9bc 7892 213e 6c77 393d
00000290: af3e fd3d 01de 21be 390e 953d f14d 043e
000002a0: 7100 29be cf0c 27bd 177a 14be 0fee 31bc
000002b0: 7a88 44be 6d3b d0bd 0e43 96bd a515 0bbe
000002c0: 4318 773d dd49 99bd 1153 c53c 70e8 7cbe
000002d0: e5cd 62bc e15e 40be 2803 2a3d abe5 cb3d
000002e0: d9b3 3fbd f3ba 7e3e c0a9 97bd e6f1 afbd
000002f0: 4d80 5f3b af9f 123e b962 69ba 63df 9cbd
00000300: 461a 0cbe acef dfbd 8135 f43a fba6 8bbc
00000310: 1e88 a5bd 91a3 adbd 82f8 b6bd 094d bd3c
00000320: 8c45 60bc dcee 6cbd 222f b4bd a84b 97bd
00000330: 17d6 ce3c c209 e6bd 40cf 30bc 6736 653d
00000340: 583b afbd b56f 4ebe cb11 7a3b 3ae3 4d3d
00000350: 4043 1cbe b418 ad3c e922 29be be9f 83bd
00000360: 0a09 86bc 33bb 163e 1048 ff3d 7c8d 593d
00000370: 7fb3 a0be bf37 c83d 0fdc f53d 1560 9cbe
00000380: 0212 73bc d21b ec3c 5a08 6ebc ee29 67be
00000390: b1dc 8e3d 009f 59be 764e 80bc f575 a03e
000003a0: 7404 18be 8033 86be 123f 183e 4792 8fbd
000003b0: fd03 b73d be54 333e 3fae e13d 6001 533c
000003c0: b796 d9bd 36ee 19be cc61 cdbd ee6a e13c
000003d0: 40da 35bd b400 1c3e 7219 323c c7be eb3c
000003e0: 6330 f5ba 1b54 fcbd e3ab eebc 49b3 5a3d
000003f0: ae3e 7d3d 70df 0f3e e925 383e 8456 8f3c

network_body._body_endoder.seq_layers.2.bias f4 [256]
-0.051369917 -0.0012000031 -0.07053732 -0.07684293 -0.025962183 0.01722816 -0.046218872 -0.03922984
-0.025516951 0.027362794 0.0037598624 0.004380085 -0.058532838 -0.008370373 -0.039283328 0.02100533
-0.034457497 0.00089680403 -0.04769114 -0.027484698 -0.020795222 -0.036881786 -0.03583988 -0.014900958
-0.030097976 -0.036574345 -0.09071563 -0.02014789 -0.07111047 0.0068830443 -0.035412416 -0.038251586
-0.041305598 -0.040543605 -0.07404571 -0.06245302 -0.048077963 -0.037688587 -0.033948436 -0.047607567
0.0251372 -0.08892059 -0.102346905 -0.00011249159 -0.03159081 -0.044426132 0.00983308 -0.019447675
-0.05395231 -0.03614919 -0.079466835 -0.033306416 -0.026506461 -0.06382337 -0.016348468 0.009656108
-0.03327087 -0.010838231 -0.08604955 -0.041748326 -0.07808436 -0.10994902 -0.08448507 -0.032797925
-0.07386405 0.019557726 0.0030613095 0.02575687 -0.008583189 -0.029568955 -0.059888896 -0.05965978
-0.028296912 0.0065314216 -0.009190715 -0.029552227 -0.04441916 -0.023319658 -0.04856643 -0.010798076
-0.013489508 -0.021013657 0.0012818859 -0.036929432 0.020453123 -0.03906833 0.00662818 0.0002371529
0.022745095 0.0049511455 -0.061961375 -0.045702938 -0.049278434 -0.024920568 -0.032961667 -0.08104847
-0.031272743 -0.022006704 0.028400285 -0.008011272 -0.040613886 -0.006348269 -0.030252147 -0.021656958
-0.027259195 -4.850747e-05 -0.024298105 -0.038540002 -0.010551133 -0.009020196 -0.009612846 -0.07513631
-0.052429393 0.009116299 -0.06730866 -0.0071176873 -0.006105511 -0.013711907 -0.035030123 -0.052220855
-0.04204787 0.0030415577 0.0058187335 -0.035564024 -0.09497762 -0.053811446 -0.032643314 -0.027754648
-0.02832604 -0.013377847 -0.07937487 0.0037614931 -0.016087107 -0.00845992 -0.025263747 -0.0061600856
-0.03570571 0.010791792 -0.030647773 -0.022145562 -0.080153294 -0.06854806 -0.024452673 -0.0071917824
-0.04679462 -0.042238843 -0.038007807 0.034110997 -0.06885106 -0.022334011 -0.044609495 -0.03395185
-0.07149376 -0.016129227 -0.015218974 -0.06341323 -0.04165249 -0.03941253 -0.054875545 -0.059163254
-0.025715569 -0.025451332 -0.040459536 -0.031401705 -0.029491834 -0.041172206 0.00093876873 -0.059132226
-0.060947783 0.0045724586 0.004633406 -0.02757089 -0.0011324773 -0.0566538 -0.031617988 -0.08714334
-0.042356674 -0.06636054 -0.032701306 -0.036711708 -0.018278187 -0.015620365 -0.04132758 -0.0013061236
-0.019747155 -0.026696272 0.05284376 -0.05389895 -0.023605794 -0.0427372 -0.022529243 -0.07599173
-0.04712225 -0.0288504 -0.0068214396 -0.0317339 -0.024192035 -0.014500916 -0.06619968 -0.013995162
-0.11617889 0.0063221795 -0.016860152 -0.022155633 -0.067458875 -0.026516102 -0.06961971 0.015307473
-0.026956884 -0.03182712 -0.021252224 -0.019049274 -0.04573021 -0.039697718 -0.008642096 -0.0052400557
-0.040450692 -0.050561093 -0.028796155 0.0147279315 -0.021881822 0.002124514 -0.04445212 -0.013342483
0.017213235 -0.017335493 -0.058293812 -0.011303312 -0.011192666 -0.01737281 -0.047209244 0.03214837
0.006004212 -0.023668751 -0.055265743 -0.06277571 -0.035870764 -0.060110983 0.002240858 -0.020738803
-0.022281198 -0.051527433 -0.01071882 -0.07976587 -0.022506943 -0.053580184 -0.012112895 -0.068387695
-0.022834312 -0.03156371 -0.04502841 -0.0065235407 0.02964725 0.00028879548 -0.038710654 -0.0064317724
00000000: 4369 52bd 6c49 9dba df75 90bd d35f 9dbd
00000010: a5ae d4bc 1222 8d3c 0050 3dbd 78af 20bd
00000020: ed08 d1bc f027 e03c 0668 763b d186 8f3b
00000030: 21c0 6fbd e423 09bc 8ee7 20bd 5f13 ac3c
00000040: 4e23 0dbd 8017 6b3a c957 43bd 9727 e1bc
00000050: be5a aabc 5b11 17bd d7cc 12bd 2623 74bc
00000060: 0890 f6bc fbce 15bd 1ec9 b9bd 300d a5bc
00000070: 5ea2 91bd 298b e13b 9c0c 11bd b2ad 1cbd
00000080: 0f30 29bd 0d11 26bd 47a5 97bd bdce 7fbd
00000090: 66ed 44bd 595f 1abd 840d 0bbd 2700 43bd
000000a0: 87ec cd3c 001c b6bd 419b d1bd 76e9 ebb8
000000b0: 5d65 01bd 2df8 35bd ed1a 213c bb50 9fbc
000000c0: 19fd 5cbd 2c11 14bd 82bf a2bd 4f6c 08bd
000000d0: 1424 d9bc d4b5 82bd 39ed 85bc a734 1e3c
000000e0: 0947 08bd d692 31bc bf3a b0bd 4b00 2bbd
000000f0: b1ea 9fbd f42c e1bd 8206 adbd 1e57 06bd
00000100: 0946 97bd 8637 a03c 40a0 483b 1200 d33c
00000110: 81a0 0cbc 983a f2bc 0f4e 75bd d05d 74bd
00000120: edce e7bc 8905 d63b a794 16bc 8317 f2bc
00000130: ddf0 35bd de08 bfbc 98ed 46bd 6aea 30bc
00000140: 1903 5dbc d524 acbc f404 a83a 5143 17bd
00000150: 4f8d a73c 1d06 20bd 3431 d93b 3fac 7839
00000160: ec53 ba3c 383d a23b 36cb 7dbd 0133 3bbd
00000170: 2fd8 49bd 3826 ccbc d002 07bd befc a5bd
00000180: d917 00bd 6747 b4bc b7a7 e83c b641 03bc
00000190: bf5a 26bd 2405 d0bb 5ad3 f7bc ef69 b1bc
000001a0: ad4e dfbc 8074 4bb8 d20c c7bc 1fdc 1dbd
000001b0: a9de 2cbc 72c9 13bc 337f 1dbc 11e1 99bd
000001c0: 34c0 56bd 885c 153c 1fd9 89bd 7d3b e9bb
000001d0: bd10 c8bb e8a7 60bc bf7b 0fbd 89e5 55bd
000001e0: 633a 2cbd df54 473b 13ab be3b 95ab 11bd
000001f0: a083 c2bd 6469 5cbd ffb4 05bd b75d e3bc
00000200: 030c e8bc c22e 5bbc 4b8f a2bd 6283 763b
00000210: 1cc9 83bc 7a9b 0abc ebf5 cebc 8bda c9bb
00000220: 2740 12bd 0ed0 303c 0a11 fbbc 9c6a b5bc
00000230: 6927 a4bd ed62 8cbd f950 c8bc 0ba9 ebbb
00000240: b7ab 3fbd a302 2dbd 13ae 1bbd f9b7 0b3d
00000250: c901 8dbd d1f5 b6bc 72b8 36bd 1811 0bbd
00000260: 526b 92bd 7121 84bc 0159 79bc ccde 81bd
00000270: cd9b 2abd 086f 21bd 2ec5 60bd 2b55 72bd
00000280: 75a9 d2bc 507f d0bc e6b8 25bd 139f 00bd
00000290: dc98 f1bc 30a4 28bd b417 763a a234 72bd
000002a0: 62a4 79bd 90d4 953b d4d3 973b 59dc e1bc
000002b0: a26f 94ba d10d 68bd dd81 01bd 3578 b2bd
000002c0: 317e 2dbd 09e8 87bd cef1 05bd 045f 16bd
000002d0: 23bc 95bc 8fec 7fbc 1c47 29bd 3c32 abba
000002e0: c9c4 a1bc 24b2 dabc b372 583d 25c5 5cbd
000002f0: f060 c1bc 340d 2fbd 3f8f b8bc 8da1 9bbd
00000300: 4303 41bd ad57 ecbc 6286 dfbb 68fb 01bd
00000310: 602e c6bc 4095 6dbc b393 87bd f74b 65bc
00000320: 33ef edbd 492a cf3b 4d1e 8abc bb7f b5bc
00000330: e127 8abd 4c38 d9bc c794 8ebd 32cc 7a3c
00000340: afd4 dcbc 275d 02bd 2519 aebc 390d 9cbc
00000350: 9a4f 3bbd 139a 22bd 9497 0dbc c6b4 abbb
00000360: a0af 25bd 2619 4fbd eae5 ebbc 6c4d 713c
00000370: 8241 b3bc 6e3b 0b3b 6d13 36bd 6e9a 5abc
00000380: c502 8d3c 2a03 8ebc 7ec5 6ebd 8731 39bc
00000390: 7261 37bc 6c51 8ebc 7b5e 41bd 02ae 033d
000003a0: fbbe c43b f8e4 c1bc 555e 62bd 8d90 80bd
000003b0: 39ed 12bd ef36 76bd 5cdb 123b 6ce4 a9bc
000003c0: 0f87 b6bc 6e0e 53bd fd9d 2fbc 4a5c a3bd
000003d0: 7b60 b8bc e576 5bbd 2a75 46bc d90e 8cbd
000003e0: 060f bbbc f348 01bd b66f 38bd 6dc3 d5bb
000003f0: cade f23c 7969 9739 108f 1ebd 9ec1 d2bb

action_model._continuous_distribution.log_sigma f4 [1, 2]
-1.5400645 -1.9122477
00000000: d520 c5bf 88c4 f4bf

action_model._continuous_distribution.mu.weight f4 [2, 256]
0.0056828377 0.014156436 0.057036374 -0.033585045 0.18276983 0.074413255 0.13380088 0.03915496
0.015153938 -0.08889648 0.028059125 -0.00740183 -0.006796599 0.18333787 -0.005082319 0.1005099
-0.0067445943 0.02185617 -0.0026550158 0.1384368 0.0057852487 0.05817693 0.016043989 -0.13520582
0.014336894 0.02954826 0.10312326 0.32948563 0.12129105 0.047170974 0.07975584 -0.010111533
-0.01689065 -0.038143296 0.057268523 -0.0006978377 0.03262331 0.005365509 -0.075430684 -0.038594075
-0.061786484 0.0003141313 0.0056676078 0.024274422 -0.016891273 0.14354071 -0.07405948 0.018031225
-0.0017329055 0.1469606 -0.032771595 -0.012111347 -0.093418345 -0.021321654 0.030192655 0.056928143
0.091578394 -0.008702543 -0.058712967 0.016238082 0.016809398 -0.0035144754 0.038528897 0.12377519
-0.03132996 0.04031595 -0.07636729 -0.024181278 0.07905116 0.058702722 0.046316758 0.028255684
0.07622642 -0.04219006 0.0007050349 0.03164457 0.0674374 -0.0008768103 0.096969694 0.019713625
0.027041962 0.015130603 0.0045745233 -0.05076064 0.027433146 -0.08537559 0.023169156 -0.054397255
-0.0030766327 0.062113598 0.08045137 0.053042766 0.07685825 -0.15917459 0.01550744 0.0049575223
0.09504935 0.113761276 -0.0038135175 -0.0037921392 0.086302355 0.111782074 -0.0012640092 0.04751239
0.17066322 -0.021175962 0.063565046 0.08126746 0.01014289 0.00030676342 0.026626362 -0.049337603
0.1642435 0.07391406 -0.0019027859 0.081539094 0.062785774 0.091730125 -0.14444117 -0.07347141
0.02658143 -0.0026709319 0.003253822 0.014177002 0.14190726 -0.02453804 -0.042876918 -0.0019562233
0.02096741 0.018876243 -0.037892293 -0.014960239 0.04938572 0.008966645 -0.030718857 -0.037458874
0.07824182 0.042349096 0.022760583 -0.008568098 0.00013856143 -0.13079089 -0.16659786 0.09518914
0.004375176 -0.0026774514 0.06406246 0.062245876 0.019005368 -0.09870254 -0.050398562 0.22915705
0.036444113 0.051579382 -0.14710847 0.04540677 0.009475593 0.025281908 0.06486902 0.1254296
-0.021862738 -0.03040294 0.04853577 0.07069004 0.033291288 0.04325255 0.046851676 0.005481677
0.109295525 0.029087575 -0.01080432 0.048519406 0.09038652 0.12438185 0.03278855 0.023073554
0.070270784 0.007386601 0.03686459 0.03756137 0.028439177 0.11175052 0.03638228 0.05624591
-0.0021350363 -0.058449954 -0.047599055 -0.05150053 -0.08959912 0.055193514 0.020820448 0.04126952
-0.064849466 0.015204852 0.038401283 -0.04354112 0.0048578875 -0.099708565 -0.06468227 0.019070627
-0.08282868 0.028848546 0.039453547 0.04824148 0.08532145 0.17534684 -0.007429458 -0.046661478
0.060045145 0.027856536 -0.015174095 0.0020921065 0.080246665 0.015666053 -0.054204028 0.033177204
0.080860764 0.16256557 0.05348385 -0.008686936 0.07761149 0.014946747 0.007358779 0.12715112
-0.036949266 -0.05475431 -0.12936093 0.018992184 0.040841285 0.035366654 0.34460613 -0.0757665
0.0179936 0.050182372 0.11048324 -0.0042413613 -0.09414693 0.09324018 -0.0058293017 0.17860737
-0.007893307 -0.13286832 -0.081863135 0.08931793 0.22664613 -0.07585346 -0.09755067 -0.07874858
0.013364287 -0.04342523 0.003493769 0.0109694265 -0.039031576 -0.106538534 -0.045322064 0.0037860558
00000000: 1937 ba3b 65f0 673c f99e 693d 7990 09bd
00000010: 0428 3b3e fa65 983d 1903 093e f460 203d
00000020: 3948 783c 5c0f b6bd 40dc e53c 0d8b f2bb
00000030: 01b6 debb ecbc 3b3e 9589 a6bb 22d8 cd3d
00000040: c201 ddbb b60b b33c c6ff 2dbb 60c2 0d3e
00000050: 2f92 bd3b ef4a 6e3d af6e 833c 6573 0abe
00000060: 4be5 6a3c 310f f23c 4a32 d33d 57b2 a83e
00000070: 7167 f83d 5a36 413d 0857 a33d d8aa 25bc
00000080: 435e 8abc 253c 1cbd 6692 6a3d 18ef 36ba
00000090: 05a0 053d 27d1 af3b 677b 9abd d214 1ebd
000000a0: d313 7dbd fdb1 a439 57b7 b93b 27db c63c
000000b0: 915f 8abc 56fc 123e 7fac 97bd 38b6 933c
000000c0: a922 e3ba d77c 163e 823b 06bd ac6e 46bc
000000d0: 1e52 bfbd c0aa aebc 9656 f73c 7c2d 693d
000000e0: 748d bb3d 1c95 0ebc 027d 70bd ba05 853c
000000f0: ddb3 893c 1d53 66bb 7ad0 1d3d d97d fd3d
00000100: d853 00bd 5622 253d 7466 9cbd d117 c6bc
00000110: 93e5 a13d 4472 703d a4b6 3d3d 7778 e73c
00000120: 991c 9c3d 7ccf 2cbd 17d2 383a bd9d 013d
00000130: 9f1c 8a3d bed9 65ba 0c98 c63d 787e a13c
00000140: 1b87 dd3c 59e6 773c e2e5 953b 64ea 4fbd
00000150: 7abb e03c 66d9 aebd 3ecd bd3c a8cf 5ebd
00000160: 55a1 49bb d46a 7e3d b0c3 a43d 5f43 593d
00000170: dc67 9d3d aafe 22be eb12 7e3c b672 a23b
00000180: 3ca9 c23d acfb e83d 35ec 79bb 8a85 78bb
00000190: 4abf b03d 00ee e43d 1cad a5ba 5a9c 423d
000001a0: 57c2 2e3e 3679 adbc 642e 823d 8e6f a63d
000001b0: 5d2e 263c 17d5 a039 871f da3c 3a16 4abd
000001c0: 732f 283e 4160 973d e666 f9ba f8fd a63d
000001d0: d495 803d 01dd bb3d 63e8 13be 2e78 96bd
000001e0: 4dc1 d93c cd0a 2fbb 133e 553b a846 683c
000001f0: 2350 113e 0004 c9bc b59f 2fbd fb33 00bb
00000200: d9c3 ab3c 5aa2 9a3c f334 1bbd ca1b 75bc
00000210: ae48 4a3d d6e8 123c 1da6 fbbc 7a6e 19bd
00000220: 3f3d a03d 3f76 2d3d 6774 ba3c 3561 0cbc
00000230: cd4a 1139 0cee 05be a198 2abe 86f2 c23d
00000240: a35d 8f3b 2e78 2fbb 2e33 833d 88f5 7e3d
00000250: 25b1 9b3c 8f24 cabd b96e 4ebd 25a8 6a3e
00000260: 6c46 153d e744 533d 9aa3 16be 73fc 393d
00000270: 853f 1b3c 011c cf3c 0cda 843d 9e70 003e
00000280: 7c19 b3bc 960f f9bc 72cd 463d f1c5 903d
00000290: 725c 083d 9629 313d 8be7 3f3d a49f b33b
000002a0: 55d6 df3d 1149 ee3c 9a04 31bc 49bc 463d
000002b0: 911c b93d e9bb fe3d 494d 063d c004 bd3c
000002c0: 21ea 8f3d 4d0b f23b 53ff 163d f3d9 193d
000002d0: 47f9 e83c 75dd e43d 9605 153d 1c62 663d
000002e0: f7eb 0bbb 3869 6fbd 3af7 42bd 38f2 52bd
000002f0: be7f b7bd 9812 623d a58f aa3c 3a0a 293d
00000300: cccf 84bd c61d 793c aa4a 1d3d 2c58 32bd
00000310: ea2e 9f3b 0134 ccbd 2378 84bd 013a 9c3c
00000320: 15a2 a9bd c953 ec3c 0b9a 213d dc98 453d
00000330: 03bd ae3d 1f8e 333e d072 f3bb 1b20 3fbd
00000340: e6f1 753d 6433 e43c c49c 78bc b91b 093b
00000350: 5d58 a43d 1856 803c 0b05 5ebd d2e4 073d
00000360: 549a a53d 9777 263e e211 5b3d a753 0ebc
00000370: c6f2 9e3d 33e3 743c ea21 f13b e733 023e
00000380: 1d58 17bd 0e46 60bd 3177 04be 7f95 9b3c
00000390: 3149 273d a0dc 103d 3770 b03e 772b 9bbd
000003a0: 5067 933c 088c 4d3d 0945 e23d 1efb 8abb
000003b0: 1bd0 c0bd b5f4 be3d ba03 bfbb dae4 363e
000003c0: ee52 01bc a20e 08be dca7 a7bd 52ec b63d
000003d0: ec15 683e 0f59 9bbd a5c8 c7bd ef46 a1bd
000003e0: e2f5 5a3c a7de 31bd b8f7 643b 1cb9 333c
000003f0: 93df 1fbd e030 dabd a1a3 39bd 7a1f 783b

action_model._continuous_distribution.mu.bias f4 [2]
-0.05325094 0.041315034
00000000: a81d 5abd f439 293d

action_model._discrete_distribution.branches.0.weight f4 [2, 256]
-0.1587015 -0.1377129 -0.24985605 0.10633916 -0.021965194 0.14397031 -0.11172081 0.009646237
0.05817163 0.20139216 0.08984333 0.44396672 -0.01312596 0.040151294 0.08852728 0.08579167
-0.17618042 0.2791614 -0.23657708 -0.07270999 0.12941095 0.2186355 0.090958685 0.09637838
0.1275017 -0.11123671 -0.3652412 -0.2668149 -0.13037145 0.12844527 -0.14361876 0.21906811
-0.049647547 0.44551668 -0.0059898887 -0.049888488 -0.047935758 -0.16861632 0.21093114 0.17454079
-0.021017237 -0.32824364 -0.07743528 -0.11969813 -0.01168457 -0.014421802 0.111413345 0.26645663
0.24529174 -0.1973559 -0.044560086 -0.074855685 -0.08727854 0.003298315 0.16395445 -0.24323174
0.0327201 0.031294756 -0.020927703 -0.17287612 0.03729276 -0.047039066 -0.26307422 -0.10358871
0.03530084 -0.15810873 0.047637492 0.26367116 -0.2757648 -0.11971156 -0.03029501 -0.15338142
0.07867231 0.098031536 0.36968422 0.042878304 -0.050913777 0.027057938 -0.07134935 -0.06597117
-0.031013248 -0.017435612 0.5830744 -0.043548148 -0.079750374 -0.23066005 -0.13237016 0.04143202
-0.22921252 -0.24191797 -0.1305973 -0.27789813 -0.051148366 -0.35127085 0.07447724 -0.11203084
-0.076673925 -0.19186519 0.7601301 0.29322016 0.1738164 0.27525017 -0.360074 -0.3012746
-0.15547298 0.037056018 0.02378117 -0.062332503 0.46108857 0.09763306 0.14603812 0.09959925
-0.21553878 -0.15894975 -0.34368187 0.022612706 -0.27627793 -0.051580008 0.024162665 0.40865415
0.19964801 0.22171189 0.3022981 0.14239615 -0.38351643 0.08576357 -0.0077006835 0.13825777
-0.31090292 0.3897948 -0.41501626 0.40179166 0.09813382 0.4218992 0.07074098 -0.15195715
0.06177175 0.16956098 0.27765256 0.053726632 -0.14905298 -0.106747165 0.18014313 -0.15257731
-0.083476625 0.020463586 -0.28119585 -0.14046358 -0.049230393 -0.065939605 -0.116893575 -0.2121723
-0.13317166 0.08933177 -0.04639554 -0.22899258 -0.12067551 -0.06313377 -0.24126558 -0.1131417
0.018359797 0.079572454 -0.056921236 0.1101287 0.204523 0.07797274 0.25831276 -0.23306488
-0.015540739 -0.030892042 0.49306148 0.18342222 0.20180173 -0.62261736 -0.2570037 -0.11599319
0.07013695 0.18671688 0.16100147 0.04621446 0.09730784 0.009771018 -0.06400013 0.01074425
0.245466 -0.03706314 -0.14281975 -0.05057505 0.13900323 -0.018685639 0.11933722 -0.23016743
-0.32291046 -0.11857696 0.18495531 0.3894278 0.20581424 0.017819807 -0.2576173 0.29752854
-0.0188894 -0.026341107 -0.13549574 0.094618075 -0.08773495 -0.2465648 -0.07445129 -0.15921481
0.05707444 -0.101056874 0.18844475 -0.11909534 -0.074226454 0.07483876 0.051866427 -0.023407366
-0.22930406 -0.19734465 -0.058543902 0.4659707 -0.16096725 -0.2721069 0.12344204 -0.023319045
-0.18804142 0.13734172 -0.16826685 0.16239172 -0.28327918 0.15008491 -0.46933067 0.27804175
-0.008049112 -0.19194163 -0.1625179 0.14866221 -0.22482587 -0.032424096 0.2573037 0.050355945
-0.25130475 0.05630094 0.037236318 -0.17897065 0.06255129 0.36926213 0.07753017 0.11516476
-0.04688962 -0.082255825 -0.15070848 0.037241865 0.055800438 -0.2659655 -0.22804883 -0.14992209
00000000: a582 22be 9c04 0dbe 44da 7fbe 58c8 d93d
00000010: 5af0 b3bc f46c 133e e1cd e4bd 400b 1e3c
00000020: 6045 6e3d bf39 4e3e c8ff b73d 9b4f e33e
00000030: 440e 57bc af75 243d ca4d b53d 8bb3 af3d
00000040: a468 34be 3eee 8e3e 4341 72be fae8 94bd
00000050: 4e84 043e fce1 5f3e 8c48 ba3d 0762 c53d
00000060: ce8f 023e 12d0 e3bd e500 bbbe f69b 88be
00000070: 1880 05be 2887 033e cc10 13be 6453 603e
00000080: 3a5b 4bbd c31a e43e d446 c4bb df57 4cbd
00000090: 4958 44bd c2a9 2cbe 55fe 573e d2ba 323e
000000a0: 572c acbc 8d0f a8be 6396 9ebd 4b24 f5bd
000000b0: a470 3fbc 6c49 6cbc ae2c e43d 016d 883e
000000c0: c22d 7b3e aa17 4abe a384 36bd f04d 99bd
000000d0: 17bf b2bd 8b28 583b ade3 273e be11 79be
000000e0: 8305 063d ee2e 003d 9370 abbc 7006 31be
000000f0: 4bc0 183d 09ac 40bd aab1 86be 5126 d4bd
00000100: 9d97 103d 41e7 21be 881f 433d e8ff 863e
00000110: 0b31 8dbe 562b f5bd 3e2d f8bc 0510 1dbe
00000120: f31e a13d c2c4 c83d 4047 bd3e 29a1 2f3d
00000130: f78a 50bd 9ca8 dd3c 9c1f 92bd e51b 87bd
00000140: 7f0f febc 21d5 8ebc 5d44 153f 8b5f 32bd
00000150: 2a54 a3bd 2632 6cbe 0b8c 07be 9fb4 293d
00000160: b0b6 6abe 58b9 77be 4cbb 05be aa48 8ebe
00000170: f380 51bd c6d9 b3be 8687 983d 6d70 e5bd
00000180: 3807 9dbd 4f78 44be e397 423f f420 963e
00000190: edfc 313e 97ed 8c3e 9f5b b8be aa40 9abe
000001a0: 4f34 1fbe 0dc8 173d bad0 c23c 5e50 7fbd
000001b0: cd13 ec3e d7f3 c73d 048b 153e b1fa cb3d
000001c0: 33b6 5cbe b9c3 22be 12f7 afbe 483e b93c
000001d0: 4d74 8dbe 8f45 53bd c8f0 c53c 1e3b d13e
000001e0: 8770 4c3e 7108 633e d1c6 9a3e 4cd0 113e
000001f0: 445c c4be d0a4 af3d 0456 fcbb 7293 0d3e
00000200: ab2e 9fbe 2f93 c73e 037d d4be a3b7 cd3e
00000210: 62fa c83d 2c03 d83e a6e0 903d a89a 1bbe
00000220: 6004 7d3d 65a1 2d3e 7a28 8e3e 7510 5c3d
00000230: 58a1 18be 429e dabd 7177 383e 3a3d 1cbe
00000240: cbf5 aabd 40a3 a73c e7f8 8fbe afd5 0fbe
00000250: cfa5 49bd 580b 87bd e665 efbd b243 59be
00000260: 275e 08be 93f3 b63d 4009 3ebd 087d 6abe
00000270: b924 f7bd 474c 81bd 530e 77be d6b6 e7bd
00000280: 4967 963c e2f6 a23d 3e26 69bd 288b e13d
00000290: 7a6e 513e 2cb0 9f3d 9241 843e 8fa8 6ebe
000002a0: 959e 7ebc 4f11 fdbc 8e72 fc3e 09d3 3b3e
000002b0: 1da5 4e3e da63 1fbf fd95 83be d68d edbd
000002c0: f6a3 8f3d b632 3f3e 92dd 243e 604b 3d3d
000002d0: 5549 c73d 9f16 203c 8012 83bd a708 303c
000002e0: 705b 7b3e 85cf 17bd 573f 12be c927 4fbd
000002f0: dd56 0e3e a012 99bc 1367 f43d 03b1 6bbe
00000300: 8554 a5be 7ad8 f2bd ed64 3d3e 1563 c73e
00000310: f8c0 523e d8fa 913c 6ae6 83be a955 983e
00000320: f1bd 9abc 4ec9 d7bc 65bf 0abe 1fc7 c13d
00000330: 62ae b3bd 7c7b 7cbe eb79 98bd 3509 23be
00000340: e3c6 693d e8f6 cebd a9f7 403e 42e8 f3bd
00000350: 0a04 98bd 1045 993d e471 543d cec0 bfbc
00000360: afce 6abe b714 4abe bbcb 6fbd b693 ee3e
00000370: 99d4 24be 9851 8bbe 2ecf fc3d 9507 bfbc
00000380: ee8d 40be 4fa3 0c3e 254e 2cbe 044a 263e
00000390: f809 91be dcaf 193e 1c4c f0be 7d5b 8e3e
000003a0: 6ce0 03bc 598c 44be 186b 26be e83a 183e
000003b0: c138 66be 21cf 04bd 50bd 833e 0942 4e3d
000003c0: 04ab 80be d19b 663d 1c85 183d 1544 37be
000003d0: e41a 803d ed0f bd3e 23c8 9e3d 80db eb3d
000003e0: 550f 40bd be75 a8bd 5353 1abe ed8a 183d
000003f0: 008f 643d a12c 88be a285 69be 2d85 19be

action_model._discrete_distribution.branches.0.bias f4 [2]
0.28160152 -0.28157508
00000000: 132e 903e 9c2a 90be

action_model._discrete_distribution.branches.1.weight f4 [2, 256]
0.15438075 -0.17190242 -0.069429725 0.17339844 -0.036149498 0.18737023 0.008195574 -0.1646124
-0.005086568 -0.050416563 -0.120352454 -0.012637829 -0.09933991 0.25920528 0.021973439 -0.14985028
-0.21824263 -0.043920126 0.004169386 -0.18740866 -0.004923986 -0.11133109 -0.012179462 -0.13180731
-0.02704476 -0.07578151 0.20346758 0.007167983 0.06466557 -0.28902102 0.12525602 0.1256648
-0.17201757 0.03685744 0.05294847 0.0549246 -0.062456794 0.24153015 0.3033863 0.17070496
0.06427019 -0.012331071 0.019267326 -0.13632359 -0.028088044 0.023551144 -0.19610934 0.02231578
-0.070798375 0.08535457 -0.058932755 0.008070012 0.22283119 0.26411563 -0.023229698 0.025601199
0.037702214 -0.26011887 -0.051269654 -0.050727263 0.14376155 0.014589264 -0.02979045 -0.059465755
0.10220349 0.063246876 -0.076214105 -0.20771743 -0.13354981 0.04056439 0.07616871 0.061278764
0.048161343 -0.100038774 0.05998097 -0.034951605 -0.0082353335 -0.034333903 0.09197298 -0.09396041
-0.023600528 0.0076698554 -0.12718506 -0.081293575 -0.05224843 0.026846102 -0.16264637 -0.056941368
0.20817548 0.04678606 -0.018681824 0.17981875 -0.25278792 -0.01538434 0.21387914 0.0630546
-0.1191746 -0.011866642 -0.061505165 -0.060705688 0.22261854 -0.06546462 0.039303284 -0.059749726
0.072403766 0.04508511 0.055448227 0.012884216 0.006159207 0.15798727 0.15533304 0.23630968
0.061251063 -0.087843865 0.15323973 0.21986894 -0.049812187 -0.08880097 0.17834316 0.124113806
0.006381692 -0.03900024 0.039133612 -0.036596455 0.03964089 -0.14612208 0.109986976 -0.13827685
0.04852679 -0.0071226396 0.12729514 0.026162313 0.052880738 -0.05753603 0.16886573 -0.14486335
-0.00079460186 -0.10461801 -0.055913225 0.24501911 0.0577529 -0.1500391 -0.09091665 -0.05987513
0.080000065 -0.11026132 -0.035753045 0.14254203 0.01329704 -0.004446357 0.0440689 0.09868946
-0.08509991 0.08899691 -0.043055866 0.014647204 0.08957944 0.030399127 0.09331161 0.104974546
-0.16619174 -0.05155219 0.01431011 -0.033380236 -0.090988874 -0.02302574 -0.034834724 0.110416435
0.0020104386 -0.1728067 -0.012799631 -0.082499154 0.12047927 -0.047459856 -0.121100605 0.14659902
-0.016648307 0.09945464 -0.028273305 -0.056792114 -0.14712897 0.13693084 0.017163089 -0.11406608
0.036301088 0.0020551435 0.19700338 0.16731742 0.019683784 -0.020866012 0.035772305 -0.085170664
0.20694599 -0.07116218 -0.12151917 0.05707407 -0.12145611 0.05226866 -0.08725767 -0.031871494
-0.020466628 0.02313994 -0.17361578 0.14568746 -0.099186465 0.23253362 -0.2985247 -0.0068452014
-0.029549478 -0.03169481 -0.1542469 0.071258456 0.022749903 0.0649727 0.04713919 -0.02870767
-0.17223525 0.1429466 0.06781544 -0.020982387 -0.05834081 0.027570305 0.038589682 -0.2956255
-0.121778935 0.082899064 -0.020090722 0.009932782 -0.002347008 0.03469032 0.18467192 0.037171047
-0.10547382 -0.004741122 0.017575003 -0.18387626 -0.004690237 0.00053544145 0.24860182 0.08751187
-0.007832274 0.18652454 -0.040520716 -0.018335186 -0.07437299 0.12706582 0.079006374 0.2524896
-0.07513921 0.09036119 -0.10757545 -0.123799436 -0.023980318 0.0286488 -0.010596848 0.1433042
00000000: fd15 1e3e 3007 30be 2c31 8ebd 5c8f 313e
00000010: 7f11 14bd fbdd 3f3e bb46 063c 2790 28be
00000020: 3aad a6bb 9981 4ebd 597b f6bd e60e 4fbc
00000030: b972 cbbd 8eb6 843e a401 b43c 5a72 19be
00000040: ff7a 5fbe 97e5 33bd 589f 883b 0ee8 3fbe
00000050: 6359 a1bb 8e01 e4bd 5e8c 47bc 7ff8 06be
00000060: f98c ddbc 5633 9bbd ce59 503e 66e1 ea3b
00000070: 626f 843d 90fa 93be 1d43 003e 46ae 003e
00000080: 6025 30be d4f7 163d 7fe0 583d 9ef8 603d
00000090: b2d2 7fbd ae53 773e 7355 9b3e 48cd 2e3e
000000a0: 17a0 833d 4308 4abc 83d6 9d3c 6998 0bbe
000000b0: e618 e6bc 54ee c03c e3d0 48be 95cf b63c
000000c0: bdfe 90bd 60ce ae3d 7963 71bd 1538 043c
000000d0: dc2d 643e 2a3a 873e 354c bebc 9bb9 d13c
000000e0: a36d 1a3d 4d2e 85be 2100 52bd 64c7 4fbd
000000f0: 3a36 133e cf07 6f3c 1a0b f4bc 5d92 73bd
00000100: 1050 d13d 9487 813d 2416 9cbd e1b3 54be
00000110: 48c1 08be d926 263d 57fe 9b3d 71ff 7a3d
00000120: d444 453d 21e1 ccbd 9bae 753d 6a29 0fbd
00000130: 7eed 06bc b5a1 0cbd 545c bc3d 516e c0bd
00000140: e555 c1bc 6953 fb3b cd3c 02be 3f7d a6bd
00000150: 7302 56bd 5bec db3c c58c 26be 5a3b 69bd
00000160: f42b 553e bda2 3f3d a00a 99bc 6822 383e
00000170: 6b6d 81be 990e 7cbc 2203 5b3e c522 813d
00000180: d011 f4bd 4e6c 42bc d7ec 7bbd 87a6 78bd
00000190: 1df6 633e 5112 86bd 7bfc 203d 21bc 74bd
000001a0: 6d48 943d 2aab 383d ae1d 633d 5218 533c
000001b0: 2cd3 c93b 6ac7 213e a00f 1f3e 2afb 713e
000001c0: 65e2 7a3d 7ce7 b3bd e0ea 1c3e 5325 613e
000001d0: dd07 4cbd 48dd b5bd 979f 363e 612f fe3d
000001e0: 831d d13b b7be 1fbd 914a 203d 2ae6 15bd
000001f0: 7c5e 223d 07a1 15be da40 e13d 7298 0dbe
00000200: 07c4 463d 0865 e9bb a859 023e 5952 d63c
00000210: 7999 583d e6aa 6bbd 23eb 2c3e 0f57 14be
00000220: d44c 50ba f841 d6bd 4405 65bd 4ae6 7a3e
00000230: 4e8e 6c3d daa3 19be 8232 babd a03f 75bd
00000240: 13d7 a33d b0d0 e1bd c971 12bd 8af6 113e
00000250: d4db 593c bfb2 91bb 9781 343d b31d ca3d
00000260: dd48 aebd 0344 b63d 595b 30bd d4fa 6f3c
00000270: 6d75 b73d 9707 f93c 281a bf3d e5fc d63d
00000280: 2b2e 2abe 6428 53bd f474 6a3c b7b9 08bd
00000290: 6058 babd 7aa0 bcbc dbae 0ebd 0322 e23d
000002a0: 90c1 033b 3df4 30be 8bb5 51bc 51f5 a8bd
000002b0: d6bd f63d 4465 42bd 9803 f8bd 0e1e 163e
000002c0: 0862 88bc e0ae cb3d 6b9d e7bc d99e 68bd
000002d0: faa8 16be 9937 0c3e 9b99 8c3c 7a9b e9bd
000002e0: 73b0 143d 96af 063b 41bb 493e 4255 2b3e
000002f0: e33f a13c 33ef aabc fb85 123d f56d aebd
00000300: a6e9 533e 7abd 91bd 0bdf f8bd 80c6 693d
00000310: fbbd f8bd aa17 563d 26b4 b2bd af8b 02bd
00000320: a1a9 a7bc f98f bd3c 56c8 31be 182f 153e
00000330: 4622 cbbd 4b1d 6e3e 3bd8 98be b64d e0bb
00000340: bf11 f2bc 6bd2 01bd e6f2 1dbe f4ef 913d
00000350: 015e ba3c 6810 853d 0615 413d 592c ebbc
00000360: 705e 30be 9860 123e d2e2 8a3d 41e3 abbc
00000370: c6f6 6ebd 1fdb e13c 3710 1e3d 3a5c 97be
00000380: 3c67 f9bd fcc6 a93d 4c95 a4bc 1bbd 223c
00000390: 43d0 19bb 7017 0e3d a31a 3d3e ab40 183d
000003a0: a802 d8bd 6a5b 9bbb 74f9 8f3c 0f4a 3cbe
000003b0: 8fb0 99bb de5c 0c3a 7a91 7e3e 6c39 b33d
000003c0: f052 00bc 4a00 3f3e 0df9 25bd ac33 96bc
000003d0: de50 98bd 8b1d 023e 18ce a13d 5146 813e
000003e0: 96e2 99bd 4a0f b93d 8450 dcbd 8f8a fdbd
000003f0: 5f72 c4bc e3b0 ea3c 679e 2dbc 56be 123e

action_model._discrete_distribution.branches.1.bias f4 [2]
0.0038941887 -0.0038941507
00000000: a535 7f3b 0235 7fbb
