Assets/ML-Agents/config/results/tank_beta_0.001_1_layers/AgentTank.onnx (onnx, 45795 bytes, 10 tensors)

discrete_action_output_shape f4 [1, 2]
00000000: 0000 0040 0000 0040
2.0 2.0

network_body._body_endoder.seq_layers.0.weight f4 [256, 34]
00000000: 68af 003e d0b9 613e 024f 003e 5f32 a7bc
00000010: a85f 20bd 8c00 c9be 0742 85be 0173 b43c
00000020: f1b0 3f3e 0148 f6bd c966 b53d 5512 69bd
00000030: d03e 89be cf28 debe 9dfe 733e 814a c5bd
00000040: 9be2 1b3e 04b6 82be 57fa 783e 870e d1bd
00000050: 9101 0dbf 562c 0bbf d283 313e bade bc3d
00000060: 816f 5d3e db7b cb3e d828 d53d 26b6 b23d
00000070: fda9 37bc b7b9 963e d63b c9bc 03fd 28be
00000080: 3df6 5dbe 95d1 903e c759 a0bd a023 343d
00000090: 11e7 88be 2946 57be 0069 2d3e 24c4 bbbe
000000a0: 698a 52be f186 743d 4566 afbc 81b1 c9be
000000b0: 8c71 983e 4739 b73e 06fb a7be eea4 febd
000000c0: 7448 90bd eccb c43d c41d ed3d c425 29bd
000000d0: 73d8 6fbd 3743 823e e74d ae3e bc5a d63e
000000e0: 77d4 8e3c 23b4 e3bd db8b 033d 6a4e a03e
000000f0: efb6 c73e 0d46 bd3e 1370 ecbd 4447 253e
00000100: edb7 d63d 15dc 853e b5c8 a5bc d85c 91bd
00000110: 3b2f 9b3d aedf 36be ed23 333e e704 473c
00000120: 753a e7be db7e e2bd 8399 25be fecd e7bd
00000130: 74fe abbe 2d3e 6ebd ac4c 1f3e ab87 103e
00000140: 1d63 9fbe 1b88 a1be 235a d3bd 7cfe 903e
00000150: 0657 58be edbd 263e 76ca 4b3d 4d6e 94be
00000160: 309f b7bc 0024 053e 757f a53e 83f6 a23e
00000170: 586c d2be 5e21 903e 1f6d 0bbe dff1 15bd
00000180: 249b 98bd 3a44 05be e660 3c3c 876b be3e
00000190: aee3 643d 86ff 05be fb02 6d3e 61f3 573e
000001a0: ceff d23e 996f ad3d 89b2 2d3e a3e6 76bb
000001b0: dda7 ef3e 99ed 9d3c 230a be3e 5c23 ae3d
000001c0: 8f03 62be bc72 5b3c b31b c2bd e37e 81be
000001d0: 253f d53e 0450 193e 4633 5bbe 6c90 3dbd
000001e0: ff0b e83d 5c0d 833d 1409 8f3e a3cb 463e
000001f0: c6ad 2ebe eed2 53be d29a 2bbd fb0e 423c
00000200: 96e6 2abf 7e1a 95bd 98c4 29be ac3e 8d3e
00000210: 7803 883e 888d 8c3d 3c80 11be a7e0 633e
00000220: 239a 59be ce24 ae3c 2b79 bcbe f503 3f3e
00000230: b40f debe a895 0a3e 0d5d 1f3c 23c0 c1bd
00000240: 819a b4be d3e9 16be c9d0 98be 084c 75be
00000250: eff0 be3d b7b1 74bd 0db5 693e f16c d53c
00000260: 6d73 82be 7126 c7bd ab0b 133e 217f 613e
00000270: 6daa 253e a8ad 323e 6632 f03d cf3a a53e
00000280: 94df adbe ecc0 ae3d 75cb 413d eaec d0bc
00000290: 6ed9 073e 8df1 39be 29a0 c6bc 5d96 d63e
000002a0: 5cff bdbd 11aa 883d 27e1 61bc 26c3 ea3d
000002b0: 9396 343d f790 693d 9d17 3d3e 9ad6 233e
000002c0: a002 9d3e 61e5 1dbd 807e 2b3d aed6 b0bd
000002d0: f496 52be f0ff f83d 4b3e 193e 1ab1 8b3e
000002e0: 2ffc 333e 74fd 443d d60b 283e 0163 73bc
000002f0: d9e1 a6be f820 743d 3b0d e63e 3083 513d
00000300: 3581 cfbd ce41 d13d 5de1 2abe e138 f4bd
00000310: beb1 6cbd 1e88 833e 5978 8dbe cb33 48be
00000320: d0c8 80be b9a5 29be 3c9a 8a3d 29a6 aabc
00000330: 9764 aebe e0ad ed3d 1b2c 68bb bf1e 963e
00000340: 61f8 273e 22dd 3bbe e588 babe 0fc1 803c
00000350: 1559 d13d 768e b2bd dcd6 d43d 56c6 b4bd
00000360: a841 b43e c7ad 53be d5e9 2fbd 8588 16bc
00000370: 4f7d d5bd c84f 503d b846 2e3d 0fa5 5b3d
00000380: 1405 abbc e46d c83e a0ad bf3e ef0d 70be
00000390: b11c c1bd d71a 293e f13c 423d 433c ae3e
000003a0: 72b0 e93b 576a 1c3d a38b 323e 88bc 803e
000003b0: 58e3 6abd 001e 463e c618 ecbc 3d24 e13e
000003c0: d68f 443e 1eaf d13d c8dc 39be 5833 a83e
000003d0: ec98 333e 1184 2ebe 701f 6ebe e4ea 823e
000003e0: 676c 82be c45a 993e 00f4 7f3e ed70 993e
000003f0: 2cdf 72be 8666 523e 00c2 33be f8e5 1d3d
0.12566912 0.22043538 0.12530139 -0.020409761 -0.039153725 -0.3925823 -0.26026937 0.022027494
0.18719842 -0.120254524 0.08857495 -0.05690225 -0.26805735 -0.4339051 0.23827596 -0.09633351
0.15223162 -0.25529492 0.24314247 -0.10207849 -0.55080515 -0.54364526 0.17335442 0.09222169
0.21624567 0.39742932 0.10408181 0.08726148 -0.011209962 0.29438564 -0.024564665 -0.16502766
-0.21675964 0.28284898 -0.07829624 0.043979287 -0.2673879 -0.21022858 0.16934586 -0.3667308
-0.20560612 0.059699003 -0.02141107 -0.39393237 0.2977413 0.35785887 -0.32808703 -0.124338016
-0.07045069 0.096092075 0.11577943 -0.04129578 -0.05855603 0.25441906 0.3404381 0.418661
0.017435296 -0.11118343 0.0321158 0.31309825 0.39006755 0.36967507 -0.11544814 0.16140467
0.104843 0.26144472 -0.020237306 -0.07097787 0.07577368 -0.17858765 0.17494173 0.012147165
-0.45161787 -0.11059352 -0.16171841 -0.11318587 -0.3359257 -0.058164764 0.15556592 0.14114253
-0.31130305 -0.31549153 -0.103199266 0.28319156 -0.21126947 0.16283388 0.04975363 -0.28990403
-0.022414774 0.13002014 0.32323804 0.318287 -0.41098285 0.28150457 -0.13615845 -0.03660762
-0.07451466 -0.13014308 0.011497712 0.37191412 0.055881195 -0.13085756 0.23145668 0.21088935
0.41210788 0.08468551 0.16962637 -0.0037674091 0.46807757 0.019278334 0.3711711 0.08502838
-0.2207167 0.013394054 -0.094779395 -0.2529212 0.41649738 0.1497193 -0.21406278 -0.04628031
0.11330413 0.063990325 0.27936614 0.19413619 -0.17058477 -0.20685932 -0.041895695 0.011844392
-0.66758096 -0.072804436 -0.16578901 0.27586877 0.26565146 0.068629324 -0.14209074 0.22253667
-0.21250205 0.021257784 -0.36811194 0.18653853 -0.43371356 0.13533652 0.009726775 -0.09460475
-0.35274127 -0.14737634 -0.2984679 -0.23954785 0.09323298 -0.059739795 0.22822972 0.026052924
-0.25478688 -0.09724129 0.1435992 0.22021152 0.16178294 0.17449057 0.11728363 0.3227143
-0.3395964 0.08532891 0.047313172 -0.025503594 0.13266537 -0.1815855 -0.024246292 0.41911593
-0.092772216 0.066730626 -0.013786591 0.11463003 0.04408891 0.057023015 0.18466039 0.15999833
0.30666065 -0.03854883 0.041868687 -0.08634697 -0.20565397 0.12158191 0.14965169 0.27283555
0.17576669 0.048093274 0.16410765 -0.014855147 -0.32594183 0.059601754 0.4493197 0.0511505
-0.10132066 0.102176294 -0.16687532 -0.11924911 -0.057786696 0.25689787 -0.2763088 -0.19551007
-0.25153208 -0.16567124 0.06767699 -0.020831184 -0.3406112 0.1160543 -0.003542668 0.29320332
0.16403343 -0.18346074 -0.36432567 0.015717058 0.10222069 -0.087185785 0.10392544 -0.08826892
0.35206342 -0.2067176 -0.04294761 -0.009187822 -0.10424291 0.050857335 0.04254791 0.05362421
-0.020876445 0.3914634 0.37437153 -0.23442815 -0.094293006 0.16514145 0.0474214 0.3403035
0.0071316296 0.03818735 0.1743608 0.25143838 -0.05734572 0.19347382 -0.028820407 0.4397296
0.19195494 0.10238479 -0.18150628 0.32851672 0.17538804 -0.17042567 -0.2325418 0.25569832
-0.2547333 0.2995206 0.24995422 0.29968968 -0.23717946 0.20546922 -0.17554474 0.038549393

network_body._body_endoder.seq_layers.0.bias f4 [256]
00000000: 6931 86bc 7ed6 d13c 6a6c 3f3b 77cb 373e
00000010: 75fa 6d3c 394f e5bc 15da c3bc fb6b be3c
00000020: d6d8 a83d 45cc ff3c 0f2a d8bc e461 b73b
00000030: 9685 133d c568 b53c 9a05 a23d bf22 aa3d
00000040: f491 383d 88d3 f0bc 0b81 8d3c ec7f 243d
00000050: 0167 4e3d c6e4 53bd da14 713d 7c72 5e39
00000060: da94 273d d99a 6ebd 09bc 613d 06a1 a73d
00000070: 8c4d 263b 0f76 db39 4537 a3bc 370b 323d
00000080: 2b96 003c bd0d afbd cf56 90bd ea8b 163d
00000090: 5bd5 b33c c4e9 dabc 9687 033d 9262 303c
000000a0: 7da0 73ba 6b8f 47bd 6059 313d 1c5d 14bc
000000b0: 412a 763d 3ee8 703d f7e4 dabc 7108 42bd
000000c0: 3051 7e3d a9c7 483d f5aa 803d ae67 853d
000000d0: 25f0 6c3d 5a30 b9bd 2ebb 63bd ef10 96bd
000000e0: 6522 8b3d b033 963d 384d 63bd 7c0a ac3c
000000f0: 3786 553d 3363 813d 59b6 c0bd 77f0 f1bc
00000100: 5958 15bb f425 a33d 9229 503d 32a0 523d
00000110: 2313 413c 6373 ac3d c574 d5bb 2fee 063d
00000120: 806d c23c 5744 e4bc eedc 003e a487 b83c
00000130: d633 353d 0d2f 973c cf95 613d a5e5 253d
00000140: d5c4 653d eba7 95bc 2e6f a43b b603 27bd
00000150: f628 183c b14d c33d 35ed fb3c d70d ba3d
00000160: 139d 023e 62c9 a63c 7193 413d c35f b7bb
00000170: 6848 d63c bec2 91bc 2d4e 853b f82b b73d
00000180: b6d6 083e 1365 753d 9300 c23d 8bd2 453d
00000190: 45c1 713d 6a54 553d d866 0c3e 2d32 ff3c
000001a0: 755d d23c fb53 4fbc 2045 a13d c012 cb3d
000001b0: 50d6 833d 0026 ac3d 200d 98bd ecf5 163d
000001c0: cb23 c63d 6cf0 96bb 6cde cfbc c2e1 38bc
000001d0: f719 f5bc 1eef b13d c5a9 0a3d c78e c93c
000001e0: 31f2 b03c ed3a edbc 3c44 a83d 05c7 413d
000001f0: 3bb4 a03c 0e34 043d 2b2b 923d 71d1 ba3d
00000200: 6698 503d 7980 eb3c b3ee ba3d 956e d43c
00000210: dca9 42bd 6056 80bd 5ac1 28bd 6960 1abc
00000220: 11e2 0b3d 6f7c 8d3d bc27 64bd 5679 ad3d
00000230: aac8 463d c28a d43c 77ec b23d ab1e 823d
00000240: e81d 77bc 3ac6 303d 923e 88bc bc8e 49bd
00000250: 9803 00bd d388 833d a8ba 023e d06b d53c
00000260: 1e95 f0bc 962e 823d 22a1 103d a59b 193c
00000270: 2dbe 01bc c623 05bd 43ed 1a3d 5e01 3e3d
00000280: eb14 ecbc 5bf0 a8bc 0b82 483c 63c7 4b3c
00000290: aab3 a1bd 25c7 093d e5f7 3abc 8fb4 0d3e
000002a0: c767 58bb f214 03bd 3661 133d a760 023d
000002b0: 2253 123d 506a 7dbd b73f b1bd b63c c338
000002c0: c7f1 d23d 99cd 063d 13c5 01bd 32d5 993c
000002d0: 2a43 2e3c c3b6 853d 19c1 e93d 616f 37bd
000002e0: f0c3 7dbc 4d30 703d 26f0 523d 5fa1 f1bc
000002f0: 6d24 d2bc 52cd 64bb 9a7d 9ebd f586 bc3d
00000300: 8352 5cbc 20da 703d 0619 7ebc 81ca 7abc
00000310: 712f 6a3c de24 133c 6e75 253d 7c37 25bc
00000320: c2d1 f63c 502f f53d 68de 94bd 6e81 92bc
00000330: a96a 22bd 83cc a33d aa5b 6f3d dbb2 7b3d
00000340: 0121 823d 6175 4bbb fef8 ce3d a514 213c
00000350: 33cf 8b3d b1b6 aabc 3b98 bbba 0944 3c3d
00000360: fa7d 2aba fa34 193d 8c1c 2bbd 965f 583b
00000370: 8212 8abc 634d 553c 32d2 9f3b 7bde ebbc
00000380: 794c 463b 1207 93bc a0a6 343d e090 9e3d
00000390: 568f 4d3d d42a 9a3d f81e 5b3c c844 ba3c
000003a0: a31e ab3c 7b77 b83d 975f 31bd bc38 51bd
000003b0: 5383 3ebd aa9e 0fbc 26ff 53bd 3c0d b43c
000003c0: 7ed7 3ebc f75b 013d 954f ae3c 9159 9fbc
000003d0: 5a7f bd3c 0ef7 af3c 8883 89bd 4c18 90bd
000003e0: a3dd 29bd b8df 8c3d a4f1 f4bc e6e3 f53c
000003f0: 01ae 06bc 1ad6 b1bd d5c7 5a3d af97 29ba
-0.016380982 0.025614973 0.0029208907 0.1794871 0.014525046 -0.027991878 -0.0239077 0.023244848
0.08244483 0.031225333 -0.026387243 0.0055963863 0.03601607 0.022144685 0.07911225 0.083074085
0.045061067 -0.029397741 0.017273447 0.04016106 0.0503912 -0.051731847 0.058857776 0.00021214219
0.04091344 -0.058253143 0.055110965 0.0818501 0.0025375811 0.00041858896 -0.019923816 0.043467727
0.007848303 -0.08547542 -0.070478074 0.036754526 0.021952322 -0.026722796 0.032111727 0.0107656885
-0.0009293629 -0.04872076 0.043298125 -0.009055402 0.06009889 0.058815233 -0.026720507 -0.04737133
0.062089145 0.049018536 0.062826075 0.06513916 0.057846207 -0.090424255 -0.05559843 -0.073274486
0.067936696 0.07334077 -0.055493563 0.021001093 0.05212995 0.06317749 -0.0940978 -0.029533608
-0.0022788255 0.07966223 0.050820895 0.051422305 0.011784348 0.08420446 -0.006514164 0.032941993
0.023733854 -0.027864618 0.12584278 0.022525616 0.044238888 0.018455053 0.05507451 0.04050221
0.056095917 -0.018268546 0.0050181365 -0.040775023 0.00928711 0.09536303 0.030752758 0.09084671
0.12755232 0.020359699 0.04725975 -0.0055961325 0.026157573 -0.017793056 0.004068157 0.08943933
0.13363156 0.059910845 0.09472766 0.048296493 0.059022207 0.052082457 0.13711107 0.031151855
0.02567933 -0.0126543 0.07874513 0.09915686 0.06437361 0.084056854 -0.074243784 0.036855623
0.09674796 -0.0046062972 -0.025374614 -0.011284294 -0.029919608 0.08688186 0.03385331 0.024604214
0.02159986 -0.028958762 0.0821614 0.04730894 0.01961719 0.032276206 0.0713714 0.09121979
0.05092659 0.028747784 0.091275595 0.025931636 -0.04752527 -0.06266475 -0.04120002 -0.0094224
0.03415114 0.069084994 -0.055701956 0.084704086 0.048531212 0.025945071 0.08736508 0.06353506
-0.015082814 0.043157794 -0.016631398 -0.049208388 -0.031253427 0.064225815 0.12766516 0.026052386
-0.02936798 0.06356542 0.03530992 0.009375487 -0.007918877 -0.03250482 0.037823927 0.046388023
-0.028818568 -0.020622423 0.012238036 0.012437674 -0.07895596 0.033637185 -0.011411642 0.13838409
-0.003302084 -0.032002397 0.03598138 0.031830456 0.035723813 -0.061868966 -0.08654731 9.309633e-05
0.103000216 0.032910917 -0.031682085 0.018778417 0.01063613 0.06529 0.114137836 -0.044783954
-0.01548861 0.058639813 0.051498555 -0.029495893 -0.025652135 -0.003491242 -0.077388 0.092054285
-0.013447407 0.05880177 -0.015508896 -0.01530707 0.0142935375 0.008980958 0.040395193 -0.010084029
0.030129317 0.11971915 -0.07268983 -0.017883983 -0.0396525 0.07997992 0.058437027 0.061449867
0.06353951 -0.0031045305 0.10106085 0.009831582 0.068266295 -0.020839067 -0.0014312336 0.04596332
-0.00065037573 0.037404038 -0.04177527 0.0033015958 -0.016854528 0.013018939 0.004877352 -0.02879261
0.0030257984 -0.017947707 0.04410422 0.077424765 0.050185524 0.075277 0.013374083 0.022737876
0.020888632 0.09007164 -0.043304052 -0.051079497 -0.04651196 -0.008765856 -0.051757 0.021978967
-0.011648057 0.031581845 0.021278182 -0.019451888 0.023132015 0.02148011 -0.06714541 -0.07035884
-0.041471135 0.068786085 -0.02990038 0.030015897 -0.008220197 -0.08683415 0.05341323 -0.0006469441

action_model._continuous_distribution.log_sigma f4 [1, 2]
00000000: 9e35 0abf 7f9d 84bf
-0.53988063 -1.0360564

action_model._continuous_distribution.mu.weight f4 [2, 256]
00000000: 443d d5bd 492b 21bd ac22 90bd cd78 8e3e
00000010: bf56 65bd cbd1 293d fd3e 83bd defd 3b3e
00000020: c6df c5bd adc7 4f3e 7ae1 7f3d f5e3 e13d
00000030: 3c35 81bd aec3 a73d 998b 54bd 64b0 273e
00000040: b75d d9bd 5167 e9bd d376 e63d cf65 ddbd
00000050: 7533 313e 618c c4bd e47f 053d 38db d53d
00000060: 3629 52be 2363 d83c 119b 3e3d 84c3 5abd
00000070: d690 0f3e 9ca5 ef3d 7b42 dc3d c026 853e
00000080: 9112 27bd 2561 45bd 3219 08bd de7a 09be
00000090: 0e12 493e 9483 b6bd e694 6c3d 2b7c 093e
000000a0: a74a 163e b592 7ebd 2ff5 243d 9828 fcbd
000000b0: 349c 0dbd 3f6b d83d e8e1 b43d f714 e0bd
000000c0: aeae 753c 0bca 833d fd84 633c 331d 04be
000000d0: d11c 873e d691 cbbc 1e9a 4a3d 9aec 8f3d
000000e0: 0462 eabd 97e8 ca39 4fb4 373c 75fb df3d
000000f0: be4b e1bc 6311 6bbd b171 5abd 454a 0c3e
00000100: 6c0a 32bb c7ce 603e 7f20 4fbe 6974 103e
00000110: 8cc3 85bd ea90 b73d 8642 f5bd 9ef7 433e
00000120: 9762 2b3e 0a6c 393e e3e7 493e f1ed c83d
00000130: a619 1b3e b1e6 d03c 56e2 34be 90e4 733e
00000140: 6075 e33a 626e 613e b10b 8a3c f7ad 01bd
00000150: 85c2 4f3d f743 30be 6aad b83d 52e0 d73d
00000160: e732 3ebd 938d 30be 24a4 16be 7693 11be
00000170: ba0e e5bc d0aa 24be 3ec6 2a3e 8313 8a3e
00000180: 0dfe 04bc 0749 92bd 8946 3f3e b3e8 783e
00000190: 7f42 5a3d 20de ce3c 3f71 20be f134 653e
000001a0: 9e0b 1d3d d19a debd 497c 903e 6990 bc3d
000001b0: 6681 2a3e 673d 4e3c 2892 a73d 7a1d 733d
000001c0: f22c a93d e0bd 073e 5ed0 813b a1c1 8c3d
000001d0: da81 9abd a0e9 a4bc d951 943d d550 19bd
000001e0: 7adc 43be 7450 94bb d7a0 163e e71a 6d3e
000001f0: 1df2 08bd 503b c7bd 2fcf 89bd e9d2 69bd
00000200: 7b84 913e cead 2abe 218e 57be 284e 84bd
00000210: 2c0a 873d 7c25 cc3d b08c 183e ec15 ed3d
00000220: 577e 0a3e 498d 07be 1a25 7ebd afcf b9bd
00000230: 7f26 30bc 6031 abbc e186 403e b51b 67be
00000240: c1d4 97bd 079e fa3b 1549 463e d693 903d
00000250: ce35 8c3c b1c3 253e d570 eb3d 435c 1ebe
00000260: c559 fbbc d548 e9bd 1081 c93d f6b1 3a3e
00000270: 9bac 093e 8b8d 10be 5ddc 563e 49c6 853e
00000280: 5547 ec3d a532 aa3d 7144 353e 10ba 58bd
00000290: 46e0 093e 3f75 553e e623 6dbd 31c6 45be
000002a0: 0d2c e9bd 41d2 7ebd e8a7 0e3e ad78 8bbd
000002b0: dceb fc3d e031 70bd 97f8 583d 9368 8d3e
000002c0: 6ebb 3f3e 6da6 643e 146f a7bd 2e9c 343e
000002d0: b7cf f53d d316 a13e b06d 1c3e e064 9bbd
000002e0: 7e88 413e 09f7 37be 0da5 903e 318c 0fbe
000002f0: 854c 853d b5aa 7e3d 2b73 03bc 31d7 5c39
00000300: db22 e0bd 964a ef3d 06a0 e43c 1345 883d
00000310: 0f30 a5bc 9426 fcbb e36b 79bb a379 b13d
00000320: d993 af3c a63e 0e3e 890d 26bd c408 05bd
00000330: 423f d73d 9b34 e7bd cbca a53d c867 20be
00000340: cddb 29be 3a4f 73bc b9ec 313e 419e 1e3d
00000350: 9446 3c3e 2c3a fdbd d8ad 89bd b842 77be
00000360: 5b98 033e f294 d1bc 252f 893d 6344 a63a
00000370: 85c4 553d 85aa 2b3d c3bc aabd 4354 08bd
00000380: 6c7b abbd 2e3e 09bd 60ff be3c ddf2 7f3e
00000390: 00d0 c23e 6172 433e f9fa c33c 226b 88bd
000003a0: e4f0 77bd 8e10 6b3e 4314 073e 136c 9e3d
000003b0: dea8 e0bc d3ce e8bd 4547 e0bc b5b1 523d
000003c0: 549b 3a3d a5e2 283d 73f4 f7bd a441 2fbe
000003d0: 6289 0b3e b1da 13bd 2cb2 f53c 72aa cf3d
000003e0: a429 023c 0e48 2f3e 99fb 8c3d 70fd c03c
000003f0: 1ef0 f9bd 59c9 27bd 8f45 6b3e 8d6f d43d
-0.10412076 -0.03934792 -0.07037863 0.2782654 -0.05599093 0.04145984 -0.064084984 0.18358561
-0.09661822 0.20291014 0.06247089 0.110298075 -0.06308982 0.0819162 -0.051890943 0.16375881
-0.10613578 -0.11396659 0.11253133 -0.10810434 0.17304786 -0.09597088 0.03259267 0.10442203
-0.20523533 0.02641446 0.0465346 -0.053409114 0.14020094 0.11701509 0.10754868 0.26006126
-0.04078919 -0.048188347 -0.033227153 -0.13425776 0.19635794 -0.08911815 0.057759188 0.13426273
0.14676915 -0.06215163 0.040272888 -0.1231243 -0.034572795 0.105673306 0.08832151 -0.10941499
0.01499526 0.06435021 0.013886687 -0.12901764 0.26389173 -0.024849813 0.049463384 0.0702755
-0.11444476 0.00038701735 0.0112124225 0.109366335 -0.027501937 -0.05738963 -0.05333108 0.13700207
-0.0027166856 0.2195388 -0.2022724 0.14106907 -0.06531438 0.08963187 -0.11975579 0.19137427
0.16736828 0.1810762 0.19717364 0.09811009 0.15146503 0.025500627 -0.17664465 0.23817658
0.0017353706 0.22014764 0.016851278 -0.031660046 0.050722618 -0.17213427 0.09017451 0.105408326
-0.046435263 -0.17241506 -0.14711052 -0.14216408 -0.027961124 -0.16080785 0.16677186 0.2696801
-0.008117211 -0.07142835 0.18679251 0.24307518 0.053286072 0.025252402 -0.156682 0.22383477
0.038341157 -0.10869373 0.28219822 0.092072316 0.16650924 0.012587882 0.08182174 0.059354283
0.08260526 0.13256025 0.003961607 0.06872869 -0.075442985 -0.020130932 0.07242174 -0.037430603
-0.19127074 -0.0045261923 0.14709793 0.23154794 -0.033434022 -0.0972811 -0.0672897 -0.057085905
0.28421387 -0.16667864 -0.21050312 -0.064602196 0.06593737 0.09968087 0.14897418 0.11576447
0.13524757 -0.1323749 -0.0620471 -0.090728156 -0.010751366 -0.020897567 0.18801452 -0.22569163
-0.074136265 0.007648233 0.19363816 0.070594475 0.0171155 0.16187932 0.114961304 -0.15464883
-0.030682454 -0.11390845 0.0983907 0.18231949 0.1344475 -0.14116494 0.209825 0.26127842
0.11537043 0.08310441 0.1770189 -0.052911818 0.1346446 0.20845507 -0.057895564 -0.19313885
-0.11385355 -0.062212233 0.13931239 -0.068101265 0.12349674 -0.058641315 0.05297145 0.27618846
0.18723843 0.22329111 -0.08175483 0.17637703 0.12002509 0.31462726 0.15276217 -0.075876
0.18899724 -0.1796533 0.28250924 -0.14018323 0.065087356 0.062174518 -0.008023064 0.00021061
-0.10944148 0.11684148 0.027908336 0.066538 -0.020164518 -0.0076950286 -0.003805869 0.086657785
0.021432804 0.13891086 -0.040540252 -0.032479063 0.10510112 -0.112893306 0.0809532 -0.1566459
-0.16587754 -0.014850432 0.17375459 0.03872514 0.18386298 -0.12364611 -0.06722611 -0.24146545
0.12851088 -0.025583718 0.06698445 0.0012685176 0.05218937 0.041910667 -0.08336785 -0.033283483
-0.0837315 -0.033506565 0.023315132 0.24994989 0.38049316 0.19086601 0.023923384 -0.06661059
-0.060532466 0.22955534 0.13191323 0.07735457 -0.027424272 -0.113675736 -0.027377734 0.051439006
0.04555829 0.04123177 -0.12107172 -0.17114884 0.13626626 -0.036097232 0.029992186 0.10139932
0.007944498 0.1711733 0.06883926 0.023558348 -0.12204002 -0.040963504 0.22975753 0.10372839

action_model._continuous_distribution.mu.bias f4 [2]
00000000: 2d25 39ba 1d18 4cbc
-0.00070627296 -0.012456921

action_model._discrete_distribution.branches.0.weight f4 [2, 256]
00000000: 9ae4 27be d859 183f 1c28 813e 6085 7cbd
00000010: c635 c33d 9861 623e 5616 9e3e ce8a 073e
00000020: 7907 c1be 6977 253e f84f 3d3e e756 153e
00000030: c35b a2be db87 aabd ed7a ddbd b03a 9f3e
00000040: 8ecd d4be abd9 0e3d 5876 853e 4aeb ed3d
00000050: 0eba ac3c cc50 a8bd 2d39 95be a38e 3f3e
00000060: 5fb4 6a3e ccad f03d 2491 453e 89aa dfbd
00000070: 4f62 4bbe 79af 0abd 587a f03d 7826 923d
00000080: fafc b33d 8582 ab3c f340 abbd d43e 573c
00000090: 1cde d1bd 757d f03d 2afb f9be 27b0 f3bd
000000a0: f199 b53d ff3d 7fbd 66c8 7bbe 78ad debe
000000b0: a9b7 d63e 2ea4 37be 7b27 3b3d 45c0 d13d
000000c0: 1a03 2a3d 52ea 98be 4e77 7b3e 1afb c03d
000000d0: 20bc a3bb 84ed d3be c2b2 8f3e a192 babe
000000e0: 9391 043d bf99 7f3e 342a 89bd 1288 993d
000000f0: 0330 6dbe aa05 1b3e 411f 6f3c 3936 b23d
00000100: f4ee a33e 75b4 463e 17f8 8cbe ed52 4cbd
00000110: 48cf 3c3d 38b1 84be d9cc ba3e c34e a53d
00000120: 2eee 1d3e 952a 77bd 8408 08be b0bf e9bc
00000130: c8d1 e73d b3ec b63e d2cc 58bd b1ff ae3e
00000140: 7878 673e 29b1 1dbe 9e0e 1ebe 0d10 183f
00000150: bc3b 363d 2b52 d7bd f0ec 813c 8770 f8bc
00000160: 26ee 03bd db47 0bbe 4be6 613e 41cb 5abe
00000170: 5fd1 d63e c2d1 38be 09e1 39be 508f e13d
00000180: f4dc 5c3e 8151 83be 783a b5bc e6bf afbd
00000190: 9673 8f3d ae51 0f3f c687 1d3d d075 1d3e
000001a0: 5616 dd3b 2fb4 2c3d a7f7 6f3d b36b dabd
000001b0: 9040 213d 54b7 84be 27ae 02bd f203 08bd
000001c0: ca2b 72be f1e1 6abc 1473 81be 066c 9f3e
000001d0: a058 e83d 4632 243b c67c efbd d4b1 a43e
000001e0: 2cc1 223d d89f 763e 30c6 45bd 18fc 173e
000001f0: cd1a 57be acae 513d 5a80 fdbe d215 afbe
00000200: 5b01 903d d7cb 59be 1fbd 8c3d 8689 d5bd
00000210: a616 bd3d 6fd0 72bd 5585 debc 70a5 1bbe
00000220: aacd 703e e1f6 083e 1029 edbd e9cc 243b
00000230: 96c5 a63d 2991 99be 1cef 6d3e cd58 08be
00000240: 8c94 8bbc d65c 823c 93dc 203d 5a8f a2be
00000250: 3b96 4a3e 4f75 9e3e 9835 95be a08b 473e
00000260: a97d 31be 8f54 07be ee8e 47be 2256 0ebd
00000270: 3012 2cbe b017 053d 4c53 2cbc a7db 2ebe
00000280: c3f0 2a3e bb9f 2b3e 92b7 b2bd c659 a83d
00000290: 9ae1 5cbe 5744 78bd d808 0cbe c369 1e3d
000002a0: bf92 4f3d ef44 5fbe c99a d93a 43c2 623e
000002b0: 1756 8f3d fdd1 293e d6ad 4f3e c22d 233c
000002c0: 10a9 693c 27dd e03d b863 e5bd 32fc fabc
000002d0: 4718 a1be a9e8 493e 873c a3bd bbc2 093e
000002e0: da0c 223e 8e81 483e a06d 873c 0930 b23d
000002f0: 9ab1 7cbe 443b bc3e ac0d 323e 91fc b4bd
00000300: e07d 413e 97a8 8fbe 2c6e 043f da2e 383e
00000310: 87b4 e53e df3c 34bd 4cc4 22bd 6db0 ed3d
00000320: 5749 bc3e 2b7c 38bc 6ba5 043e dbaf 8c3e
00000330: a050 1d3e efa0 01be 577c 9dbd d8e1 53bc
00000340: e57d 8ebc 475e d6bd 1154 c03d 654d 9c3e
00000350: b7f2 72bd 129d 61bc ecf3 d4bd ad5a 4abe
00000360: 7b90 553e b8f3 a83c 8ab2 46be e184 943e
00000370: b873 1ebd 7d79 623e d206 18be 2135 42be
00000380: 8ee7 243e dde4 993d 4811 123e 4881 b6be
00000390: afa8 883e 05c6 96be 018e 113c ff84 e63d
000003a0: 8f4e c53e 7a6d b7be 25c3 4a3e a2ee 1ebe
000003b0: 8276 bb3d 1d7e 233e 555f d23d 537f d13e
000003c0: 3486 89be 4f02 71be e463 5fbd 9ed6 e7bd
000003d0: e18e d33c ed6a f0bd 5793 97bb e785 473d
000003e0: 3bc5 2e3e 6e45 ce3d 430a 0dbd dd7f fbbd
000003f0: 55de ab3d 1cbc a33d 52fa 053e 813b 2b3e
-0.16395798 0.5951209 0.25225914 -0.061650634 0.09531741 0.22107542 0.30876416 0.13236544
-0.37701014 0.16158833 0.18487537 0.14583932 -0.31710634 -0.083266936 -0.10814462 0.31099463
-0.41563076 0.034875553 0.26066852 0.116171435 0.021084812 -0.08218536 -0.29145184 0.18706755
0.22920369 0.11751899 0.19293648 -0.10921199 -0.1986172 -0.03385875 0.11742085 0.071362436
0.08788486 0.02093626 -0.083619975 0.013137538 -0.10247442 0.11742679 -0.48824435 -0.11898833
0.088672526 -0.062314983 -0.24588165 -0.4349172 0.41936997 -0.17933723 0.04569195 0.10241751
0.041506864 -0.29866272 0.2455723 0.09422894 -0.0049967915 -0.41392148 0.2806607 -0.36439994
0.032365393 0.24960993 -0.06697503 0.074966565 -0.23162846 0.1513888 0.014594854 0.087017484
0.32018244 0.19404776 -0.27533028 -0.04988377 0.046096116 -0.25916457 0.3648441 0.08071663
0.1542289 -0.060343344 -0.13284498 -0.028533787 0.113193095 0.35727462 -0.052929707 0.34179452
0.22604549 -0.15399612 -0.15435264 0.5939949 0.04449056 -0.10513719 0.01586005 -0.030327095
-0.032209538 -0.1360163 0.22060506 -0.21366598 0.41956612 -0.18048766 -0.1815225 0.11013663
0.21568662 -0.2564812 -0.022122607 -0.085815236 0.07004468 0.5598401 0.03845956 0.15376973
0.0067470474 0.042164024 0.05858579 -0.10665073 0.039368212 -0.25921118 -0.031904366 -0.033206888
-0.23649517 -0.014336095 -0.2528311 0.31137103 0.11345029 0.002505438 -0.116937205 0.32166922
0.039735004 0.24084413 -0.04828471 0.1484226 -0.21006317 0.05119197 -0.49511987 -0.34196335
0.070315085 -0.21269165 0.068720095 -0.10426621 0.092328355 -0.05928081 -0.027163187 -0.15199828
0.23515955 0.13375427 -0.11580098 0.002514655 0.08143155 -0.2999356 0.23235744 -0.13315125
-0.017038606 0.015913408 0.039272856 -0.31749994 0.19783871 0.30948874 -0.2914245 0.19486856
-0.17333092 -0.1321585 -0.19488117 -0.03475011 -0.16803813 0.032493293 -0.010517906 -0.17075978
0.16693406 0.16760151 -0.087264195 0.08220248 -0.21570435 -0.06061205 -0.13675249 0.03867508
0.050677057 -0.2180364 0.0016601916 0.22144417 0.06998842 0.1658401 0.20281157 0.00995964
0.014261499 0.109796815 -0.112006605 -0.030637834 -0.31463835 0.19717659 -0.07970529 0.1345319
0.15825215 0.19580671 0.016531765 0.08700568 -0.24677125 0.36763966 0.17388028 -0.08837236
0.18895674 -0.2805831 0.5173061 0.17986622 0.44864294 -0.044003364 -0.039737985 0.11605916
0.36774704 -0.011260073 0.12953727 0.27477917 0.15362787 -0.12659048 -0.076897316 -0.012932263
-0.017394016 -0.10467201 0.093910344 0.30527797 -0.059313502 -0.013770359 -0.10398087 -0.19761153
0.20855896 0.020624027 -0.19404045 0.2900763 -0.038684577 0.22116657 -0.14846352 -0.1896558
0.16103956 0.07514355 0.14264405 -0.3564551 0.26691195 -0.29447952 0.008883954 0.11255836
0.38536498 -0.3582571 0.19801004 -0.15520719 0.09153463 0.15966077 0.102720894 0.40917453
-0.268602 -0.23536037 -0.054538622 -0.11320232 0.025824966 -0.117391445 -0.0046257186 0.048711684
0.17067425 0.100718364 -0.034433614 -0.12280247 0.08392016 0.079948634 0.13083771 0.16721918

action_model._discrete_distribution.branches.0.bias f4 [2]
00000000: dfce c13d 6fc6 c1bd
0.09463286 -0.09461676

action_model._discrete_distribution.branches.1.weight f4 [2, 256]
00000000: 9483 fdbd 078d 683c 988d d93d 3b8e 813e
00000010: 6287 ac3d f291 7c3d 5eb3 ffbc 0db3 52bc
00000020: a015 67be dccb 2c3e 8641 38bd f2e4 ab3c
00000030: a5ae 6dbe ca0a 833d 1485 8d3c 063c ae3d
00000040: 0fd5 debc 4ad1 bdbd 9c46 06bd 3138 763d
00000050: de47 ae3d 4fa0 4cbe 6950 57be 4e7a 1f3d
00000060: 7b24 f5bd 0c1b 2a3d 4429 a13d ecaa 13be
00000070: ccc0 973d cc02 da3d c7d3 27bd 7827 ce3d
00000080: 0638 e1bc ec7b ab3d 4df3 cabd 209d 8e3d
00000090: ecad b4bd 8b5b bbbc 2e62 06bc 4e13 173d
000000a0: 33df 92bc 3c6f 88bd 602c 3abd 6d1a 4d3e
000000b0: 0bfb 223e 67c0 0c3d 894e 3bbd 6a8c 29bc
000000c0: 6e72 733e 5f77 453e 855f 913d 2a09 0b3e
000000d0: 3bd7 1f3e 7664 eabd 1126 89bc fbfe 3bbd
000000e0: 1b2f 883d 3a1f de3c b340 61be 4a35 0d3e
000000f0: 5817 86be d199 573d e90a 65bd 7ef9 33bd
00000100: d8a6 45bc 8b31 b13d 3976 39bd 41e6 d9bd
00000110: 57b7 d9bb 7b3c 96bd d331 a33c 0b22 373e
00000120: 3297 9a3d 8d81 693d ae70 af3b 4c25 ce3d
00000130: c0fe ac3d 63e8 503e 4a40 653d 196f 373d
00000140: dae5 1a3e 6575 72bc 2311 eb3c 67ba 54bc
00000150: b54c 863d 8f99 8cbc 4b03 7bbe 9bdf f53d
00000160: a3d9 2f3e 744c dd3d ce2e 3e3d 03c6 02be
00000170: 79ae 533c ca40 48be 360c ca3d fae2 103e
00000180: caa8 b93d 886b a4be 79df 5a3e 0b49 a73c
00000190: bf4d f83d 6789 133d 5fc2 843e 7003 563d
000001a0: cdfc e93d a6ff 89bd 409c cc3d 0264 813d
000001b0: 7b60 723d d59c 363c d631 093c 3746 54be
000001c0: 8ef9 803e 451c 543c af80 0dbe 0ecc 08bc
000001d0: e7b1 2d3a 997b 78bb 1886 6fbc ff70 693d
000001e0: ecd9 6a3d 18cb 6cbc 7f1f 5b3e bbdc 0a3d
000001f0: 9af2 02bd 355b a03c 3e04 fabd 514f a5bc
00000200: 2dc7 d43b 0632 26be 1447 c9bc c408 7f3d
00000210: 24dd 94bd a831 86bc 5fba 983d 3cac 833d
00000220: c1de 9e3d ce31 95bd 3f86 893c fe49 e73c
00000230: 815c b23d 5147 45bd e3c2 da3c 593d f3bc
00000240: 2a26 e6bb 4b08 b53a 6cc8 29bc ecfa 23be
00000250: bde9 92bd d331 2f3e c4d0 74bd 0318 a1bc
00000260: 09dc d5bd 2e33 803d 2328 85bc af7e 0a3c
00000270: 1118 3b3e 71da 1abe 6a08 bcbc 093c a53d
00000280: bdad cbbc d39b 0e3d e7bc cebc 3217 2e3d
00000290: 2ef2 5d3d b188 e63d 0407 9abd e75e 453d
000002a0: 8e48 8abd 8129 20bd 872d 1b3d b979 3c3d
000002b0: a680 2c3d 79c1 50bd ffcf abbd 84bd 7a3d
000002c0: f6df 203e 0213 273e 7e65 8abd 6e3d 813d
000002d0: 5bdd 90bd 91cd 173e 51b8 c53d 6c6b bfbb
000002e0: d6fe 203d aa4b 2a3d 17b0 a73d 5e95 ae3c
000002f0: f3c1 b23d e8ca c93c ef8c 25bc bea9 1a3e
00000300: 9842 c2bc db46 fd3b c821 2f3d 29c6 a4bc
00000310: 8ea5 57bb aa33 b03d 0d56 26be b380 083c
00000320: 6644 7c3d e062 a03d bc08 e83c b0d7 fc3c
00000330: e150 91bc e226 bbbc 1c53 b3bd b66e a23d
00000340: 8200 1abd aaa6 c0bd 8729 b2bd ad9f c8b9
00000350: 4520 9e3d 05f3 8cba 2265 18be dab1 513d
00000360: 5f40 0c3d 8442 55bd 2a8d de3d 79cf 153d
00000370: 54f5 3cbe a76a 333d c61d a73d 452d cebc
00000380: adec 4dbd c988 3d3d aca5 d93d 35c2 e03c
00000390: 38c1 883d e3bd 7e3c 745b 193e ea16 d6bd
000003a0: 403c 7f3d ae8c df3d 9949 f03c 11a4 8bbd
000003b0: 6386 20bd e2f9 8d3b 5117 febd f49e 373e
000003c0: 09e0 22be 7df9 763d 4865 053c db0f ba3c
000003d0: 8cd1 02be 631a 4fbe 3d53 193d 26bb 313d
000003e0: 1b1c 65be f9a5 173b 6d16 5d3d d5f3 83bd
000003f0: f01c 67bd 9b7b eeba 4f86 293e c549 5fbd
-0.12378612 0.01419378 0.1062271 0.25303826 0.0842426 0.06166262 -0.031213459 -0.012860072
-0.22566843 0.16874641 -0.044984363 0.020983193 -0.23211153 0.06398542 0.01727537 0.08507542
-0.027201204 -0.09268434 -0.032782182 0.060112182 0.08509801 -0.19983028 -0.21026768 0.038935
-0.11969849 0.0415297 0.07869199 -0.1442067 0.0740982 0.10645065 -0.04097345 0.10066122
-0.027492534 0.083732456 -0.09909687 0.06963563 -0.088222355 -0.0228708 -0.008202119 0.036883645
-0.017928695 -0.06661841 -0.045452476 0.20029612 0.15916078 0.034363177 -0.045729194 -0.010348419
0.2377412 0.19283818 0.07098297 0.13577715 0.15609448 -0.11444943 -0.016741784 -0.045897465
0.0664961 0.0271145 -0.21997337 0.1378986 -0.26189685 0.052636925 -0.055918608 -0.043939106
-0.012063704 0.08652028 -0.04527876 -0.106396206 -0.0066441703 -0.073357545 0.019921219 0.1788408
0.075483695 0.057008315 0.0053540086 0.100657076 0.08447027 0.20401148 0.055969514 0.044783685
0.15126744 -0.014798497 0.028694695 -0.012983895 0.065575995 -0.017163066 -0.24512975 0.1200554
0.17172866 0.10805598 0.046431355 -0.12770848 0.0129200155 -0.19555965 0.0986561 0.14149085
0.09065397 -0.3211329 0.2137431 0.020420572 0.12124204 0.03601971 0.25929543 0.052249372
0.11425171 -0.06738214 0.0999074 0.06317903 0.059174042 0.01114579 0.008373698 -0.2072991
0.25190395 0.012946193 -0.1381862 -0.008349432 0.0006625936 -0.0037915467 -0.014619373 0.056992527
0.057336733 -0.014452718 0.21398734 0.03390191 -0.031969644 0.01957474 -0.122078404 -0.020179423
0.00649347 -0.1623002 -0.024570026 0.06226422 -0.07268742 -0.0163811 0.074574225 0.064293355
0.07757331 -0.0728489 0.016787646 0.028233524 0.0870905 -0.048163716 0.026704257 -0.029692339
-0.0070235925 0.0013811676 -0.010362726 -0.16013688 -0.07173488 0.1710885 -0.059769407 -0.01966477
-0.10442359 0.06259762 -0.01625449 0.008453055 0.182709 -0.15122391 -0.02295323 0.080680914
-0.024863118 0.034816574 -0.02523656 0.04250259 0.05418604 0.112565406 -0.075208694 0.04818621
-0.0675212 -0.03910208 0.037885215 0.04601452 0.042114876 -0.05096576 -0.083892815 0.061215892
0.15710434 0.16315845 -0.06757639 0.06310545 -0.0707347 0.14824511 0.09654296 -0.005841663
0.03930553 0.041576065 0.08187883 0.021311458 0.08728399 0.024632886 -0.010104402 0.15103814
-0.023713395 0.007729394 0.042756826 -0.020114021 -0.0032905075 0.08603604 -0.16243763 0.008331466
0.061588667 0.07831359 0.028324477 0.030864567 -0.017738761 -0.02284569 -0.08756086 0.07931273
-0.03759814 -0.09406789 -0.08699327 -0.0003826594 0.07720999 -0.0010753578 -0.14882329 0.051195003
0.034241077 -0.052065387 0.10866769 0.036574814 -0.1845296 0.043802883 0.08159976 -0.02516807
-0.05027454 0.046273027 0.106273025 0.027436355 0.066774786 0.015548202 0.14976293 -0.10453589
0.06231332 0.109155044 0.02933197 -0.068184026 -0.03919066 0.004332767 -0.12406791 0.1793173
-0.15905775 0.060296524 0.008141823 0.022712639 -0.12775248 -0.2022491 0.037432898 0.04339137
-0.22374003 0.00231397 0.053976465 -0.06442992 -0.05642408 -0.0018194796 0.16555141 -0.05451371

action_model._discrete_distribution.branches.1.bias f4 [2]
00000000: abc7 8e3d 9ec7 8ebd
0.069716774 -0.06971668
