Assets/ML-Agents/config/results/smart_tank_04/AgentTank/AgentTank-4999949.onnx (onnx, 309310 bytes, 12 tensors)

discrete_action_output_shape f4 [1, 2]
0	0x40000000	2.0
1	0x40000000	2.0

network_body._body_endoder.seq_layers.0.weight f4 [256, 34]
0	0xbd94f4a9	-0.07273228
1	0x3ed33e0d	0.41258278
2	0xbe033ea7	-0.12816869
3	0x3e801221	0.2501383
4	0xbe3e4a36	-0.18582997
5	0x3c17a80d	0.009256375
6	0xbe08bc07	-0.13352977
7	0x3ddd9002	0.10818483
8	0xbed5fd87	-0.4179499
9	0xbd52c46e	-0.05145686
10	0x3ea217ec	0.31658876
11	0x3de107b8	0.109878
12	0x3cc5746f	0.024103371
13	0xbee5805b	-0.4482449
14	0xbc3e9b34	-0.011633683
15	0x3e08c4dd	0.13356347
16	0x3d6a72dd	0.05723845
17	0xbe9d9b4e	-0.3078255
18	0xbbb75349	-0.005594645
19	0xbe918f29	-0.28429535
20	0x3e012797	0.12612759
21	0xbb88e263	-0.004177378
22	0xbd4b2461	-0.04959524
23	0x3e2f9508	0.17146695
24	0x3dd1a928	0.10237342
25	0x3c8e2897	0.01735334
26	0x3b162421	0.0022909718
27	0x3dba44a1	0.09095121
28	0xbe6a4290	-0.22876954
29	0xbd3c75e1	-0.046010856
30	0xbe208d3e	-0.1567888
31	0x3f0dcebe	0.5539359
32	0xbd236427	-0.039890435
33	0x3e4be87e	0.19912907
34	0xbeb9a5cb	-0.36259302
35	0x3d34374a	0.04399804
36	0x3c9cbd35	0.01913319
37	0xbdf8e443	-0.121529125
38	0x3e811d66	0.25217742
39	0x3e9aeb68	0.30257726
40	0xbe002fe6	-0.12518272
41	0x3e70fd05	0.2353402
42	0x3ce356c6	0.027751338
43	0xbe895faa	-0.26830798
44	0x3db91024	0.09036282
45	0x3e9cae48	0.30601716
46	0x3f253be4	0.6454451
47	0xbd9c2a6b	-0.07625278
48	0xbe6e8167	-0.2329155
49	0x3e4bda69	0.19907536
50	0xbd4c957a	-0.04994724
51	0xbe94ea22	-0.2908488
52	0xbe1041da	-0.1408762
53	0x3e72fa3f	0.23728274
54	0xbde54cb7	-0.11196273
55	0x3e89d1e4	0.26917946
56	0x3d9f2b94	0.07771984
57	0xbd80bf4b	-0.06286486
58	0xbce16576	-0.0275142
59	0xbd8a12a2	-0.06741835
60	0xbe1a7415	-0.15083344
61	0xbe212db6	-0.15740094
62	0xbdf4e77c	-0.11958215
63	0x3d8a9b1b	0.06767865
64	0xbe56731e	-0.20942351
65	0xbe93518c	-0.28773153
66	0x3d50aabb	0.05094407
67	0xbd7fdb2c	-0.062464878
68	0x3badee26	0.0053079305
69	0xbd5fc6f6	-0.054633103
70	0xbeae3b08	-0.34029412
71	0x3e70903f	0.23492526
72	0xbe915471	-0.28384736
73	0x3e887c04	0.26657116
74	0xbd75ed8f	-0.060041007
75	0x3ee1a6d8	0.44072604
76	0xbe819381	-0.2530785
77	0xbccc14e3	-0.024912303
78	0xbe8cc13f	-0.27491185
79	0x3e15e7d4	0.14639217
80	0x3d0686c3	0.032843363
81	0x3f05ce02	0.5226747
82	0xbd2d1924	-0.042260304
83	0x3d950257	0.07275837
84	0xbd9756df	-0.07389616
85	0xbda0a097	-0.0784313
86	0xbe558c7c	-0.20854372
87	0x3eb6f10c	0.3573078
88	0x3ea36860	0.3191557
89	0x3c005c9d	0.007834581
90	0x3e34a7c3	0.17642121
91	0x3e33ca44	0.17557627
92	0xbe80ef71	-0.2518268
93	0xbc6aba74	-0.01432668
94	0x3d7258e9	0.059166823
95	0xbdc4b816	-0.09605424
96	0xbdc8dd50	-0.09807837
97	0xbe62ae39	-0.22136773
98	0xbbc8cb59	-0.0061277566
99	0x3e55cec9	0.20879664
100	0xbe37280f	-0.17886375
101	0xbdf51127	-0.11966162
102	0x3e08b835	0.1335152
103	0x3e2b2e65	0.16716917
104	0xbe4a46e2	-0.19753602
105	0x3de696b9	0.11259217
106	0x3e9192bf	0.2843227
107	0xbe6f8ced	-0.23393603
108	0x3d006ab2	0.031351753
109	0xbe7a66f7	-0.2445334
110	0x3c4a44a2	0.012345465
111	0xbea150e5	-0.3150703
112	0x3e80b6f5	0.25139585
113	0x3d23ae83	0.03996135
114	0x3de6e055	0.11273257
115	0xbea2c741	-0.31792644
116	0x3dad2cc6	0.084558055
117	0xbee68026	-0.45019644
118	0xbdb330a4	-0.08749512
119	0x3dc6b5af	0.09702622
120	0x3ef0efaa	0.4705785
121	0x3e7e1439	0.24812402
122	0x3f093a24	0.5360434
123	0x3e283288	0.16425526
124	0x3e085998	0.13315427
125	0xbd0a0dbb	-0.0337045
126	0xbed5a106	-0.41724414
127	0xbce7ced0	-0.028296858
128	0x3dfa5d91	0.122248776
129	0xbdd3347a	-0.103127435
130	0xbec43206	-0.38319415
131	0xbcf80135	-0.030274013
132	0xbda7c00f	-0.08190929
133	0xbd7c1055	-0.061539013
134	0xbd2eaf53	-0.04264767
135	0xbc6d5dc3	-0.014487687
136	0x3ea53b2b	0.32271704
137	0xbe8cae9c	-0.27476966
138	0xbe282963	-0.16422038
139	0xbc8dc9a9	-0.017308073
140	0x3df91966	0.121630475
141	0xbd9d0ad7	-0.07668083
142	0x3ddaa9ba	0.10676904
143	0xbec6ae66	-0.3880493
144	0x3e33c354	0.1755498
145	0xbe0a9a22	-0.1353536
146	0xbe2f0f2c	-0.17095631
147	0xbda37816	-0.07981889
148	0xbda2995d	-0.07939408
149	0x3eddb2d6	0.43300503
150	0x3e19861b	0.14992563
151	0xbe4883e6	-0.19581565
152	0x3e3f085a	0.1865553
153	0xbe153395	-0.14570458
154	0xbdcb4955	-0.09926096
155	0xbd8fae7b	-0.070157014
156	0x3bf6f659	0.007536691
157	0x3dc59e9b	0.09649392
158	0x3e15b6bf	0.14620493
159	0xbeba53db	-0.36392102
160	0xbe7c526f	-0.24640821
161	0x3e121129	0.14264359
162	0xbe06bd13	-0.13158064
163	0x3dde40d2	0.10852207
164	0x3cad26b1	0.021136614
165	0x3d7820fc	0.06057833
166	0xbe378c81	-0.17924692
167	0x3dca8918	0.0988943
168	0x3d92b973	0.07164278
169	0xbee09608	-0.43864465
170	0x3db6b785	0.08921722
171	0x3d5d2074	0.053986028
172	0x3ddbab87	0.107260756
173	0xbe7bab36	-0.2457703
174	0x3e338260	0.17530203
175	0x3c21a291	0.009865419
176	0xbd0ca54c	-0.034337327
177	0xbdcb7ce1	-0.09935928
178	0x3d3e16a3	0.046408307
179	0x3e569b63	0.20957713
180	0x3ec4b156	0.38416547
181	0xbc8173f2	-0.015802357
182	0x3e9a017f	0.30079266
183	0xbd91415a	-0.07092543
184	0x3defda55	0.117115654
185	0xbe41a7ec	-0.18911713
186	0xbd73311d	-0.05937301
187	0x3e16ade8	0.14714777
188	0x3cd88e87	0.02643515
189	0xbec470de	-0.3836736
190	0xbd4982e0	-0.049197078
191	0x3a7d704f	0.00096679194
192	0x3e43c01e	0.19116256
193	0x3d25af56	0.040450417
194	0x3e5313e9	0.20613064
195	0x3e42f521	0.19038822
196	0xbd3cf0cc	-0.04612808
197	0x3e78a54b	0.24281804
198	0xbdc55623	-0.0963557
199	0x3e316f7a	0.17327681
200	0xbe46803a	-0.19384852
201	0xbed3dba9	-0.41378525
202	0xbe24292a	-0.16031328
203	0xbe8f7692	-0.2802015
204	0xbe32d15e	-0.1746268
205	0xbe7e274f	-0.24819683
206	0x3e40cf37	0.18829046
207	0x3db0ab4c	0.08626422
208	0x3cd128f5	0.025532225
209	0xbd899954	-0.06718698
210	0xbce5db5c	-0.0280587
211	0xbca9dabd	-0.020734185
212	0xbbbd2cd5	-0.0057731667
213	0x3d628012	0.05529792
214	0x3bfcc191	0.0077135046
215	0x3d963dfe	0.07336043
216	0xbdc0b73a	-0.09409948
217	0x3e589702	0.21151355
218	0x3d9bdcf8	0.07610506
219	0xbdcab82a	-0.09898408
220	0x3e85041d	0.259797
221	0xbea1f457	-0.3163173
222	0x3d96185e	0.073288664
223	0x3e5ed3fb	0.21760552
224	0xbe6691ec	-0.22516602
225	0x3e33603a	0.17517176
226	0xbe06dc0b	-0.13169877
227	0xbdea8cfb	-0.11452671
228	0x3c3d49bb	0.011553223
229	0xbeb4ba70	-0.3529849
230	0x3d082a6f	0.033243593
231	0x3d8cc9af	0.068744056
232	0xbe4800ba	-0.19531527
233	0xbe504d8e	-0.20342085
234	0xbd669cee	-0.056302004
235	0x3df9768e	0.12180816
236	0x3de0bb7a	0.10973258
237	0xbf258bfa	-0.6466671
238	0x3e5e8a60	0.21732473
239	0xbe20a8bf	-0.15689372
240	0x3e0f71c7	0.14008246
241	0x3eb22e98	0.34801173
242	0x3e29f106	0.1659585
243	0xbe9bf229	-0.3045819
244	0x3e03f270	0.12885451
245	0xbda7bfb4	-0.08190861
246	0xbd79d30d	-0.06099229
247	0x3d8464f8	0.06464571
248	0x3dd8bc4f	0.10582792
249	0xbd967fd2	-0.073485985
250	0x3e823d7b	0.2543753
251	0xbdc3e690	-0.09565461
252	0x3e31426e	0.17310497
253	0x3db3dae0	0.087819815
254	0x3e93ae72	0.2884403
255	0x3e70a6e8	0.2350117

network_body._body_endoder.seq_layers.0.bias f4 [256]
0	0x3d678ccf	0.05653077
1	0x3dc2803b	0.09497114
2	0xbad53c74	-0.0016268627
3	0xbd319551	-0.04335529
4	0x3cf7cd3b	0.030249229
5	0x3d8acc42	0.0677724
6	0xbcdf8104	-0.0272832
7	0xbb798f10	-0.0038079657
8	0x3dcaa943	0.09895565
9	0xbca5f0af	-0.020256368
10	0x3c2ca75b	0.0105379475
11	0x3cf99797	0.030467791
12	0xbd461753	-0.048362087
13	0x3d64aed8	0.055830806
14	0x3cc55d7f	0.024092434
15	0x3dd214c4	0.10257867
16	0xbd1ee6f2	-0.038794465
17	0x3d2d1900	0.04226017
18	0xbcc5ea7d	-0.024159664
19	0x3d3dd530	0.04634589
20	0xbd8a528e	-0.06754027
21	0x3d6eeee0	0.058333278
22	0xbc7be340	-0.015374005
23	0xbd04fa5b	-0.03246532
24	0xbd132cfd	-0.035931576
25	0x3c29bebb	0.010360415
26	0x3c0c3564	0.008557651
27	0x3cfc91fc	0.03083133
28	0x3d28716a	0.041123785
29	0x3cf63c0e	0.030057933
30	0x3bef2355	0.007297913
31	0x3d1e34aa	0.038624443
32	0xbcd124a8	-0.025530174
33	0x3d43848b	0.047733825
34	0x3d19c77c	0.03754376
35	0x3db88e34	0.09011498
36	0x3ba86d43	0.005139978
37	0xbd6bc2f2	-0.05755896
38	0xbcc79d8b	-0.024367115
39	0x3da80850	0.082047105
40	0x3d4af3a4	0.04954876
41	0x3d1a50f0	0.037674844
42	0xbd924585	-0.07142166
43	0x3c428ff8	0.011875145
44	0xbd07e151	-0.033173863
45	0xba689ee2	-0.0008873773
46	0x3ce1fcb7	0.027586324
47	0xbdbe02f1	-0.09277905
48	0xbd2c951a	-0.04213438
49	0xbc5347d5	-0.012895544
50	0x3cfb1779	0.030650841
51	0x3da725d5	0.08161513
52	0x3c6d82ec	0.014496546
53	0x3c0ea224	0.0087056495
54	0x3c89aff1	0.016807528
55	0xbbf10ec1	-0.007356495
56	0x3d8c2238	0.06842464
57	0x3de780c5	0.11303858
58	0xbd5f23a8	-0.054477364
59	0x3cd9a860	0.026569545
60	0x3ceacc6a	0.028661925
61	0x3caffec3	0.021483785
62	0xbd65de2d	-0.056120086
63	0xbd4fc80c	-0.05072789
64	0x3d557bc7	0.052119996
65	0xbc3c197c	-0.011480685
66	0x3d29c96a	0.04145185
67	0xbc64f40f	-0.013974204
68	0x3d285266	0.041094206
69	0x3cc19e04	0.023634918
70	0x3da3293a	0.07966848
71	0x3c793fed	0.015212995
72	0xbc7c8183	-0.015411737
73	0xbd82aef0	-0.06381023
74	0xbd104c3f	-0.035228964
75	0x3d8aadf4	0.0677146
76	0x3d4282b1	0.04748792
77	0x3ac656da	0.0015132085
78	0x3ca5d42c	0.020242773
79	0x3d8a2d1b	0.067468844
80	0x3d5d8c1f	0.054088708
81	0xbcf18c29	-0.029485779
82	0x3bce9629	0.0063045216
83	0x3d6a4139	0.057191107
84	0x3d38a0be	0.04507517
85	0x3c93ef8c	0.01805856
86	0xbd3d89c7	-0.046273973
87	0x3d48714e	0.04893618
88	0xbd10611c	-0.03524886
89	0xbb88e8dd	-0.00417815
90	0xbcfa37a8	-0.030544117
91	0x3d444402	0.04791642
92	0x3d2c23f9	0.042026494
93	0xbd852718	-0.06501597
94	0x3d33715b	0.043809276
95	0x3dabbd65	0.083857335
96	0xbc965b45	-0.018354068
97	0x3af37f0f	0.0018577295
98	0x3d2fd602	0.042928703
99	0x3d98b61f	0.07456612
100	0x3d46658b	0.048436683
101	0x392040a7	0.00015282874
102	0xbd2f865e	-0.042852752
103	0x3d11d891	0.035606924
104	0x3cb4e6a3	0.022082632
105	0x3b745ee0	0.0037287995
106	0xbc5e7762	-0.013578268
107	0xbd9ce02c	-0.07659945
108	0x3cfd40db	0.030914715
109	0xbcd7bbbb	-0.026334634
110	0xbc13ac05	-0.009013181
111	0xbd61770e	-0.05504518
112	0xbc06183e	-0.008184491
113	0x3dd0d271	0.101963885
114	0x3c126083	0.008934143
115	0x3d847a67	0.06468659
116	0xbc0046c6	-0.007829374
117	0x3db4b681	0.08823872
118	0x3cf4fb74	0.029905058
119	0x3d37d090	0.044876635
120	0x3d4994eb	0.049214285
121	0x3dccd064	0.10000685
122	0xbce20d17	-0.027594132
123	0x3d503c68	0.050838858
124	0x3d30a438	0.04312536
125	0xbaeb7f9c	-0.0017967108
126	0xbccd1d40	-0.025038362
127	0x3c762acd	0.015024853
128	0xbbef8193	-0.0073091476
129	0xb8d7a89e	-0.00010283406
130	0x3d798540	0.060918093
131	0x3d24f534	0.040272906
132	0x3d9fe4f7	0.078073435
133	0xbcfc9256	-0.030831497
134	0x3beef1db	0.007292015
135	0x3c390e14	0.01129486
136	0xbd9b681f	-0.07588219
137	0x3d0efc6a	0.03490869
138	0xbd815fd0	-0.06317103
139	0x3ce21896	0.027599614
140	0xbc4aa15f	-0.012367575
141	0xbd8609c4	-0.065448314
142	0xbc564df1	-0.013080106
143	0x3cb50854	0.022098698
144	0x3ca1c221	0.019745888
145	0x3b7e4d8e	0.003880355
146	0xbc614747	-0.013749904
147	0xbd39e9db	-0.045389038
148	0x3d8e7e52	0.069576874
149	0xbd5e9b68	-0.054347426
150	0x3d4ae4f9	0.04953477
151	0x3d6d4a23	0.05793203
152	0xbcc0718c	-0.023491643
153	0xbc021537	-0.007939628
154	0xbd4a41b9	-0.049379084
155	0x3c443d20	0.011977464
156	0xbd790d1f	-0.06080353
157	0x3d1e11bc	0.03859113
158	0xbba4c3ff	-0.0050282474
159	0x3b6205d5	0.003448834
160	0xbcc2d822	-0.0237847
161	0xbd00c555	-0.03143819
162	0x3d955853	0.07292237
163	0xbb538c04	-0.00322795
164	0x3cfa70f6	0.030571442
165	0xbc1c6e53	-0.009547788
166	0x3c232c7c	0.009959336
167	0xbd1fb978	-0.038995236
168	0x3d1dead5	0.03855403
169	0xbdad1649	-0.08451516
170	0xbc5064f4	-0.012719382
171	0x3c9cb4cc	0.01912918
172	0x3d5111fb	0.051042538
173	0xbaece55a	-0.0018073723
174	0xbce8b2f4	-0.028405644
175	0xbba6a197	-0.005085181
176	0x3e08c215	0.13355286
177	0x3cc108b2	0.023563717
178	0x3b61f490	0.0034478046
179	0xbcdeaa2f	-0.02718076
180	0xbd65d505	-0.056111354
181	0xbd106aec	-0.03525822
182	0x3c3c16af	0.011480018
183	0x3dd489b0	0.10377824
184	0x3d21482f	0.03937548
185	0x3c30ea88	0.010798104
186	0x3ca239cf	0.019802956
187	0x3c8e054f	0.017336516
188	0x3cdb9bae	0.026807632
189	0x3c490305	0.012268786
190	0x3d217ea0	0.0394274
191	0x3da1cbad	0.07900176
192	0x3d09e524	0.03366579
193	0x3d8d795b	0.06907912
194	0x3d57db71	0.05269951
195	0x3cdcb32e	0.026940908
196	0xbd34827c	-0.044069752
197	0xbd324ba5	-0.04352917
198	0xbd170782	-0.036872394
199	0x3c114249	0.008865901
200	0xbcbfbcd9	-0.02340548
201	0xbd025a0b	-0.031824153
202	0xbd75c1ce	-0.05999928
203	0xbd28afc9	-0.041183267
204	0xbd85471c	-0.06507704
205	0x3d376e11	0.044782702
206	0x3cfb5981	0.030682327
207	0xbd2d308b	-0.042282622
208	0xbcc34e85	-0.023841152
209	0xbc15c825	-0.009141956
210	0x3cbfd2dd	0.023415977
211	0xb9b9dbd1	-0.00035449726
212	0xbb8a6e45	-0.004224571
213	0xbca9ada6	-0.020712685
214	0x3c21bf17	0.0098722195
215	0xbc283c38	-0.0102682635
216	0x3ca6e163	0.020371145
217	0x3db35433	0.08756294
218	0xbdc765e2	-0.097362295
219	0xbbf801ca	-0.0075685726
220	0xbd7af510	-0.061268866
221	0x3c878909	0.016544836
222	0x3d07b269	0.03312913
223	0x3cf9fa01	0.030514719
224	0x3d3edd4f	0.046597775
225	0xbb30e420	-0.0026991442
226	0xbbb80919	-0.005616319
227	0x3d07307c	0.033005223
228	0xbd7c4bca	-0.061595716
229	0x3d3090e7	0.04310694
230	0x3cdc21b4	0.02687154
231	0xbc39bd8c	-0.011336695
232	0x3db63937	0.088976316
233	0x3d6edfa4	0.05831875
234	0x3cf9c63a	0.03049003
235	0x3b69dccf	0.003568459
236	0xbccf5fc5	-0.025314221
237	0x3d12e612	0.035863943
238	0xbb20a7d8	-0.0024514105
239	0x3c42e34d	0.011895013
240	0x3c49bac5	0.012312596
241	0xbd5f4230	-0.05450648
242	0xbc8b459b	-0.017000964
243	0xbd132637	-0.035925116
244	0x3c89bd66	0.016813945
245	0x3c6adcbf	0.0143348565
246	0xbc1f9b4e	-0.009741617
247	0xb989b248	-0.00026263506
248	0x3c83aab4	0.016072609
249	0x3c84653d	0.016161555
250	0x3daeab87	0.0852881
251	0x3b05bf8c	0.002040836
252	0xbcd934e4	-0.026514478
253	0xbcfe033a	-0.031007398
254	0x3ca032e6	0.01955552
255	0xbc912390	-0.017717153

network_body._body_endoder.seq_layers.2.weight f4 [256, 256]
0	0x3d9552ee	0.07291208
1	0x3e22813c	0.15869612
2	0x3ba8ee73	0.0051553785
3	0xbe17053a	-0.14748088
4	0xbd8c25b5	-0.068431295
5	0xbdc44e2b	-0.09585222
6	0xbd918451	-0.071053155
7	0x3dafd300	0.08585167
8	0xbeb7eff4	-0.35925257
9	0x3cec6d92	0.028860841
10	0x3d3b8a3c	0.045786127
11	0xbe35df66	-0.17761001
12	0x3cdebc84	0.0271895
13	0xbe0bf7c3	-0.13668732
14	0x3dc2cddc	0.09511921
15	0x3ce33ccd	0.027738953
16	0xbd2e6b87	-0.042583015
17	0x3e04e7a3	0.12978987
18	0x3d0dfde5	0.03466596
19	0xbe3768e7	-0.17911111
20	0x3e21bbdf	0.15794323
21	0xbd91292c	-0.07087931
22	0x3d62361d	0.055227388
23	0x3d7d73f5	0.061878163
24	0xbcfdad16	-0.030966323
25	0x3d0b8d56	0.034070335
26	0xbb9600ba	-0.0045777233
27	0x3d086ef3	0.033308934
28	0xbe3c87c7	-0.1841117
29	0x3dc04a70	0.09389198
30	0xbe4b146d	-0.1983201
31	0x3e0450f3	0.12921505
32	0xbe12f24d	-0.14350243
33	0x3d1bd0ef	0.03804105
34	0xbe54d4bd	-0.20784278
35	0xbd50ad6f	-0.05094665
36	0xbd040133	-0.032227706
37	0x3dc79b3c	0.097464055
38	0xbe45d2d4	-0.19318706
39	0x3cdd1a68	0.02699013
40	0xbd255f85	-0.040374298
41	0xbcca6420	-0.024705946
42	0xbd99479f	-0.07484364
43	0x3e2796d7	0.16366135
44	0xbdeb38a2	-0.11485411
45	0xbdfc51cc	-0.12320289
46	0xbde1bbb9	-0.110221334
47	0x3d998991	0.07496942
48	0xbe0d8df6	-0.13823685
49	0xbc3a02cd	-0.011353207
50	0xbe0f549b	-0.13997118
51	0xbca726c2	-0.020404223
52	0x3e28ea56	0.16495642
53	0xbe3d11f1	-0.18463875
54	0xbdba43b1	-0.09094942
55	0xbaf7a6d9	-0.0018894329
56	0x3cf49e62	0.029860679
57	0xbc6fd2f5	-0.014637698
58	0xbd092d14	-0.033490255
59	0x3e339e2c	0.17540807
60	0x3d8176ef	0.06321513
61	0x3c10cb61	0.008837552
62	0xbe43c8c0	-0.19119549
63	0xbc39130c	-0.011296045
64	0x3e28225e	0.1641936
65	0xbe22bc6e	-0.15892193
66	0x3d832392	0.06403269
67	0xbe6591d0	-0.22418904
68	0xbccab566	-0.0247447
69	0xbd5bdb1a	-0.05367575
70	0xbe124a15	-0.14286073
71	0xbe188756	-0.14895377
72	0x3cfb084d	0.030643607
73	0x3b9a69de	0.0047123274
74	0xbc82801f	-0.015930234
75	0xbdba3680	-0.09092426
76	0x3df6dcbc	0.120538205
77	0xbd95b0c8	-0.07309109
78	0x3dae1896	0.08500783
79	0xbcdf9a14	-0.02729515
80	0x3dc317c6	0.09526019
81	0xb952a5ee	-0.00020088974
82	0x3d008d57	0.031384792
83	0xbcc2b71a	-0.02376895
84	0xbe6245e3	-0.22096972
85	0x3da79342	0.08182384
86	0x3e60ddbd	0.21959586
87	0xbe9fac1d	-0.31186
88	0xbda5fbe8	-0.08104688
89	0x3df5db78	0.12004751
90	0x3e012fe6	0.12615928
91	0xbd4a47c7	-0.04938486
92	0x3c9bbbc0	0.019010425
93	0xbd5608a3	-0.05225433
94	0xbde951e6	-0.11392574
95	0xbd418333	-0.047244262
96	0x3e09a828	0.13443053
97	0xbe16dd38	-0.14732826
98	0x3e950aa8	0.29109693
99	0xbcfb72ae	-0.030694332
100	0xbe7da067	-0.2476822
101	0xbe0c1e37	-0.13683401
102	0xbd6dc0fc	-0.058045372
103	0xbe4ac323	-0.19801001
104	0xbca37362	-0.01995248
105	0x3d8df6d5	0.06931845
106	0x3d84b5a1	0.064799555
107	0xbda9b31e	-0.08286117
108	0x3dbe4844	0.09291127
109	0xbbe9a115	-0.007129798
110	0xbdc75f9d	-0.09735034
111	0x3df90b4b	0.12160357
112	0xbe1dc19e	-0.1540589
113	0x3dabd854	0.08390871
114	0xbdb1e622	-0.086864725
115	0x3c375e1e	0.011191873
116	0xbcbaf334	-0.022821046
117	0x3d17db16	0.03707417
118	0x3e2f13b1	0.17097355
119	0x3d45a0c2	0.048249014
120	0xbddb4cbe	-0.10707997
121	0x3de36741	0.111036785
122	0x3e11c260	0.14234304
123	0xbe4ceaa8	-0.2001139
124	0xbe9eca8d	-0.3101391
125	0xbcb35ee1	-0.021895828
126	0xbd05b86b	-0.032646578
127	0x3e5a83ac	0.21339291
128	0xbcbf4a44	-0.023350842
129	0x3e165dc7	0.1468421
130	0xbdec150f	-0.11527454
131	0xbc38c1ed	-0.011276704
132	0x3bcaaf6d	0.006185463
133	0xbd991b50	-0.074759126
134	0x3d839548	0.064249575
135	0x3e037a64	0.12839657
136	0xbdce759a	-0.100810245
137	0xbda457f3	-0.080245875
138	0x3c2d440b	0.010575305
139	0xbe5816f6	-0.21102509
140	0x3e6967b9	0.22793473
141	0xbdc368ea	-0.09541495
142	0xbcc495ca	-0.023997206
143	0x3e13dbbb	0.1443929
144	0xbd272285	-0.040804405
145	0x3be031ba	0.0068418654
146	0x3e07dbf9	0.13267507
147	0xbda97b99	-0.082755275
148	0xbe4c3081	-0.19940378
149	0x3c5cbd1d	0.0134728225
150	0x3e7a1c42	0.24424842
151	0xbdbea617	-0.09309023
152	0x3d5dcaee	0.054148607
153	0x3deb3f07	0.11486631
154	0xbe165fb2	-0.14684942
155	0xbd92cdf0	-0.07168186
156	0xbddf0407	-0.1088944
157	0xbcfe7efe	-0.031066414
158	0x3e038744	0.12844568
159	0x3ddece51	0.108791955
160	0xbe0f2539	-0.13979043
161	0xbe0f445b	-0.1399092
162	0xbda11df1	-0.07867039
163	0xbc8d80f6	-0.017273407
164	0xbdfd6379	-0.123724885
165	0xbd991696	-0.07475011
166	0xbd771a84	-0.06032802
167	0x3e313eaa	0.1730906
168	0x3bd96d99	0.0066353795
169	0x3e0cc0b2	0.13745382
170	0x3d8994f5	0.067178644
171	0x3e3fab71	0.18717743
172	0x3d79c980	0.06098318
173	0x3d993de8	0.07482511
174	0x3e20b5ba	0.15694323
175	0x3e7a6a89	0.24454702
176	0xbdd0d6cc	-0.10197219
177	0xbb99f952	-0.0046989108
178	0xbd9070d9	-0.07052774
179	0x3e0ba22d	0.13636084
180	0x3d1640b6	0.036682807
181	0x3d586e3f	0.052839514
182	0x3c0e92a9	0.008701959
183	0xbe439ad2	-0.19102028
184	0xbe0232ad	-0.12714644
185	0x3e34f3d4	0.17671138
186	0x3cbb2dec	0.022849046
187	0x3e02cd10	0.12773538
188	0xbe1e6b30	-0.15470576
189	0x3d8a63b7	0.067573
190	0x3d114ee7	0.035475638
191	0x3e0700e1	0.13183929
192	0xbd1bcbcf	-0.038036164
193	0x3d21a947	0.039468076
194	0xbdcdda6e	-0.10051428
195	0xbe70fbc7	-0.23533545
196	0xbb4a25cb	-0.003084528
197	0xbe3e6e4c	-0.18596762
198	0xbd38489a	-0.044991113
199	0x3d2bb6a2	0.04192222
200	0xbcdc6171	-0.026901932
201	0x3e11d904	0.14242941
202	0x3d91d4a4	0.07120636
203	0xbe224765	-0.15847547
204	0xbd89af27	-0.06722861
205	0xbca80a3d	-0.020512694
206	0xbe1d7bad	-0.1537921
207	0x3e182f0f	0.14861701
208	0xbd7456d6	-0.059653126
209	0xbb38bbba	-0.0028188066
210	0x3e0b2301	0.13587572
211	0xbc3da921	-0.011575968
212	0xbe126ffb	-0.1430053
213	0x3b1eb068	0.0024214033
214	0xbe03c248	-0.12867081
215	0x3d3f95fb	0.046773892
216	0x3d8f4366	0.06995277
217	0xbde01ced	-0.10943017
218	0x3dc9a643	0.09846165
219	0x3dd15c2b	0.10222658
220	0x3d5f780e	0.054557852
221	0x3e1adddf	0.151237
222	0x3e8bb407	0.27285787
223	0xbd260382	-0.04053069
224	0xbdd77ad8	-0.105214775
225	0x3e41da13	0.18930845
226	0xbdc6f9d5	-0.097156204
227	0x3cf5452b	0.029940208
228	0xbd85fd1d	-0.06542418
229	0xbd948f1f	-0.07253861
230	0xbdcb5fce	-0.09930383
231	0xbe50092e	-0.20316002
232	0xbd88cbc0	-0.06679487
233	0x3da7eae4	0.08199099
234	0x3d383ce6	0.044979952
235	0xbcb2984d	-0.021801138
236	0x3c880295	0.016602794
237	0x3b5d5950	0.0033775158
238	0x3e04de81	0.12975504
239	0x3db2c306	0.08728604
240	0x3b6fecab	0.003660957
241	0xbd9bdac2	-0.07610084
242	0x3e15a4c4	0.14613634
243	0xbd68ff90	-0.05688435
244	0x3e0a5f96	0.13513026
245	0xbd297a6f	-0.041376527
246	0xbddd3124	-0.108003885
247	0xbce0f5da	-0.027460981
248	0xbe8e6d44	-0.27817738
249	0x3ddb01b1	0.10693682
250	0xbde20fab	-0.11038145
251	0x3dbe4380	0.09290218
252	0x3e67be87	0.22631274
253	0xbe817b48	-0.2528937
254	0x3e126f91	0.14300372
255	0xbe890a79	-0.26765803

network_body._body_endoder.seq_layers.2.bias f4 [256]
0	0xbd2edb06	-0.042689346
1	0x3cec8b39	0.02887498
2	0xbd4f1d9a	-0.05056534
3	0xbd687097	-0.056748
4	0xbd08cd6f	-0.03339904
5	0xbd97cb39	-0.074118085
6	0x3b9c0178	0.0047609173
7	0xbc65e359	-0.014031255
8	0xbd9993e2	-0.074989095
9	0xbd952543	-0.07282498
10	0xbd2154eb	-0.039387625
11	0xbd0871ab	-0.033311527
12	0xbd90ef3e	-0.07076882
13	0xbd5b8bc0	-0.053600073
14	0xbd04268b	-0.03226332
15	0xbd6c73a3	-0.057727467
16	0xbd5c2118	-0.0537425
17	0xbd6f5fce	-0.058440976
18	0xbd4e5ba2	-0.050380357
19	0xbd8f2b82	-0.0699072
20	0xbd21e829	-0.039528046
21	0xbca2fb36	-0.019895177
22	0xbdabc629	-0.083874054
23	0x3bbfa517	0.0058485377
24	0xbac6ea6d	-0.0015176065
25	0xbda85b0f	-0.08220493
26	0xbd241094	-0.040054873
27	0x3d1d9e66	0.03848114
28	0x3c1fc3fd	0.009751317
29	0xbd77947d	-0.060444344
30	0xbd8433a3	-0.064551614
31	0xbd6b720d	-0.057481814
32	0x3b6b5e15	0.0035914232
33	0xbd450efb	-0.04810999
34	0xbdd30c30	-0.10305059
35	0xbc2c3e5c	-0.0105129145
36	0xbdd6f45d	-0.10495827
37	0xbcd586f9	-0.026065337
38	0xbda404a4	-0.08008698
39	0xbd89bf9a	-0.06725998
40	0xbdf606f5	-0.12013046
41	0xbdce368b	-0.10068997
42	0x3d362e22	0.04447759
43	0xbd47bba2	-0.048762925
44	0x3bccc265	0.0062487596
45	0xbd669da1	-0.05630267
46	0xbc638c35	-0.013888408
47	0xbd786221	-0.060640458
48	0xbdff47c9	-0.12464864
49	0xbc824857	-0.015903635
50	0x3c59f0c3	0.013302031
51	0xbcd5a575	-0.026079873
52	0xbdc5e0ca	-0.09662016
53	0xbd2b4d36	-0.04182168
54	0xbd3db715	-0.04631718
55	0xbcd3556f	-0.025797574
56	0xbd824040	-0.06359911
57	0xbd16d7e0	-0.03682697
58	0xbcab9120	-0.020943224
59	0xbdf67ff6	-0.12036125
60	0xbdec47ae	-0.11537109
61	0xbd47b54a	-0.048756875
62	0xbd36e892	-0.04465539
63	0x3a0ef21d	0.0005452948
64	0xbd889978	-0.06669897
65	0xbbe5ea9f	-0.0070164944
66	0xbcc0a5fa	-0.023516644
67	0xbda8a8f7	-0.082353525
68	0x3c4a28ac	0.0123387985
69	0xbd476423	-0.048679482
70	0xbd22498f	-0.039620932
71	0x3b9c7b4f	0.0047754417
72	0xbb3a6b21	-0.0028445201
73	0xbc5aa868	-0.013345815
74	0xbd449f5e	-0.048003547
75	0xbbb6ee27	-0.005582589
76	0xbd056027	-0.0325624
77	0xbd93194d	-0.0718256
78	0x3c947491	0.01812199
79	0xbd08bfd9	-0.033386085
80	0xbcc85975	-0.024456719
81	0xbdb8e492	-0.09027971
82	0xbd416381	-0.047214035
83	0x3c6a7ae2	0.014311524
84	0xbdbf5383	-0.093421005
85	0xbdadcc16	-0.08486192
86	0xbd1c95b4	-0.038228706
87	0xbd6d3c30	-0.057918727
88	0xbd244715	-0.04010685
89	0xbd3eb338	-0.046557635
90	0xbd891170	-0.06692779
91	0xbc55e39b	-0.013054754
92	0x3d730a40	0.059335947
93	0xbd17f98e	-0.03710323
94	0xbd20bc8b	-0.03924231
95	0xbd44af9f	-0.048019048
96	0x3be15b31	0.006877326
97	0xbcdf83db	-0.027284553
98	0xbd55176c	-0.05202429
99	0xbdfeb4bd	-0.12436817
100	0xbccf2560	-0.025286376
101	0xbdbe8dac	-0.093043655
102	0xbc86373a	-0.016383756
103	0xbe22e6ff	-0.1590843
104	0xbd8ef5d7	-0.06980484
105	0xbd1d7172	-0.038438268
106	0xbdec38a5	-0.115342416
107	0xbd3da9e4	-0.0463046
108	0xbe1b2bb9	-0.15153398
109	0xbd8c2968	-0.06843835
110	0xbca3197d	-0.019909615
111	0x39f4fb84	0.000467267
112	0xbdb2191b	-0.08696195
113	0xbe289de1	-0.16466476
114	0xbd951f26	-0.07281332
115	0xbd119eb8	-0.035551757
116	0xbd8ce2f2	-0.06879224
117	0xbcbadb60	-0.022809684
118	0xbcd84e49	-0.026404517
119	0xbc9c9110	-0.01911214
120	0x3d1eae8b	0.038740676
121	0xbd010d22	-0.031506665
122	0xbd09a142	-0.033601053
123	0xbced0607	-0.028933538
124	0xbcd1aea5	-0.025595972
125	0xbc8817e6	-0.016612958
126	0x3b4dc83f	0.0031399874
127	0xbdb7b438	-0.08969921
128	0xbdf149b4	-0.11781636
129	0xbc928aa0	-0.017888367
130	0x3c986abb	0.01860558
131	0xbd32f631	-0.043691818
132	0xbc4c8626	-0.012483155
133	0xbe263846	-0.16232404
134	0xbd47f875	-0.04882093
135	0xbdaca645	-0.08430151
136	0xbd1d382b	-0.038383644
137	0xbdb29dd4	-0.087215096
138	0xbcae93af	-0.021310655
139	0xbdd9eb5a	-0.10640593
140	0xbd824c92	-0.06362261
141	0xbcc74a5c	-0.02432745
142	0xbc815b77	-0.015790684
143	0xbcaf0862	-0.021366302
144	0xbd34b703	-0.044119846
145	0xbcf3aa96	-0.029744428
146	0xbdf1e0fc	-0.118104905
147	0xbcd668ba	-0.026172984
148	0x3d29e16b	0.04147474
149	0xbd29b08e	-0.04142814
150	0xbd55b384	-0.052173153
151	0xbd705cfd	-0.05868243
152	0xbd98b332	-0.07456054
153	0xbdfaedcd	-0.12252388
154	0xbd8682aa	-0.06567891
155	0xbd20644b	-0.039158147
156	0xbc8a9d5c	-0.016920738
157	0xbd8e1f16	-0.06939523
158	0x3b747978	0.0037303846
159	0xbdbc2e8c	-0.091885656
160	0xb8fd9c21	-0.000120930614
161	0xbcea9144	-0.028633721
162	0x3d108608	0.035284072
163	0xbc44cbd7	-0.01201149
164	0xbd94e9db	-0.07271167
165	0xbdeb459e	-0.11487888
166	0xbdc0968e	-0.09403716
167	0xbd7f129c	-0.062273607
168	0xbbeada11	-0.007167109
169	0xbe145707	-0.14486323
170	0xbd8f8674	-0.07008067
171	0xbd2a4c56	-0.041576706
172	0xbd2741c8	-0.04083422
173	0xbd62f3fc	-0.055408463
174	0xbd24ffc4	-0.04028298
175	0xbbb83909	-0.0056220335
176	0x3d41c994	0.04731138
177	0xbdedb415	-0.116066135
178	0xbd964939	-0.07338185
179	0xbca95340	-0.02066958
180	0x3c407ef0	0.011749014
181	0xbdc8fb36	-0.0981354
182	0xbde85aaf	-0.113454215
183	0xbd013a3c	-0.031549677
184	0xbd0944fc	-0.033513054
185	0xbce08e84	-0.027411707
186	0xbdac7304	-0.08420375
187	0xbd6d1b9e	-0.057887666
188	0xbd055a16	-0.032556616
189	0xbd0f4a5e	-0.03498303
190	0xbd40c6a5	-0.047064442
191	0xbd40c784	-0.047065273
192	0xbdb000d3	-0.08593907
193	0xbd07b75b	-0.033133846
194	0xbd0428cd	-0.032265473
195	0xbd148fb9	-0.036269877
196	0xbd36abbd	-0.044597376
197	0xbd8a7f1c	-0.067625254
198	0xbcaa5af4	-0.020795323
199	0x3c9a3537	0.018824203
200	0xbd457b1e	-0.048213117
201	0xbd39b781	-0.04534102
202	0x3c21eff1	0.009883867
203	0xbd35ad75	-0.044354875
204	0x3d57d452	0.05269272
205	0xbd3aa7c5	-0.045570154
206	0x3c5df735	0.013547708
207	0xbe012fa3	-0.12615828
208	0xbd6d6487	-0.0579572
209	0xbd5638cf	-0.05230027
210	0xbc171728	-0.0092218295
211	0xbccee299	-0.025254535
212	0xbd6d6d84	-0.05796577
213	0xbc33b776	-0.010969033
214	0xbdd4d568	-0.103922665
215	0xbb970b10	-0.004609473
216	0xbbdcebeb	-0.006741991
217	0xbd40b165	-0.047044177
218	0xbd15ae48	-0.03654316
219	0xbcb6c9bb	-0.02231299
220	0xbd23d29d	-0.03999578
221	0xbcc8c8fb	-0.024509897
222	0x3c31215e	0.010811178
223	0xbd5bfef8	-0.053709954
224	0xbd014dea	-0.031568445
225	0xbcc5c893	-0.024143493
226	0xbd04ec08	-0.03245166
227	0xbd4ce2ae	-0.050020866
228	0x3c9c7cbb	0.019102445
229	0x3cf1a5ac	0.029497944
230	0xbcce0194	-0.025147237
231	0xbdacb4e3	-0.08432939
232	0xbddb28fe	-0.10701178
233	0xbdcee76b	-0.10102733
234	0xbd8eb7e2	-0.069686666
235	0xbcf3dbd0	-0.0297679
236	0xbc944a47	-0.018101824
237	0xbd8de32b	-0.069280945
238	0xbd0b99e3	-0.034082305
239	0x3cc3b895	0.023891727
240	0xbade763d	-0.0016972494
241	0xbd809e8a	-0.06280239
242	0xbcb9a321	-0.022660794
243	0xbda956c0	-0.082684994
244	0xbda9372a	-0.08262475
245	0xbd7b5870	-0.061363637
246	0xbdb10824	-0.08644131
247	0xbcac17ba	-0.021007407
248	0xbd2648cc	-0.04059677
249	0xbd608520	-0.054814458
250	0x3cca0207	0.02465917
251	0xbd357b9e	-0.044307344
252	0x3d09e638	0.03366682
253	0xbd34ceeb	-0.044142645
254	0xbc5a2fe1	-0.013317079
255	0xbd7c59a7	-0.061608937

action_model._continuous_distribution.log_sigma f4 [1, 2]
0	0xc00d8af6	-2.2116065
1	0xc038cd23	-2.8875206

action_model._continuous_distribution.mu.weight f4 [2, 256]
0	0xbdb95d5e	-0.090510115
1	0x3d807566	0.06272392
2	0xbbc285db	-0.005936367
3	0xbd1f7ee2	-0.038939364
4	0xbda64c21	-0.08119989
5	0xbb7c1560	-0.003846489
6	0x3ddd220d	0.1079751
7	0x3e5a7b46	0.21336088
8	0xbb854c1b	-0.0040679104
9	0xbba4b2a3	-0.005026178
10	0xbdada11a	-0.08477993
11	0x3c05ffc3	0.008178654
12	0xbd941ebc	-0.072324246
13	0xbdfaff19	-0.12255687
14	0xbdf01c13	-0.11724105
15	0xbd52d737	-0.051474776
16	0x3e16cb73	0.14726047
17	0x3df9e12a	0.1220115
18	0xbdeff8cd	-0.11717377
19	0x3d9cde82	0.076596275
20	0x390574ad	0.00012727334
21	0xbd92a79c	-0.07160875
22	0x3d260af7	0.0405378
23	0x3c33524c	0.010944914
24	0xbe695d61	-0.22789527
25	0xbd4cbcc7	-0.04998472
26	0xbcb88624	-0.0225249
27	0xbbc5111a	-0.0060140016
28	0xbb8a94b2	-0.0042291516
29	0x3cd345b4	0.025790073
30	0xbe079bc5	-0.13243015
31	0xbdb652be	-0.089025006
32	0x3b8c313d	0.0042783306
33	0xbd20888e	-0.03919273
34	0xbcb67cb0	-0.022276253
35	0xbdcc4492	-0.09974016
36	0xbd9371df	-0.071994536
37	0xbdfede1a	-0.12444706
38	0xbc7cedfc	-0.015437599
39	0x3d921289	0.071324416
40	0xbcd305f9	-0.025759684
41	0xbcf951ab	-0.03043445
42	0x3d6ea69c	0.05826436
43	0xbccc18b5	-0.024914125
44	0x3d64614b	0.05575685
45	0xbe03aa40	-0.12857914
46	0x3c2ffc6e	0.010741336
47	0xbd89afa7	-0.06722956
48	0xbd3c4804	-0.045967117
49	0xbc349cab	-0.011023681
50	0xbd9798ff	-0.074022286
51	0xbe1ebbc7	-0.15501319
52	0xbd1596c0	-0.03652072
53	0xbe02f1f4	-0.1278761
54	0xbd9d07d8	-0.07667512
55	0xbcafae7e	-0.021445509
56	0xbd6213ae	-0.05519455
57	0xbb352b8c	-0.0027644364
58	0xbdc8825d	-0.0979049
59	0xbd8742a7	-0.0660451
60	0xbd0777af	-0.033073124
61	0x3c3feefa	0.011714691
62	0x3d56aad2	0.052409
63	0x3ad90015	0.001655581
64	0xbdc5fb97	-0.096671276
65	0xbc21e3d8	-0.009880982
66	0x3dab8cea	0.083764866
67	0xbda6bb42	-0.08141185
68	0xbe43436a	-0.19068685
69	0xbb31698f	-0.0027070974
70	0xbe0c2d89	-0.13689245
71	0x3d9d1503	0.07670023
72	0x3d3450dc	0.044022426
73	0xbc44608a	-0.011985907
74	0xbd31f09f	-0.043442365
75	0xbd5c692a	-0.05381123
76	0x3cf573b3	0.029962396
77	0xbd0f9c4f	-0.035061177
78	0x3e42037e	0.18946645
79	0xbcdc35c7	-0.026881112
80	0x3cdfa434	0.027299978
81	0xbdf3fdc7	-0.119136386
82	0x3d6ab365	0.05729999
83	0x3becf921	0.007231847
84	0xbd9f9e73	-0.07793894
85	0xbd447aec	-0.04796879
86	0x3c34d093	0.011036056
87	0xbd5b3bf2	-0.053523965
88	0xbdcceb1d	-0.10005782
89	0xbc379eb6	-0.011207273
90	0xbdabafbc	-0.08383128
91	0xbd451e1c	-0.048124418
92	0xbd8ad5b9	-0.067790456
93	0xbc26ce06	-0.010180956
94	0xbc564321	-0.013077528
95	0xbd84adc0	-0.06478453
96	0xbe382258	-0.17981851
97	0xbde6be4a	-0.112667635
98	0x3c90db98	0.017682835
99	0xbc88bc93	-0.016691482
100	0x3d84664a	0.064648226
101	0xbc03315b	-0.008007373
102	0x3d12aa03	0.035806667
103	0x3ee7886b	0.45221266
104	0x3c579366	0.013157701
105	0xbd5a99cf	-0.05336934
106	0xbc1f269d	-0.009713796
107	0xbd7254da	-0.059162952
108	0xbdb75ec3	-0.08953621
109	0xbe434bd0	-0.19071889
110	0xbd611940	-0.05495572
111	0x3c367e79	0.011138552
112	0xbcfc4d50	-0.030798584
113	0xbd5acb69	-0.053416643
114	0xbdb40c9d	-0.08791468
115	0x3d729a71	0.059229318
116	0xbcfe2460	-0.031023204
117	0x3d9ae301	0.07562829
118	0xbe085134	-0.13312227
119	0x3c231c97	0.009955547
120	0x3dc46c3d	0.09590957
121	0xbc1d151c	-0.009587552
122	0xbe166799	-0.14687957
123	0x3d6b69c9	0.05747393
124	0xbdf646e5	-0.12025241
125	0xbc4a4ed7	-0.012347898
126	0x3c6d2bf4	0.014475811
127	0x3d9a0852	0.07521118
128	0xbdc4d19b	-0.096102916
129	0x3d8918b5	0.066941656
130	0x3d4ace44	0.049513116
131	0xbdd5ab32	-0.104330435
132	0x3bfdfdb6	0.007751192
133	0xbd459139	-0.0482342
134	0xbe0f8035	-0.14013751
135	0xbe2bc8b0	-0.16775775
136	0x3b776785	0.0037750911
137	0xbcbcafc5	-0.023033032
138	0xbd2398b0	-0.039940536
139	0xbd5e9d70	-0.054349363
140	0xbdcf6314	-0.101263195
141	0xbc45c5a7	-0.01207105
142	0xbe542537	-0.20717321
143	0xbde7d751	-0.11320365
144	0x3b86708e	0.004102773
145	0xbb975b5e	-0.004619046
146	0xbda63679	-0.081158586
147	0xbe5d515d	-0.21613069
148	0x3db10bcd	0.08644829
149	0xbd105a2d	-0.03524225
150	0x3d871417	0.06595629
151	0xbe49de8c	-0.19713801
152	0xbcd6d40d	-0.02622416
153	0xbdbbeea5	-0.09176377
154	0xbd1435f6	-0.036184274
155	0x3d4c7fe7	0.049926665
156	0x3db18eff	0.086698525
157	0xbda8d812	-0.08244337
158	0x3e0b1835	0.13583453
159	0x3ba62c68	0.0050712116
160	0xbc3e3bde	-0.011610953
161	0xbb8c9c1b	-0.00429107
162	0x3d42fe91	0.047606055
163	0x3c584d45	0.013202016
164	0x3bf69d03	0.0075260415
165	0xbd902276	-0.07037823
166	0xbd8df735	-0.069319166
167	0xbb69c21d	-0.003566868
168	0xbcf6f6d7	-0.030147
169	0xbe816f07	-0.2528002
170	0xbd312d28	-0.043255955
171	0xbc8a61fe	-0.01689243
172	0xbe51aff3	-0.20477276
173	0x3a3819cb	0.00070228864
174	0xbcab60d9	-0.020920204
175	0xbbc543c7	-0.0060200426
176	0x3d5388df	0.051644202
177	0xbda5320d	-0.08066187
178	0xbda289a0	-0.07936406
179	0xbdf4b7f4	-0.11949149
180	0xbde4df08	-0.11175352
181	0xbd77dc18	-0.060512632
182	0xbd5bc9ab	-0.053659122
183	0x3b185304	0.002324284
184	0x3d5463a5	0.05185284
185	0x3d2bea3f	0.04197144
186	0xbc8260a3	-0.01591522
187	0xbbef8fd7	-0.007310848
188	0x3d15251c	0.036412343
189	0x3ce79e58	0.028273746
190	0xbdc14d3e	-0.09438561
191	0xbd5a0970	-0.053231657
192	0xbd798aed	-0.060923506
193	0x3cd01d57	0.025404615
194	0xbe27f3d4	-0.16401607
195	0x3d8b062f	0.06788289
196	0x3da5d0f4	0.08096495
197	0xbdb65aaf	-0.08904015
198	0xbac6cb4f	-0.0015166792
199	0xbe32967a	-0.17440215
200	0xbe442ce8	-0.19157755
201	0xbd0fb655	-0.035085995
202	0xbd6f8ce6	-0.05848398
203	0x3b1c5f2f	0.0023860445
204	0x3ccd3d1d	0.025053555
205	0xbd1adcb5	-0.03780814
206	0x3d85aa6f	0.06526648
207	0xbcd6d74b	-0.026225707
208	0xbc7d52bd	-0.015461621
209	0xbbd4348f	-0.006475992
210	0xbe27b15d	-0.16376252
211	0xbe56a16d	-0.20960017
212	0xbe231ac1	-0.15928175
213	0xbb985fd8	-0.0046500973
214	0xbd28ba13	-0.04119308
215	0x3e450d76	0.19243416
216	0x3c148eb8	0.00906723
217	0xbb88d80c	-0.0041761454
218	0xbcc33a89	-0.023831623
219	0x3d658448	0.056034356
220	0xbd7843c7	-0.060611513
221	0x3ddd65b0	0.10810411
222	0x3c37efd9	0.011226618
223	0x3bb63577	0.0055605727
224	0x3c8bcad2	0.017064486
225	0xbc84dc9d	-0.016218478
226	0x3d16d8b8	0.036827773
227	0xbe286d97	-0.16448055
228	0xbd2f79a0	-0.0428406
229	0x3c99b7f9	0.018764483
230	0xbe3a5c7f	-0.18199347
231	0x3e1cbe8c	0.15307063
232	0xbce4feca	-0.027953524
233	0xbe023f84	-0.12719542
234	0xbdee2a39	-0.11629147
235	0xbe280fe0	-0.16412306
236	0x3be75afa	0.007060406
237	0xbd2e04cc	-0.042485043
238	0xbdaa8dc6	-0.083278224
239	0xbba364a2	-0.0049863616
240	0xbc8a5ed4	-0.01689092
241	0x3ce91820	0.028453887
242	0xbe191652	-0.14949921
243	0xbd88df2f	-0.06683194
244	0xbb77b76c	-0.0037798537
245	0xbc0bdb94	-0.008536238
246	0x3cdcd6c1	0.026957871
247	0xbe1f784f	-0.15573238
248	0x3a38d9e7	0.0007051513
249	0xbda5ca5b	-0.08095237
250	0x3d6aa2cf	0.057284173
251	0xbe1c934e	-0.15290567
252	0x3da51a6b	0.080616795
253	0xbe1ffcde	-0.15623805
254	0x3d85b138	0.065279424
255	0xbda0806b	-0.07836994

action_model._continuous_distribution.mu.bias f4 [2]
0	0x3d8c24e8	0.06842977
1	0x3d47da26	0.048792027

action_model._discrete_distribution.branches.0.weight f4 [2, 256]
0	0xbdeab176	-0.11459629
1	0x3e667770	0.225065
2	0x3ccc9185	0.024971733
3	0x3db88104	0.09008983
4	0xbde78191	-0.1130401
5	0x3eb8d9a8	0.3610356
6	0x3db93b8b	0.0904456
7	0x3e0f5bd2	0.1399987
8	0xbe1a6a96	-0.15079722
9	0x3e7a358d	0.2443449
10	0x3d04004a	0.03222684
11	0x3d831ced	0.064020015
12	0xbe9bf9db	-0.30464062
13	0xbeb72844	-0.35772908
14	0xbebf2c98	-0.3733871
15	0x3e3e6592	0.18593433
16	0x3ec7820d	0.38966408
17	0xbe4eb2dc	-0.20185417
18	0x3e244572	0.16042116
19	0x3e85727a	0.260639
20	0x3c558551	0.013032273
21	0x3e630f2c	0.22173756
22	0x3e8d9b72	0.27657658
23	0x3e2ef6b1	0.17086293
24	0x3cc4a780	0.024005651
25	0xbe38b14c	-0.18036383
26	0x3e007d30	0.12547755
27	0xbdb1e1b3	-0.08685627
28	0x3a5e7f75	0.00084876205
29	0xbeb6a8a1	-0.3567553
30	0x3d194351	0.037417714
31	0xbdf50e33	-0.11965599
32	0xbdb706ab	-0.08936819
33	0xbd715755	-0.058921177
34	0xbe442248	-0.19153702
35	0xbea8a26a	-0.32936412
36	0xbe011a32	-0.12607649
37	0xbe455a3c	-0.19272703
38	0xbddf4943	-0.109026454
39	0xbe8556ab	-0.26042685
40	0xbee09a4c	-0.4386772
41	0xbd6b5c5f	-0.05746114
42	0x3f5b901f	0.85766786
43	0x3e7e0336	0.24805912
44	0x3e1cf28e	0.15326902
45	0xbe1a1b05	-0.1504937
46	0xbe9a81a1	-0.30177024
47	0xbd7f9ae4	-0.062403575
48	0xbe42b1dd	-0.19013162
49	0xbe302967	-0.17203294
50	0xbcfc5bec	-0.03080555
51	0xbd1d8c4e	-0.038463883
52	0xbeb5ef4a	-0.35534126
53	0x3d1266ff	0.035742756
54	0xbe5e8598	-0.2173065
55	0x3e1fe42e	0.15614387
56	0xbd75c46f	-0.060001787
57	0x3dfa86c6	0.12232737
58	0xbbec93cb	-0.0072197667
59	0x3c37cc5d	0.011218158
60	0x3c482546	0.012215918
61	0xbe020d29	-0.12700333
62	0x3e552c96	0.2081779
63	0x3f007d6c	0.5019138
64	0xbe39cddd	-0.18144937
65	0x3ea78f70	0.32726622
66	0x3e85bbc8	0.26119828
67	0xbe590be4	-0.21195942
68	0xbe736566	-0.23769149
69	0xbdcb2230	-0.0991863
70	0xbe964674	-0.29350626
71	0x3dc290bc	0.09500262
72	0x3e1b6613	0.15175657
73	0x3e578673	0.21047382
74	0xbdfcc941	-0.12343074
75	0x3e96b535	0.29435125
76	0x3dbe4258	0.09289998
77	0xbe2303aa	-0.15919366
78	0xbd9307eb	-0.071792446
79	0x3d2d1e87	0.04226544
80	0x3b9930b2	0.0046749944
81	0xbdbe9812	-0.09306349
82	0xbe297630	-0.16548991
83	0xbe2c6284	-0.16834456
84	0x3d1aa3a0	0.0377537
85	0x3de598ca	0.11210783
86	0xbeb2e79a	-0.34942323
87	0xbe915454	-0.2838465
88	0xbdace1e8	-0.08441526
89	0x3cec1f89	0.02882363
90	0x3d9fa58a	0.07795246
91	0x3e249c03	0.16075139
92	0xbe065a0e	-0.1312029
93	0x3dce60fa	0.100770906
94	0x3de80be7	0.11330395
95	0xbe708480	-0.23488045
96	0xbd37c375	-0.044864137
97	0x3e13845e	0.14405963
98	0x3ea2583c	0.31707942
99	0xbe22029b	-0.15821306
100	0xbbd76f31	-0.0065745343
101	0xbdd62a5d	-0.10457299
102	0xbeab602d	-0.33471814
103	0x3e23a87e	0.15982243
104	0xbdd3189e	-0.1030743
105	0xbd01a608	-0.03165248
106	0xbb470e0b	-0.003037336
107	0xbe9b4ede	-0.30333608
108	0xbd9bcfb5	-0.07607976
109	0xbe050294	-0.12989265
110	0xbe77b710	-0.24190927
111	0x3d42e5d2	0.047582455
112	0xbcae2aa0	-0.02126056
113	0xbe88882b	-0.26666388
114	0xbe40b936	-0.18820652
115	0x3c0d357a	0.008618707
116	0xbe12f775	-0.1435221
117	0x3e28ec40	0.16496372
118	0xbc35f6e2	-0.011106225
119	0x3df13c17	0.11779039
120	0x3e64e7a2	0.22353986
121	0xbd127d9f	-0.035764333
122	0xbd937295	-0.07199589
123	0xbde279b3	-0.110583685
124	0xbd749f81	-0.059722427
125	0xbe416073	-0.18884449
126	0x3eba3bd3	0.36373767
127	0xbe90e6d8	-0.2830112
128	0xbe8f8389	-0.2803004
129	0x3dcfb1dd	0.101413466
130	0x3e4391df	0.19098614
131	0xbd553cc6	-0.05205991
132	0x3ef3c64a	0.4761222
133	0xbd16e335	-0.036837775
134	0xbe3361b3	-0.17517738
135	0xbd113010	-0.035446227
136	0xbe3d8149	-0.1850635
137	0xbeb4df2f	-0.35326526
138	0x3d28d4db	0.04121862
139	0xbee058b6	-0.4381768
140	0xbeba253f	-0.36356542
141	0xbd3d3a92	-0.046198435
142	0xbd40ccee	-0.047070436
143	0x3e5e4f3a	0.2170991
144	0x3e966441	0.29373363
145	0xbc393ee4	-0.011306498
146	0xbea8c260	-0.32960796
147	0x3d6946fa	0.056952454
148	0x3e923251	0.28554013
149	0xbdfa31ba	-0.12216516
150	0x3ccc075a	0.02490585
151	0xbe0f06d4	-0.13967448
152	0xbe0bdea6	-0.13659152
153	0xbee89119	-0.454232
154	0x3e783545	0.2423907
155	0x3d8f0837	0.06983989
156	0x3e4b1912	0.19833782
157	0xbda0eb4b	-0.078573786
158	0x3dcf74fd	0.101297356
159	0x3d234ade	0.03986632
160	0x3e587c20	0.211411
161	0xbcc17415	-0.023614923
162	0x3dc62e37	0.096767835
163	0x3c262adb	0.0101420535
164	0xbd8ae99d	-0.067828394
165	0x3c91e318	0.017808482
166	0xbe8c2068	-0.27368474
167	0x3e83322a	0.2562421
168	0x3e50e6ee	0.20400593
169	0xbe7e4ad3	-0.2483323
170	0x3dff3e5e	0.124630675
171	0x3e3e61c9	0.1859199
172	0xbe85eae1	-0.2615576
173	0x3e57f222	0.2108846
174	0x3e3a19ce	0.18173906
175	0x3ed9bf78	0.42528892
176	0x3f8b8121	1.0898782
177	0xbe473267	-0.1945282
178	0xbe014607	-0.1262437
179	0x3d3d975f	0.046286937
180	0x3e058684	0.13039595
181	0x3da5b0cd	0.08090363
182	0xbeb338d2	-0.35004288
183	0x3d68e3da	0.05685792
184	0x3e30d4a6	0.17268619
185	0x3ecf1690	0.404469
186	0xbd3c7d7d	-0.046018112
187	0x3c9734d0	0.0184578
188	0xbe12ce68	-0.1433655
189	0x3cd856b3	0.026408529
190	0xbeb8ecde	-0.36118215
191	0xbe213c9f	-0.15745781
192	0xbee73ba5	-0.45162693
193	0xbe09cbea	-0.13456693
194	0xbd289c0c	-0.041164443
195	0x3db34689	0.08753688
196	0xbd646dab	-0.05576865
197	0xbe92c931	-0.28669122
198	0x3ef17be3	0.4716483
199	0xbe0984bf	-0.13429545
200	0x3d0d7417	0.03453454
201	0xbf0517eb	-0.5198962
202	0x3ddd15a3	0.107951425
203	0xbde1aab5	-0.11018888
204	0x3c71bef7	0.014755002
205	0xbd857be3	-0.0651777
206	0x3e749da8	0.23888266
207	0xbe6f9b34	-0.23399049
208	0x3d581e64	0.052763358
209	0x3e4e0b82	0.20121577
210	0xbddfd901	-0.10930062
211	0xbe78a2a5	-0.24280794
212	0xbe71143f	-0.2354288
213	0x3ebeb4ba	0.37247258
214	0xbe6436b3	-0.22286491
215	0xbd32e0ed	-0.043671537
216	0xbe8e468b	-0.27788195
217	0xbc348276	-0.011017432
218	0xbc5a8eea	-0.013339737
219	0x3cd7e1cd	0.026352787
220	0xbe331b7b	-0.17490952
221	0x3d5acb37	0.053416457
222	0xbcefdc4e	-0.029279854
223	0x3e142160	0.14465857
224	0x3d66080d	0.05616002
225	0xbe412e8a	-0.1886541
226	0x3f29d2e7	0.66337436
227	0xbe2c378e	-0.16818067
228	0x3e9ddcb0	0.30832434
229	0x3dc6df75	0.0971059
230	0x3df1060e	0.11768733
231	0xbeaa7bb1	-0.33297494
232	0xbed2dfd6	-0.41186398
233	0xbe905e73	-0.2819706
234	0x3d435224	0.047685757
235	0xbea4b7d3	-0.32171497
236	0x3dff51e2	0.1246679
237	0xbe717ea4	-0.23583466
238	0xbe176fba	-0.14788714
239	0x3ef7453f	0.48295018
240	0x3ef81297	0.48451683
241	0xbda7f51f	-0.0820105
242	0xbe10f75c	-0.1415686
243	0xbecc3065	-0.39880672
244	0xbe768451	-0.24073912
245	0xbdbf05e2	-0.09327294
246	0xbeb3d468	-0.3512299
247	0xbd1f2ff6	-0.0388641
248	0x3c628ed4	0.013827998
249	0x3e38adb9	0.1803502
250	0x3e87ef58	0.26549792
251	0xbdb6cca7	-0.08925753
252	0x3e6e22de	0.23255488
253	0xbe082f89	-0.13299383
254	0x3e4d497d	0.20047565
255	0xbe21fb0c	-0.15818423

action_model._discrete_distribution.branches.0.bias f4 [2]
0	0x3edcc9b5	0.4312264
1	0xbedcc49d	-0.43118754

action_model._discrete_distribution.branches.1.weight f4 [2, 256]
0	0x3db94ce0	0.09047866
1	0xbced6c21	-0.028982224
2	0xbe2a47f8	-0.16629016
3	0x3ca1163e	0.019663926
4	0xbdcc01e5	-0.09961299
5	0xbe3a4587	-0.18190585
6	0xbc20585a	-0.00978669
7	0x3e0f460a	0.13991562
8	0xbeaf732a	-0.3426755
9	0xbe18217f	-0.14856528
10	0x3d91efaa	0.071257904
11	0xbe5d85d8	-0.21633089
12	0x3ceae817	0.028675122
13	0x3cd72fba	0.026267875
14	0xbda82d24	-0.08211735
15	0xbc47cc94	-0.012194771
16	0x3e71f0ba	0.23626986
17	0xbd9ff139	-0.078096814
18	0x3d4dc369	0.050235186
19	0x3eb03bee	0.34420723
20	0x3c759f28	0.014991559
21	0xbd8ca943	-0.068682216
22	0x3da8aff6	0.08236687
23	0xbe60d54c	-0.21956366
24	0x3ad33acd	0.0016115546
25	0xbe0ccd32	-0.13750151
26	0xbde27900	-0.11058235
27	0x3a150916	0.0005685253
28	0xbce344a7	-0.027742697
29	0xbd115837	-0.03548452
30	0x3e1e4ede	0.15459773
31	0x3e1a681f	0.15078782
32	0xbd6a8658	-0.057257026
33	0xbdc7e66c	-0.09760746
34	0x3d8616ec	0.06547341
35	0x3de4f399	0.11179275
36	0xbca77628	-0.020442083
37	0xbdd8af1c	-0.105802745
38	0x3e4ac856	0.19802985
39	0xbd9a4ecf	-0.07534563
40	0x3e1087a5	0.14114244
41	0x3d40042e	0.046878986
42	0x3c7be08e	0.015373362
43	0xbe7b1a31	-0.2452171
44	0x3daa7a22	0.08324076
45	0x3cbbc1ff	0.022919653
46	0xbda88a4b	-0.08229502
47	0x3e83146c	0.25601518
48	0x3e2e3034	0.17010576
49	0x3e0d4471	0.1379564
50	0x3b316629	0.002706895
51	0xbb3f3240	-0.0029174238
52	0xbd3d17b6	-0.04616519
53	0x3d29a882	0.041420467
54	0x3d87ac93	0.06624713
55	0x3d81918a	0.063265875
56	0xbe6d667e	-0.23183629
57	0xbdbf5922	-0.093431726
58	0x3d46d10c	0.048539206
59	0x3cf6f0dd	0.03014415
60	0x3d557065	0.05210914
61	0xbe9cf470	-0.3065524
62	0xbb0e83a9	-0.0021745956
63	0x3d95507c	0.07290742
64	0x3dcff79a	0.10154648
65	0xbd43485c	-0.04767643
66	0xbdffc78c	-0.124892324
67	0xbe16c490	-0.1472342
68	0xbd661ed0	-0.05618173
69	0x3c824d29	0.015905933
70	0x3c19eca8	0.009394802
71	0x389711ab	7.203532e-05
72	0x3dc677b6	0.09690802
73	0xbd6640e9	-0.056214247
74	0x3d8281b7	0.063723974
75	0xbcf8456e	-0.030306544
76	0xbd33f4f9	-0.043934796
77	0x3dd3805a	0.103272155
78	0x3edcbcb9	0.43112734
79	0x3dbecea8	0.0931676
80	0xbdbf5791	-0.09342874
81	0x3e154d35	0.14580233
82	0x3e581f1e	0.2110562
83	0xbd6eff78	-0.058349103
84	0x3e379152	0.17926529
85	0x3e30aa2a	0.17252412
86	0x3d9101ca	0.07080419
87	0x3bdacc87	0.0066772136
88	0x3c05a898	0.008157872
89	0x3dad1527	0.084513
90	0x3c80207f	0.015640495
91	0xbe3eb794	-0.18624717
92	0xbe7c0c30	-0.24614024
93	0x3e02745a	0.12739697
94	0xbddbad4e	-0.107264146
95	0xbc3266eb	-0.010888795
96	0x3cb0c006	0.021575939
97	0x3d21f580	0.039540768
98	0xbdc4a439	-0.096016355
99	0xbe1378ea	-0.14401594
100	0x3d5541e9	0.05206481
101	0x3e4346ae	0.19069931
102	0xbdc361a0	-0.09540105
103	0xbdd25811	-0.102707036
104	0xbe46d1dc	-0.19415992
105	0x3daa5e67	0.08318787
106	0x3e11a5c4	0.14223391
107	0xbc7e586e	-0.015524013
108	0x3bc8559c	0.006113721
109	0x3d9bc191	0.07605279
110	0x3dcd6691	0.100293286
111	0x3dc466b1	0.09589899
112	0xbdb3cb19	-0.08778972
113	0x3d1dae5b	0.038496356
114	0x3d8d5b07	0.06902128
115	0x3db95a13	0.090503834
116	0xbcabf74e	-0.020991948
117	0x3d1727b1	0.036903087
118	0xbcf2b665	-0.029627988
119	0x3e2fbae4	0.17161137
120	0x3c9cf954	0.019161858
121	0x3d01a54a	0.031651773
122	0x3c6d7cb1	0.014495061
123	0x3ddbc95b	0.10731765
124	0x3d91d1d3	0.07120099
125	0xbc5590d6	-0.01303502
126	0x3cb59598	0.022166058
127	0x3e817792	0.25286537
128	0x3d355946	0.04427459
129	0xbb84231e	-0.0040325066
130	0x3dab66c5	0.08369211
131	0xbd0efd6c	-0.03490965
132	0xbd911411	-0.070839055
133	0xbe13bddf	-0.14427899
134	0xbdd3da14	-0.103443295
135	0x3b2d4def	0.0026444157
136	0x3e9c4e5d	0.30528536
137	0xbcc327d5	-0.023822704
138	0x3f2b2dbc	0.6686666
139	0x3d06b398	0.032886118
140	0xbdb4b844	-0.088242084
141	0x3dae1a61	0.08501125
142	0xbcec5485	-0.028848896
143	0xbd618ae6	-0.055064104
144	0xbdc33e90	-0.09533417
145	0xbe153d51	-0.14574172
146	0xbd0c052a	-0.034184612
147	0xbd2bef88	-0.04197648
148	0x3d833f80	0.06408596
149	0x3dc63caa	0.096795395
150	0x3e916d52	0.28403717
151	0xbdcf7791	-0.10130227
152	0xbdb0fc26	-0.086418435
153	0x3e4ccf6c	0.20001
154	0xbc9cc329	-0.019136028
155	0x3da15ff7	0.07879632
156	0xbe0464b5	-0.12929042
157	0xbc42fc7a	-0.011901015
158	0xbd2396e6	-0.03993883
159	0xbe8d8cdd	-0.27646533
160	0xbe608798	-0.21926725
161	0xbc54d356	-0.01298984
162	0x3dbba540	0.09162378
163	0xbe72ce07	-0.23711406
164	0xbe81e840	-0.25372505
165	0xbd3378c7	-0.043816354
166	0x3bf7687f	0.0075502987
167	0x3ee778a7	0.45209238
168	0xbe0ab971	-0.13547303
169	0x3e0f16aa	0.1397349
170	0xbd91ba54	-0.071156174
171	0xbdac2db3	-0.08407154
172	0x3da7c321	0.08191515
173	0x3d25d9a3	0.040490758
174	0x3d9ead81	0.07747937
175	0x3b32520e	0.0027209553
176	0xbb9c7bfc	-0.0047755223
177	0xbcae2aa7	-0.021260573
178	0x3db7180c	0.089401335
179	0xbbdcc4e6	-0.0067373393
180	0x3b59b2e6	0.0033218204
181	0x3d5c0649	0.05371693
182	0xbd11f008	-0.035629302
183	0xbda74e25	-0.08169202
184	0x3cf7bf65	0.030242631
185	0xbe9a5ae0	-0.30147457
186	0x3d6df581	0.05809546
187	0x3d0dd7df	0.0346297
188	0x3db79000	0.08963013
189	0xbe3bba01	-0.18332674
190	0x3dac9059	0.0842597
191	0x3e04de93	0.1297553
192	0x3e8b0495	0.27151933
193	0xbe2fe9b7	-0.17178999
194	0x3e40a9c8	0.18814766
195	0x3df18c49	0.117943354
196	0xbea65972	-0.32490116
197	0xbc3fd4a0	-0.011708409
198	0x3bb763c5	0.0055966103
199	0xbdb710da	-0.08938761
200	0xbbb2a7fe	-0.005452155
201	0x3e1ad39f	0.1511979
202	0xbc4092e7	-0.011753774
203	0xbd13ef5d	-0.036116946
204	0x3db4c774	0.08827105
205	0x3e0aa2f9	0.13538732
206	0x3dc46eee	0.09591471
207	0x3c00fcfe	0.007872818
208	0xbdfecd6b	-0.12441524
209	0xbe016133	-0.12634735
210	0xbcb12d0e	-0.021627929
211	0x3d41f612	0.04735381
212	0x3da86c3d	0.0822377
213	0xbc8a6c31	-0.016897293
214	0xbc32e7c5	-0.010919516
215	0x3dd6ead3	0.10494008
216	0x3e265a9a	0.16245499
217	0x3d8bda3f	0.068287365
218	0xbe423094	-0.18963844
219	0x3db47d1f	0.088129275
220	0xbe011762	-0.12606576
221	0xbd607b1f	-0.054804917
222	0x3ebf916a	0.3741563
223	0xbcd0cb95	-0.0254877
224	0xbd446fe0	-0.047958255
225	0x3d050cd0	0.032482922
226	0xbe0019fb	-0.12509911
227	0xbd9b9343	-0.07596447
228	0x3dbeb0f0	0.09311092
229	0x3c6c58f6	0.014425507
230	0xbe934677	-0.28764698
231	0x3e7207d6	0.23635802
232	0x3c37ebde	0.011225669
233	0xbd1f9a70	-0.038965642
234	0x3d0ec805	0.034858722
235	0xbd33c813	-0.043891978
236	0xbd6439b0	-0.055719078
237	0x3dbd0c8d	0.092309095
238	0x3e1c4114	0.152592
239	0x3c3e75b1	0.0116247395
240	0x3d220110	0.039551795
241	0xbcfae3d3	-0.030626213
242	0xbd3915a6	-0.04518666
243	0x3b88f8c5	0.0041800463
244	0xbd2e8cf4	-0.042614892
245	0x3daf18bc	0.085496396
246	0xbe839c50	-0.25705194
247	0x3ca08f4c	0.01959958
248	0xbe90e3d4	-0.2829882
249	0xbe1e01e4	-0.15430409
250	0x3ede6565	0.43436733
251	0xbe7eac2e	-0.24870369
252	0x3d14502a	0.036209263
253	0x3e3ab5b8	0.18233383
254	0x3e0e4784	0.13894469
255	0x3d4b73d1	0.049670998

action_model._discrete_distribution.branches.1.bias f4 [2]
0	0xbd07d5a4	-0.033162728
1	0x3d07d5d8	0.03316292
