Assets/ML-Agents/config/results/tank_beta_0.001_3_layers/AgentTank.onnx (onnx, 572825 bytes, 14 tensors)

discrete_action_output_shape f4 [1, 2]
0	0x40000000	2.0
1	0x40000000	2.0

network_body._body_endoder.seq_layers.0.weight f4 [256, 34]
0	0x3cfb3dd5	0.030669132
1	0x3e2388e7	0.15970193
2	0xbd71f9ba	-0.05907605
3	0x3e8465cc	0.25858915
4	0xbe9f2213	-0.31080684
5	0xbe2ffec6	-0.17187032
6	0xbe58aff3	-0.2116087
7	0xbd2063b6	-0.03915759
8	0x3d052322	0.03250421
9	0xbd69a293	-0.05703981
10	0xbc46cac9	-0.012133309
11	0xbe425f78	-0.18981731
12	0xbe9b4870	-0.30328703
13	0x3c8d2f92	0.017234597
14	0xbe23846f	-0.15968488
15	0x3c423444	0.011853281
16	0xbeb6090a	-0.3555377
17	0x3e7fc92b	0.24979083
18	0x3dd498ae	0.10380684
19	0x3dda26e3	0.10651948
20	0x3e2e9e34	0.17052537
21	0x3c8538db	0.016262462
22	0xbe316c29	-0.17326416
23	0x3d7db715	0.06194218
24	0xbd71e5b8	-0.059056967
25	0xbe4e6178	-0.20154369
26	0x3ea9b17c	0.33143222
27	0x3e8a8efa	0.27062207
28	0xbcc71fed	-0.024307216
29	0x3dd63b21	0.10460497
30	0x3e0ce0f1	0.13757683
31	0x3eb2068c	0.3477062
32	0x3e787dba	0.24266711
33	0xbcc06675	-0.023486355
34	0x3cf7dfc3	0.030258065
35	0xbe0ee011	-0.13952662
36	0x3d06e46e	0.03293269
37	0xbaabfbd6	-0.0013121318
38	0x3e660f09	0.22466673
39	0xbdaeadc4	-0.08529237
40	0xba55ec0e	-0.000816048
41	0xbcb787f9	-0.022403704
42	0xbecfa069	-0.4055207
43	0x3dc9e7f1	0.098586924
44	0xbd07aa43	-0.03312136
45	0x3e4aa125	0.19788034
46	0xbe247836	-0.16061482
47	0x3d875ee0	0.06609893
48	0x3e6b9d65	0.2300926
49	0xbe3fd32a	-0.18732896
50	0xbdcc6fef	-0.09982287
51	0xbe3cd1b3	-0.18439369
52	0x3b04b0a6	0.0020246892
53	0x3e2c5d3a	0.16832438
54	0x3e52149a	0.20515671
55	0xba4392b8	-0.00074605225
56	0xbd418fed	-0.0472564
57	0xbcb38f87	-0.021919025
58	0xbd6770f9	-0.056504223
59	0x3d298fc5	0.041396875
60	0xbddf3faa	-0.10900815
61	0xbdde95b6	-0.10868399
62	0xbea98ad9	-0.33113745
63	0x3e17ed02	0.14836505
64	0xbccc4ee5	-0.024939964
65	0x3e3a4b6b	0.18192832
66	0x3dc3e723	0.0956557
67	0xbc9c416d	-0.019074166
68	0x3e1fadc7	0.15593635
69	0x3e38fc9c	0.18065113
70	0x3d76ade2	0.06022442
71	0xbd9ed0e8	-0.077546895
72	0x3e8a9f76	0.27074784
73	0x3e8a7d36	0.27048653
74	0x3e63e9a9	0.22257103
75	0x3d42b39c	0.04753457
76	0xbde32545	-0.11091093
77	0xbdfcb6cf	-0.123395555
78	0x3d766e66	0.060163878
79	0xbe92fd4f	-0.28708884
80	0x3c153e3d	0.009109077
81	0x3ed04ea9	0.40685013
82	0xbd808884	-0.06276038
83	0xbcc4f3b3	-0.024041986
84	0x3e47fd7a	0.19530287
85	0x3e8036a4	0.25041687
86	0xbea6457e	-0.32474893
87	0x3e9da1da	0.30787545
88	0x3e240fca	0.16021648
89	0xbbfa5df4	-0.0076405946
90	0xbd4b1849	-0.049583707
91	0x3e87ebda	0.26547128
92	0xbe7312ac	-0.23737592
93	0xbe952af6	-0.2913434
94	0x3e219d77	0.15782724
95	0xbeafd940	-0.34345436
96	0x3e86e2ba	0.26344854
97	0x3e077910	0.13229775
98	0x3d236ae4	0.03989686
99	0xbe8a771a	-0.27043992
100	0xbe72c165	-0.23706587
101	0xbda5f323	-0.08103015
102	0x3e16bddf	0.14720868
103	0x3d8404c3	0.06446221
104	0xbd3105c0	-0.043218374
105	0xbe1b8748	-0.15188324
106	0x3d338c9b	0.043835264
107	0xbda136ff	-0.07871818
108	0xbcc0e3f7	-0.023546202
109	0xbcd58d15	-0.02606825
110	0x3ead09e0	0.33796597
111	0xbe429e1c	-0.19005626
112	0xbe063f88	-0.13110173
113	0xbe1b8dab	-0.15190761
114	0xbca02fea	-0.019554097
115	0xbe9b742a	-0.30362064
116	0x3e059ed2	0.13048866
117	0xbc4dba00	-0.012556553
118	0x3dfedbcb	0.12444266
119	0x3e8e228b	0.2776073
120	0xbda6dbcb	-0.08147391
121	0xbe535394	-0.20637351
122	0x3e14b680	0.14522743
123	0x3dfd35fb	0.123638116
124	0xbd1a5ea2	-0.037687905
125	0x3e7fdbdb	0.24986212
126	0xbe9cd69d	-0.30632487
127	0xbd169e8a	-0.03677229
128	0x3dbffa53	0.093739174
129	0x3ca82e92	0.020530019
130	0x3e7f6379	0.2494029
131	0x3e55e068	0.20886385
132	0xbc8042d3	-0.015656864
133	0xbe0f1c4c	-0.13975638
134	0x3dfa7283	0.122288726
135	0x3cdd42ee	0.027009454
136	0x3e8daae3	0.2766944
137	0xbdd647a9	-0.10462887
138	0x3dbf2f2d	0.0933517
139	0x3e93f913	0.28900966
140	0xbea3db2d	-0.32003155
141	0xbc3d7676	-0.011563888
142	0xbe88856e	-0.266643
143	0xbd209071	-0.03920025
144	0x3e37125a	0.17878094
145	0x3d876775	0.0661153
146	0xbe589783	-0.21151547
147	0xbe1a7757	-0.15084587
148	0xbe642d14	-0.22282821
149	0xbe0d9762	-0.13827279
150	0x3e571ce2	0.21007112
151	0xbdb6a594	-0.089183
152	0x3e3dac20	0.18522692
153	0x3ee66e8d	0.4500622
154	0xbdbbaec5	-0.09164194
155	0x3e1017e7	0.14071618
156	0x3d7e0927	0.062020447
157	0x3c300cbf	0.010745226
158	0x3ef9a4f7	0.4875867
159	0xbe561d55	-0.20909627
160	0x3d1ddda4	0.03854145
161	0x3eb53bcc	0.35397184
162	0x3d77a696	0.060461603
163	0xbc78aee8	-0.01517842
164	0x3db01cf5	0.08599273
165	0x3dc8d81c	0.098068446
166	0x3e154242	0.14576057
167	0xbe1bab0e	-0.15201971
168	0xbd594013	-0.05303962
169	0x3ea9f36f	0.33193538
170	0x3ec04203	0.37550363
171	0x3e7b206f	0.24524091
172	0xbd8fc824	-0.07020596
173	0xbab5870a	-0.0013849449
174	0x3e1f6e3a	0.15569392
175	0xbd395c36	-0.045253955
176	0xbbda6b1e	-0.0066656014
177	0x3e05c4c9	0.13063349
178	0x3e4979d9	0.19675387
179	0x3e965b0b	0.29366335
180	0x3e7b87ed	0.2456357
181	0xbc9cc702	-0.019137863
182	0xbcdc2f43	-0.026878005
183	0x3de71c57	0.11284702
184	0xbcd117c7	-0.025524033
185	0xbdca0986	-0.09865098
186	0xbdaa7719	-0.08323497
187	0x3e054c24	0.13017327
188	0x3ad80f3f	0.0016484036
189	0xbea58216	-0.3232581
190	0xbe38c512	-0.18043926
191	0xbdde5061	-0.10855175
192	0xbada121d	-0.0016637478
193	0x3e66f593	0.22554617
194	0x3e497b47	0.19675933
195	0xbeb4c483	-0.35306177
196	0xbc82ce4a	-0.015967507
197	0x3e68a756	0.22720084
198	0xbeb3672f	-0.3503966
199	0x3d41c4ba	0.047306754
200	0x3e4a128c	0.19733638
201	0xbe3f1648	-0.18660843
202	0xbe56aa0f	-0.2096331
203	0x3c3bc680	0.0114609
204	0xbdd18f00	-0.10232353
205	0x3dc2cc63	0.0951164
206	0x3d888d60	0.0666759
207	0xbcaf1080	-0.021370173
208	0xbd622d2c	-0.05521886
209	0xbe263c12	-0.16233853
210	0x3e52dbfb	0.20591728
211	0x3e80a2fe	0.25124353
212	0xbe2889ee	-0.16458866
213	0xbe40980e	-0.18808004
214	0x3ec15757	0.37761948
215	0x3e7d2325	0.24720438
216	0x3db31813	0.08744826
217	0xbd0fdf1d	-0.035124887
218	0xbea0c25e	-0.3139829
219	0x3cddfcee	0.027098145
220	0xbdafdd67	-0.08587151
221	0x3e85f164	0.2616073
222	0x3e03e6a5	0.12880953
223	0xbd2f1652	-0.042745896
224	0xbf32cc1e	-0.6984271
225	0x3db40a29	0.087910004
226	0xbe3c15e4	-0.18367726
227	0x3da89d42	0.082331195
228	0x3d6aa21f	0.057283517
229	0x3db659a3	0.089038156
230	0xbea6cb8f	-0.32577178
231	0xbd8af009	-0.06784064
232	0xbda2bfef	-0.07946765
233	0xbe5e3a23	-0.21701865
234	0x3c8673c4	0.016412623
235	0xbeb91c87	-0.36154577
236	0x3d1c8679	0.03821418
237	0xbe84799c	-0.2587403
238	0x3d1827c0	0.037147284
239	0xbd97d1b7	-0.07413047
240	0x3e29d1f9	0.16584004
241	0x3df54126	0.11975317
242	0xbe09a96d	-0.13443537
243	0x3e4e3357	0.20136772
244	0xbdf80c70	-0.12111747
245	0x3db71db4	0.08941212
246	0xbd3c677a	-0.04599712
247	0x3d8b4f57	0.06802242
248	0x3ca5643f	0.020189403
249	0xbe716526	-0.23573741
250	0x3e296b98	0.1654495
251	0xbe39abbe	-0.1813192
252	0x3ea5b5d4	0.32365286
253	0x3e82318b	0.25428423
254	0x3e41fea3	0.18944792
255	0x3dca56e5	0.09879855

network_body._body_endoder.seq_layers.0.bias f4 [256]
0	0xbcf0f669	-0.029414373
1	0x3c833261	0.016015233
2	0xbd8d0928	-0.06886512
3	0xbd2f924e	-0.042864136
4	0x3cac88c6	0.021061312
5	0x3c3ea364	0.011635635
6	0xbb8dd4df	-0.0043283547
7	0xbd337d00	-0.04382038
8	0x3c943c1a	0.018095065
9	0x3cfe195b	0.03101795
10	0xbd02defb	-0.031950932
11	0x3bb40432	0.005493664
12	0xbdba23ef	-0.09088885
13	0x3ba73572	0.0051028067
14	0x3d1e6bf7	0.038677182
15	0x3db1e2d0	0.08685839
16	0xbccc06a2	-0.024905507
17	0xbcb70961	-0.02234334
18	0x3d10c32c	0.03534238
19	0x3d02bbc3	0.031917345
20	0x3ccba212	0.024857555
21	0x3c181fe0	0.009284943
22	0x3d373031	0.044723693
23	0xbc28d6dd	-0.010305134
24	0x3d1e7625	0.03868689
25	0x3cc3cee2	0.02390236
26	0x3d7a7974	0.061150983
27	0xbd85732b	-0.06516107
28	0x3d16b12d	0.03679006
29	0x3d37d00e	0.04487615
30	0xbd1d801f	-0.038452264
31	0x3c1617dc	0.009160962
32	0xbcbaa04c	-0.022781514
33	0x3b11db78	0.0022256058
34	0x3d7ddaa6	0.061976098
35	0x3ce1750f	0.027521638
36	0xbbde6774	-0.006787235
37	0xbc8a7587	-0.016901745
38	0x3cd1a0e8	0.025589421
39	0x3cd6a42a	0.026201326
40	0x3dc9aebd	0.09847782
41	0x3d15c318	0.03656301
42	0x3d6db4b7	0.05803367
43	0xbd38b0b1	-0.04509038
44	0x3a8c2efe	0.0010695157
45	0xbca1eec5	-0.019767174
46	0x3d78c8fd	0.060738552
47	0xbcdb0d63	-0.026739782
48	0x3cfb2c03	0.030660635
49	0x392c954e	0.00016458819
50	0xbc8fbc35	-0.017545799
51	0xbbcf79fb	-0.00633168
52	0x3d3729b6	0.044717513
53	0x3c969d87	0.018385662
54	0x3d67b92b	0.056573074
55	0x3be73805	0.0070562386
56	0x3cf8db8a	0.030378122
57	0x3cd792b1	0.026315065
58	0xbbaaf3d0	-0.005217053
59	0xbda0fa82	-0.078602806
60	0x3d82e7d1	0.06391872
61	0xbbf95fec	-0.0076103117
62	0xbdb4da33	-0.08830681
63	0xbd888e81	-0.066678055
64	0xbd73ba2e	-0.059503727
65	0x3d1f963a	0.038961627
66	0xbd8a59ca	-0.06755407
67	0x3d02e808	0.031959563
68	0xbcaa84b5	-0.020815233
69	0x3de81263	0.11331632
70	0xbd21c0b7	-0.039490428
71	0x3c28ce57	0.0103031015
72	0x3d9dc88b	0.07704266
73	0xbcb501ee	-0.022095647
74	0x3d442fc0	0.0478971
75	0xbcbced74	-0.023062445
76	0x3d03dbf0	0.03219217
77	0xbd49f64d	-0.049307156
78	0xbd3912c5	-0.045183916
79	0x3cddad43	0.027060157
80	0x3d1a3823	0.037651192
81	0xbca2f584	-0.019892462
82	0x3c47d172	0.012195932
83	0x3abc885f	0.0014383903
84	0x3cf100a0	0.029419243
85	0x3b3fa58f	0.0029242968
86	0xbd465ace	-0.04842644
87	0x3cbf8046	0.023376595
88	0xbd2e9882	-0.04262591
89	0xbdb64c48	-0.08901268
90	0xbda7a060	-0.08184886
91	0x3d10acf8	0.035321206
92	0xbda0a147	-0.07843261
93	0x3c7663db	0.015038456
94	0x3ce2e5e9	0.02769752
95	0xbb9e360c	-0.0048282202
96	0xbd42aeda	-0.047530033
97	0x3ba9d091	0.0051823338
98	0xbbd2f7b8	-0.006438222
99	0x3d7916ed	0.06081288
100	0x3cc96fe0	0.024589479
101	0x3d4ee3d8	0.050510257
102	0x3d4d6b79	0.050151322
103	0x3ab0077c	0.0013429965
104	0x3d64ce02	0.055860527
105	0x3c8319f4	0.016003586
106	0xbb5a1741	-0.003327802
107	0xbcc2f55a	-0.023798633
108	0x3c604e60	0.013690561
109	0x3d15d450	0.03657943
110	0xbd7586a3	-0.059942853
111	0x3d4ffcf7	0.050778355
112	0x3d3f309a	0.04667721
113	0xbd258c13	-0.04041679
114	0x3d48e5d7	0.049047317
115	0x3c45c84d	0.012071681
116	0xbd966208	-0.07342917
117	0xbb253fb4	-0.0025214972
118	0x3d13c4f5	0.036076505
119	0x3d206141	0.03915525
120	0x3b39920d	0.0028315813
121	0xbd729018	-0.05921945
122	0x3c16f52b	0.009213726
123	0x3c9c074a	0.019046444
124	0xbd31f7db	-0.043449264
125	0xbd1cfc61	-0.038326625
126	0xbbbeeb52	-0.005826392
127	0xbd563c7a	-0.05230377
128	0xbd17bda6	-0.037046097
129	0x3b4f087d	0.0031590753
130	0xbb6985b3	-0.003563267
131	0xbd0ff2ae	-0.035143547
132	0x3db47198	0.08810729
133	0xbd5423fc	-0.05179213
134	0x3d4152b5	0.047198016
135	0x3d10f2ae	0.035387687
136	0x3d62b410	0.055347502
137	0x3cefdca1	0.029280009
138	0xbd0c42d0	-0.034243405
139	0x3caf529e	0.0214017
140	0xbd8956c9	-0.06706006
141	0xbd31a15d	-0.04336678
142	0x3ca92090	0.02064541
143	0xbd6dd906	-0.058068298
144	0x3d4e81f6	0.05041691
145	0x3c018bf6	0.007906904
146	0xbdbcb586	-0.0921431
147	0x3cf2cb7a	0.02963804
148	0x3bc62a17	0.006047498
149	0x3d58bab1	0.052912418
150	0xbcc6bd98	-0.024260327
151	0xbcbd30c0	-0.023094535
152	0x3c96848d	0.018373752
153	0x3d17916a	0.037003912
154	0x388af55e	6.626056e-05
155	0x3c286851	0.010278777
156	0xbd184d9b	-0.037183385
157	0x3d93bcfe	0.07213782
158	0x3d5ccff2	0.05390925
159	0x3c5e504d	0.01356895
160	0xbd894b60	-0.0670383
161	0xbd8704f3	-0.06592741
162	0x3d0e0bd6	0.034679256
163	0x3d097818	0.033561796
164	0x3cbf2754	0.023334183
165	0x3cd3b17e	0.02584147
166	0x3c1168a8	0.00887505
167	0x3b98dde6	0.004665124
168	0x3d6be695	0.057592947
169	0x3d2d4099	0.042297933
170	0xbca3e574	-0.020006873
171	0xbce1524d	-0.027505064
172	0x3c880344	0.01660312
173	0xbc18926b	-0.0093122525
174	0x3ce87265	0.02837486
175	0xbc7fbe6e	-0.015609367
176	0x3ab78c2e	0.0014003569
177	0xbc6b4c14	-0.0143614
178	0xbb85104e	-0.0040607816
179	0xbd544476	-0.051823102
180	0x3d89f100	0.0673542
181	0x3d9e2267	0.077214055
182	0x3cbef965	0.02331228
183	0xbcfd85d0	-0.030947596
184	0xbbacd05f	-0.005273863
185	0xbd20c842	-0.03925348
186	0x3d5123d7	0.05105957
187	0xbc29cb43	-0.010363403
188	0xbd9eac1d	-0.07747672
189	0x3cff976b	0.031200131
190	0x3c40b78a	0.011762509
191	0xbc447763	-0.011991355
192	0xbb3a0000	-0.0028381348
193	0x3d1f75ea	0.03893081
194	0x3ccd676d	0.025073731
195	0x3d030f78	0.031997174
196	0xbcfbf504	-0.030756481
197	0xbd55d4bd	-0.052204836
198	0xbcaa47ad	-0.02078613
199	0xbd2b490f	-0.04181772
200	0x3d066d2e	0.032818966
201	0x3d28e483	0.04123355
202	0xbccd459c	-0.025057606
203	0x3c2165eb	0.009850959
204	0xbb8fb2c1	-0.004385323
205	0x3d9e1d01	0.07720376
206	0x3cf930d0	0.030418783
207	0x3c5e9ab3	0.013586688
208	0x3c70de4c	0.014701437
209	0x3cc485fd	0.023989672
210	0x3cba29ab	0.022724947
211	0x3ca303ab	0.01989921
212	0x3ccbf44b	0.024896761
213	0x3da6c996	0.08143918
214	0x3d1fdf2d	0.039031196
215	0x3d5ebdaf	0.054380115
216	0x3c04b586	0.008099919
217	0x3c2c4678	0.010514848
218	0x3d68a115	0.056794245
219	0x3d286219	0.04110918
220	0xb9615e99	-0.00021492912
221	0x3d9c7ffe	0.076416
222	0xbcef179c	-0.029186063
223	0xbcf68533	-0.030092811
224	0x3c151054	0.009098131
225	0xbc7067c9	-0.014673182
226	0x3c5ab33e	0.013348399
227	0xbca1c524	-0.019747324
228	0x3c4e9769	0.012609341
229	0x3cda1245	0.02662004
230	0xbd2724b6	-0.040806495
231	0x3d0d9c08	0.03457263
232	0xbd5be87b	-0.053688508
233	0xbc162197	-0.009163282
234	0x3c8746e9	0.016513305
235	0xbbd11c1b	-0.0063815243
236	0x3d201f83	0.039092552
237	0x3c5b3c6b	0.013381104
238	0xbca25e3f	-0.01982033
239	0xbb28ddb3	-0.0025766909
240	0x3a146aa1	0.0005661641
241	0x3c1db097	0.009624622
242	0xbd319cd4	-0.043362454
243	0x3d6a9b31	0.05727691
244	0x3cc109f0	0.023564309
245	0x3d44b3cc	0.04802303
246	0x3da51974	0.080614954
247	0xbc2dda41	-0.010611118
248	0xbc9fa725	-0.01948888
249	0xbd2208b7	-0.039559092
250	0x3cc5a6f3	0.02412746
251	0xbda11058	-0.078644454
252	0xbca0c686	-0.019625913
253	0x3d8a40cd	0.06750641
254	0x3c31d0bf	0.010852992
255	0xbb971c94	-0.004611561

network_body._body_endoder.seq_layers.2.weight f4 [256, 256]
0	0xbb9acc3b	-0.004724053
1	0xbdddc8c4	-0.10829309
2	0x3e56dff7	0.20983873
3	0x3db95e1e	0.090511546
4	0xbd0163fc	-0.031589493
5	0xbd1d0697	-0.038336363
6	0xbe11d0fe	-0.1423988
7	0xbcac6cb6	-0.021047931
8	0xbe285ea6	-0.16442356
9	0xbd5dee2f	-0.054182228
10	0x3d4e7a23	0.050409447
11	0xbdf9547f	-0.121743195
12	0xbd46269e	-0.048376672
13	0xbc070f8e	-0.008243455
14	0xbe4581e9	-0.19287838
15	0xbccc7e50	-0.024962574
16	0xbd8cc0f3	-0.0687274
17	0x3e215963	0.15756755
18	0x3db4bb3e	0.08824776
19	0x3da9c8ed	0.08290277
20	0x3d77356e	0.06035369
21	0x3e0392bb	0.12848942
22	0x3df68317	0.12036722
23	0x3e2aac0f	0.16667198
24	0xbe06908e	-0.1314108
25	0x3d2be15e	0.041962974
26	0xbc7e1d12	-0.015509861
27	0x3d307b45	0.04308631
28	0x3de08b7c	0.109641045
29	0x3decd989	0.11564929
30	0xbd8b8dbe	-0.068141446
31	0xbdce077a	-0.1006002
32	0x3d2bf45b	0.041981082
33	0x3d33859f	0.043828603
34	0x3c0a37d3	0.008436161
35	0xbe1a77c9	-0.15084757
36	0x3c035b75	0.0080174105
37	0x3d85c800	0.065322876
38	0xbc801f8e	-0.015640046
39	0x3de90e99	0.113797374
40	0x3d0b5c5a	0.03402362
41	0x3dc11c29	0.09429199
42	0xbdff9919	-0.12480373
43	0xbbf98c64	-0.007615613
44	0x3d3f2214	0.04666336
45	0x3c94fcf1	0.018187018
46	0x3d5e87bf	0.054328676
47	0xbcbdfd5a	-0.023192097
48	0x3bd26343	0.0064205243
49	0xbe055ccf	-0.13023685
50	0x3cc7e822	0.024402682
51	0x3ca90547	0.0206324
52	0xbc898f29	-0.016791897
53	0x3c61e785	0.013788109
54	0x3e7b18a3	0.24521117
55	0xbd92fac2	-0.071767345
56	0x3bfb4b37	0.0076688784
57	0xbd17b478	-0.037037343
58	0xbd390249	-0.045168195
59	0xbbf39215	-0.007433186
60	0xbd93dc9a	-0.07219811
61	0x3d471922	0.048607953
62	0xbd2fa1b7	-0.042878833
63	0x3bbe7308	0.0058120526
64	0x3d90e851	0.07075561
65	0x3cf6827e	0.03009152
66	0xbb5a4a6a	-0.0033308514
67	0x3de62b6b	0.1123875
68	0xbd8a6fc3	-0.06759598
69	0xbcd5e6b2	-0.02611098
70	0xbce1001b	-0.02746587
71	0x3dd60b63	0.104513906
72	0xbdd41ea4	-0.10357407
73	0xbc1b3cb3	-0.009474921
74	0xbd555c1e	-0.052089803
75	0x3b3c4c25	0.002873191
76	0x3dd2985e	0.10282968
77	0xbb87d40b	-0.0041451505
78	0x3da13a79	0.07872481
79	0xbda7a1fa	-0.081851915
80	0x3db12294	0.086491734
81	0x3cd2dc2f	0.025739757
82	0xbe83c36e	-0.2573504
83	0xbe0e8e97	-0.13921581
84	0xbdd3f420	-0.103492975
85	0xbe39d00b	-0.18145768
86	0xbc6aec05	-0.014338498
87	0x3e08d7b9	0.13363542
88	0x3e0f6ed2	0.14007118
89	0x3c01ffdf	0.00793454
90	0xbd1555ff	-0.036458965
91	0xbdbd7039	-0.092499204
92	0xbda9c9eb	-0.08290466
93	0xbd9fdcbd	-0.07805774
94	0xbde76e55	-0.11300341
95	0x3da99de5	0.08282069
96	0xbe3573f8	-0.1772002
97	0xbcdbec5c	-0.026846103
98	0xbe206422	-0.15663198
99	0x3e4eed40	0.20207691
100	0xbe801309	-0.25014523
101	0x3d275671	0.04085392
102	0xbdc08e02	-0.09402086
103	0xbe8c0f38	-0.2735536
104	0xbbd26d52	-0.0064217234
105	0x3b2da6fa	0.002649723
106	0xbd180576	-0.037114583
107	0x3d872585	0.06598953
108	0xbc94819a	-0.018128205
109	0xbdf3dff3	-0.11907949
110	0xbc98e70a	-0.018664856
111	0x3e141508	0.14461148
112	0x3c0b76c4	0.008512203
113	0x3dbc864f	0.09205305
114	0xbe41c8fe	-0.18924329
115	0xbe6f6f42	-0.23382285
116	0x3de0905e	0.10965036
117	0x3e115dc1	0.1419592
118	0xbd9252e4	-0.071447164
119	0x3c019af4	0.007910479
120	0x3d278400	0.04089737
121	0x3db4bc03	0.08824923
122	0x3d717625	0.058950562
123	0xbdfb88b2	-0.12281932
124	0xbccb089e	-0.024784382
125	0x3c9b8648	0.018984929
126	0xbc84b9b2	-0.016201828
127	0xbd77add2	-0.060468502
128	0xbd3abfd2	-0.04559309
129	0xbe09cbc6	-0.1345664
130	0x3c442d12	0.011973636
131	0xbe0c6d09	-0.13713469
132	0x3dabed54	0.08394876
133	0x3c923ea2	0.017852131
134	0x3d90cde2	0.07070519
135	0x3d9a31bc	0.07529017
136	0xbdb5d51b	-0.08878537
137	0x3e0b2c71	0.13591172
138	0x3b0ddfea	0.0021648356
139	0xbcb71a58	-0.022351429
140	0xbd85ffa3	-0.065428995
141	0xbc339591	-0.010960952
142	0xbd912179	-0.070864625
143	0x3ce4b7b3	0.027919626
144	0x3d438ab9	0.047739718
145	0xbdb2d7da	-0.08732577
146	0xbc56a74b	-0.013101409
147	0x3e1cd1fc	0.15314478
148	0x3c4b75a8	0.012418188
149	0x3e13284c	0.14370841
150	0x3d0e99f2	0.034814782
151	0x3bea8388	0.007156793
152	0xbd96d788	-0.07365328
153	0xbda132b3	-0.07870998
154	0x3db244b3	0.087045096
155	0x3d4254db	0.047444206
156	0x3d88b29b	0.06674691
157	0x3dff097f	0.12452983
158	0x3dee4515	0.1163427
159	0x3e65592d	0.22397299
160	0xbd652018	-0.05593881
161	0x3dc2abd8	0.09505433
162	0xbe855dfb	-0.26048264
163	0xbcb5fa7f	-0.022214172
164	0xbde21121	-0.11038423
165	0x3c9ad147	0.01889862
166	0x3d5cf8c2	0.05394817
167	0xbcb1a427	-0.02168472
168	0x3cce1f70	0.025161475
169	0x3d6739db	0.05645166
170	0xbde2a43e	-0.11066483
171	0x3e2418ab	0.16025035
172	0xbd7a0307	-0.061038043
173	0x3cc26e3d	0.023734206
174	0x3e1999ec	0.15000123
175	0x3c1d24f0	0.009591326
176	0x3dd89e12	0.105770245
177	0xbd61e9d3	-0.055154633
178	0x3b9bbd7c	0.004752813
179	0xbdd8b9f9	-0.105823465
180	0x3c2a7469	0.010403731
181	0x3e2543d2	0.16139153
182	0x3bcde148	0.006282959
183	0xbd0e1cc6	-0.03469541
184	0x3d481093	0.04884393
185	0xbd5d58a0	-0.054039598
186	0xbe36478f	-0.17800735
187	0x3bbf2618	0.0058333986
188	0x3dec9de9	0.115535565
189	0xbd49909e	-0.049210183
190	0xbd969cbc	-0.073541135
191	0xbd1fc633	-0.039007377
192	0xbd1db36c	-0.03850119
193	0x3ea6bcfd	0.32566062
194	0x3ba58465	0.005051183
195	0xbc6d2235	-0.014473488
196	0xbda024e9	-0.0781954
197	0xbc74a59a	-0.014932061
198	0xbe0f2080	-0.13977242
199	0xbcc9ab70	-0.02461788
200	0x3d79a2cc	0.06094627
201	0xbdd07ba8	-0.101798356
202	0xbc304886	-0.010759478
203	0x3d69fd30	0.057126224
204	0xbc5c9b54	-0.0134647675
205	0x3d9cd0a8	0.076569855
206	0xbaef1fa1	-0.0018243679
207	0x3e5a1231	0.21296002
208	0x3b9af3ba	0.0047287615
209	0x3cfd40bc	0.030914657
210	0x3d8aee47	0.06783729
211	0xbd426ccf	-0.04746705
212	0x3df5b84e	0.11998044
213	0xbd360cdd	-0.04444586
214	0xbc94608c	-0.018112443
215	0x3d88839b	0.06665727
216	0xbce6ca68	-0.028172687
217	0xbdcc1fdc	-0.09967014
218	0x3e0c94fe	0.13728711
219	0xbdd3bc7e	-0.103386864
220	0x3dcbab38	0.09944767
221	0x3dbb7921	0.09153963
222	0x3c076c24	0.008265529
223	0xbd4dca2c	-0.050241634
224	0x3e412faf	0.18865846
225	0xbdd7e34e	-0.10541402
226	0x3d919a70	0.07109535
227	0x3c85b253	0.016320383
228	0xbd421dec	-0.047391817
229	0x3e1ce1a9	0.15320458
230	0x3c841cf4	0.016127087
231	0x3e50da09	0.20395674
232	0x3da0deca	0.07854994
233	0xbd0ad799	-0.033897016
234	0xbd3717dc	-0.04470049
235	0xbe621c57	-0.22081123
236	0xbd285338	-0.04109499
237	0xbe1a0b7d	-0.15043445
238	0x3d40ebc9	0.047099862
239	0x3d2bc38b	0.04193453
240	0xbcfe4651	-0.031039389
241	0xbe0da816	-0.13833651
242	0xbc08116e	-0.008304937
243	0x3de299f4	0.110645205
244	0x3dc9d1ea	0.09854491
245	0xbd8221b9	-0.06354088
246	0xbde78bac	-0.11305937
247	0xbd9df7bd	-0.07713268
248	0xbdaac186	-0.08337693
249	0xbd961227	-0.07327681
250	0x3e05c31c	0.1306271
251	0xbe1fd87a	-0.15609923
252	0xbbc9a4c7	-0.006153676
253	0x3e1dae1d	0.1539845
254	0x3ded7f35	0.115965284
255	0xbe0fe6c4	-0.14052874

network_body._body_endoder.seq_layers.2.bias f4 [256]
0	0x3c398da5	0.011325275
1	0xbb8ac751	-0.004235186
2	0x3b202273	0.0024434596
3	0xbce872d1	-0.028375061
4	0x3d1d2c25	0.038372178
5	0xbd3a17b3	-0.045432758
6	0xbd229bee	-0.039699487
7	0x3be2325e	0.006902977
8	0xbb967893	-0.0045920103
9	0x3b4e992a	0.0031524398
10	0xbde6af54	-0.1126391
11	0xbba7655b	-0.005108518
12	0xbc486fec	-0.0122337155
13	0xbcef8d8e	-0.029242303
14	0x3c7a899d	0.015291599
15	0xbcf771df	-0.030205665
16	0x3c037150	0.008022621
17	0xbd81b120	-0.06332612
18	0xbc8ad652	-0.016947899
19	0xbd21dae2	-0.039515384
20	0xbbd4bba2	-0.006492094
21	0xbc5d2b5c	-0.013499107
22	0xbcc65337	-0.024209602
23	0x3b8a6caa	0.0042243795
24	0xbcf0d7a0	-0.029399693
25	0xbcdb5eb2	-0.026778553
26	0x3c302e55	0.010753234
27	0x3d9c07fd	0.07618711
28	0x3ba28318	0.0049594752
29	0x3b673458	0.0035279002
30	0xbbabfd4c	-0.005248701
31	0xbb904121	-0.004402295
32	0x3b465fb5	0.0030269448
33	0xbd510fc7	-0.051040437
34	0xbd115390	-0.035480082
35	0x3cdba076	0.026809912
36	0xbd82b9ee	-0.063831195
37	0xbcbd5818	-0.023113295
38	0xbbe42ee5	-0.006963598
39	0xbcb880f4	-0.022522427
40	0xbbad6067	-0.005291033
41	0x3c515af7	0.012778035
42	0xbd1a5f8e	-0.037688784
43	0x3cc88a58	0.02448003
44	0x3d931199	0.07181091
45	0x3ce878c2	0.028377894
46	0xbccd4df9	-0.025061594
47	0x3bfd1127	0.007722992
48	0xbbc0279a	-0.005864096
49	0xbc2a344b	-0.010388444
50	0xbce77a8c	-0.028256677
51	0xbd5e7a79	-0.054316018
52	0xbd92f993	-0.07176509
53	0x3ca43619	0.020045327
54	0xb9b90bfd	-0.00035294882
55	0xbce16c48	-0.027517453
56	0x3cc3a211	0.02388099
57	0x3c2e005b	0.010620202
58	0xbaafe85b	-0.0013420688
59	0xbbf0922e	-0.0073416447
60	0x3ca99615	0.020701448
61	0xbce7656e	-0.028246608
62	0xbcc28159	-0.023743318
63	0xbc7f8ba0	-0.015597254
64	0xbc7a9f91	-0.015296833
65	0x3cae947b	0.021311035
66	0xbcb97b0d	-0.022641683
67	0xbd35429f	-0.044252988
68	0xbcba0f59	-0.022712396
69	0xbcc105f9	-0.023562418
70	0xbc7bf058	-0.015377127
71	0xbd3491ec	-0.044084474
72	0x3c90caf1	0.017674895
73	0xbc7f5aef	-0.015585645
74	0xbd2d52b0	-0.042315185
75	0xbd55848b	-0.052128356
76	0xbd07e3b0	-0.033176124
77	0x3c989961	0.018627824
78	0x3ce91621	0.028452935
79	0x3d42d984	0.04757072
80	0x3d8178a9	0.06321842
81	0xbd1c2d96	-0.03812941
82	0xbcf24282	-0.029572729
83	0xbd311332	-0.043231197
84	0xbd3a18e5	-0.045433898
85	0x3d285f53	0.041106533
86	0xbbbf6cd5	-0.005841831
87	0x3c8ef297	0.01744966
88	0xbd38715a	-0.045029975
89	0x3bc7902c	0.0060901847
90	0x3bc70af7	0.006074305
91	0xbcb7e6f6	-0.022448998
92	0xbae1851d	-0.0017205809
93	0xbd60302d	-0.054733444
94	0x3be82520	0.007084504
95	0xbcfc8890	-0.030826837
96	0xbc38a057	-0.011268697
97	0x3cfee8bd	0.031116838
98	0x3d3cfb2e	0.04613798
99	0x3a856438	0.0010176962
100	0xbbe894cf	-0.0070978175
101	0xbb665711	-0.003514711
102	0x3c3742b3	0.011185336
103	0x3bb0639e	0.005382969
104	0xbd1a4a69	-0.03766862
105	0xbd415527	-0.04720035
106	0xbacf5ac0	-0.0015819892
107	0x3cbf4728	0.02334936
108	0x3c81c8d7	0.015842838
109	0xbd727567	-0.059193995
110	0x3d14061d	0.036138643
111	0xbd64d8aa	-0.05587069
112	0xbd15aec3	-0.03654362
113	0xbca54401	-0.020174028
114	0xbc2632ab	-0.010143916
115	0xbcf8fe84	-0.0303948
116	0xbce67d27	-0.02813585
117	0xbbd2254c	-0.0064131375
118	0xbd01daa4	-0.031702653
119	0x3d274842	0.040840395
120	0xbcc7dcae	-0.02439722
121	0xbcfe5afe	-0.031049248
122	0x3b9fffbf	0.004882782
123	0x3ca20478	0.019777521
124	0xbb77e4da	-0.0037825615
125	0x393785ca	0.0001750208
126	0xbbd98088	-0.0066376366
127	0xbcfa1d67	-0.030531598
128	0xbd444394	-0.04791601
129	0xbcc7dc32	-0.02439699
130	0xbcf18121	-0.029480519
131	0xbd806a18	-0.06270236
132	0xbc141b34	-0.009039689
133	0xbc2adec2	-0.010429086
134	0xbc559697	-0.013036392
135	0x3b2a3355	0.0025970538
136	0x3ca0e248	0.01963915
137	0xbc413610	-0.011792675
138	0x3d2d8bd1	0.042369667
139	0x3ca6bd4e	0.02035394
140	0xbd122115	-0.03567608
141	0xbbb6b918	-0.005576264
142	0xbbc3bd8a	-0.0059735226
143	0x3c2e9368	0.010655262
144	0xbcb0c520	-0.021578372
145	0xbc4169bb	-0.011804993
146	0xbcefdb87	-0.029279483
147	0xbd31ac72	-0.043377347
148	0xbcd2980c	-0.025707267
149	0xbcc7d218	-0.024392173
150	0xbca01651	-0.019541891
151	0xbd6da1cf	-0.05801564
152	0xbd4759fd	-0.048669804
153	0xbc767b4b	-0.015044044
154	0x3c8cfa2f	0.01720914
155	0xbbacd0d5	-0.005273918
156	0xbb891790	-0.004183717
157	0x3c9c5a4e	0.01908603
158	0xbc1fa4a5	-0.009743844
159	0x3d8e1c28	0.06938964
160	0xbd23cf73	-0.03999276
161	0x3c3d775b	0.011564101
162	0x3b821c6e	0.0039706742
163	0xbc5fb85e	-0.013654796
164	0xbba1cc5a	-0.0049376907
165	0x3c8de46a	0.01732083
166	0x3cdcd0ca	0.026955027
167	0xbd111f13	-0.035430025
168	0xbcc6ea37	-0.024281604
169	0xbcbb183a	-0.0228387
170	0xbbc2aafe	-0.005940794
171	0xbd24de3a	-0.040250994
172	0x3c500a4f	0.01269777
173	0xbc1459af	-0.009054585
174	0xbb0cc1dc	-0.0021477854
175	0xbc375eaa	-0.011192003
176	0x3a3175e8	0.00067695836
177	0x3cef705c	0.029228382
178	0x3cdcbe97	0.02694635
179	0xbd3907c0	-0.045173407
180	0x3d1282ee	0.035769396
181	0x3cccb19a	0.02498703
182	0xbd341672	-0.043966718
183	0x3a92631b	0.0011168452
184	0xbc1f60c5	-0.0097276615
185	0xbd1a69ec	-0.03769867
186	0xbb428486	-0.002968104
187	0xbd0ff461	-0.035145167
188	0xbbfc845a	-0.007706207
189	0xbd3b9165	-0.045792956
190	0x3d051ff7	0.032501187
191	0x3c635706	0.0138757285
192	0x3c913048	0.017723218
193	0xbbdd9034	-0.006761575
194	0xbc3a78f6	-0.011381378
195	0x3c49cf55	0.012317498
196	0xbd31703d	-0.04331993
197	0xbb113b5a	-0.002216062
198	0x3d9a635a	0.07538481
199	0x3d148f71	0.03626961
200	0x3c06fbde	0.008238761
201	0xbd5f9be8	-0.054592043
202	0xbd10c92b	-0.0353481
203	0x3cac61b4	0.021042682
204	0x3c5127eb	0.012765865
205	0xbd381266	-0.04493942
206	0x3b97595c	0.0046188068
207	0xbd26a143	-0.040681135
208	0x3c02e984	0.007990245
209	0xbcc2b1f8	-0.023766503
210	0x3d81cd6a	0.06338008
211	0x3d51f09a	0.051254846
212	0xbd23cdfe	-0.03999137
213	0xbcf19845	-0.029491553
214	0x3c2f0ba3	0.010683927
215	0xbd804e2a	-0.062649086
216	0xbd304fcb	-0.043044847
217	0xbba80477	-0.0051274854
218	0x3ceb0701	0.028689863
219	0xbce24dd8	-0.02762501
220	0xbc292aee	-0.010325177
221	0x3c11142a	0.008854905
222	0x3c9ab0bc	0.018883102
223	0x3cc11370	0.023568839
224	0xbab40304	-0.0013733809
225	0x3d1286d6	0.03577312
226	0x3cb125d7	0.021624489
227	0xbd1683cf	-0.036746796
228	0x3d1771bd	0.036973704
229	0x3c0983b4	0.008393217
230	0x3c7e5b11	0.015524642
231	0xbcbcd679	-0.023051487
232	0xbad15f53	-0.0015973843
233	0xbcd63d0b	-0.026152154
234	0xbd134295	-0.03595217
235	0x3c5911b8	0.013248853
236	0x3c03b537	0.00803881
237	0x3c9c7806	0.0191002
238	0x3c3c25a4	0.011483584
239	0x3d0c4d67	0.034253504
240	0xbc6957c1	-0.014242114
241	0xbcc5c012	-0.024139438
242	0xbcb63e80	-0.0222466
243	0x3d26706a	0.04063455
244	0xbc7a1e11	-0.015265957
245	0xbd81ca7f	-0.06337451
246	0xbb9cf06d	-0.004789403
247	0x3c67adde	0.014140574
248	0x3d5a7b4a	0.053340234
249	0xbc553471	-0.013012991
250	0x3d91bb68	0.07115823
251	0xbc0b331a	-0.00849607
252	0xbd6dfebd	-0.058104265
253	0xbc846b6a	-0.0161645
254	0xbd8ece28	-0.06972915
255	0xbafa81e0	-0.0019112192

network_body._body_endoder.seq_layers.4.weight f4 [256, 256]
0	0xbc9d1ee6	-0.019179773
1	0x3ce84b71	0.028356286
2	0x3e34f710	0.17672372
3	0xb95b8141	-0.00020933618
4	0x3c6db492	0.014508383
5	0xbca01fae	-0.019546356
6	0xbdc35347	-0.09537368
7	0xbddec65c	-0.10877678
8	0xbca56120	-0.020187914
9	0xbcff0aba	-0.031133045
10	0x3c14b595	0.009076496
11	0x3cc56d7b	0.024100056
12	0x3c491ea8	0.012275375
13	0xbd957487	-0.072976165
14	0x3dfff5b2	0.124980345
15	0xbdb8e28e	-0.09027587
16	0xbdd02e10	-0.10165036
17	0x3d9a5f71	0.07537735
18	0xbd70eadd	-0.058817733
19	0xbd7dc0df	-0.061951514
20	0x3b458c04	0.003014327
21	0x3d99a525	0.07502202
22	0xbdf83ba8	-0.121207535
23	0x3d6f70d5	0.058457214
24	0x3bd33269	0.0064452183
25	0xbd9117ec	-0.07084641
26	0xbe082033	-0.13293533
27	0xbdf8a15b	-0.12140151
28	0xbcb7bb12	-0.02242807
29	0xbe5866be	-0.21132943
30	0xbe0183d3	-0.12647943
31	0x3c9a4eae	0.018836346
32	0x3d8d0a69	0.06886751
33	0xbdb4b011	-0.088226445
34	0xbcae07a1	-0.021243872
35	0x3d3278f0	0.043572366
36	0xbc9d363f	-0.019190906
37	0xbdb03ab8	-0.0860495
38	0xbe11014c	-0.14160651
39	0x3d2a3bdb	0.04156099
40	0xbbe2a203	-0.006916286
41	0xbcf98304	-0.03045798
42	0xbdf03aa5	-0.117299356
43	0xbd462a5b	-0.048380237
44	0xbdd030d3	-0.101655625
45	0xbc43ce68	-0.011951067
46	0x3c901abb	0.017590871
47	0xbe944406	-0.28958148
48	0xbd2ec119	-0.04266462
49	0xbdbbcaf5	-0.0916957
50	0x3b0b34cb	0.0021241184
51	0x3c8f085b	0.017460039
52	0xbb7e13b5	-0.003876907
53	0xbe1055e9	-0.14095272
54	0x3e3b0d5b	0.18266813
55	0x3e36f9fc	0.17868799
56	0xbdbf5f8d	-0.09344397
57	0xbd2ac2ba	-0.041689612
58	0x3dee597a	0.1163816
59	0x3d5068c3	0.05088116
60	0xbde9b051	-0.11410583
61	0xbe0bcca9	-0.1365229
62	0x3c05a5bf	0.008157193
63	0xbc0f6308	-0.008751638
64	0x3d721e69	0.059111033
65	0x3da1764c	0.078838915
66	0xbe81526d	-0.25258198
67	0xbe0075f3	-0.12544994
68	0x3db5c846	0.0887609
69	0xbd05d904	-0.032677665
70	0x3da3c797	0.07997053
71	0xbdfad741	-0.12248088
72	0xbce51ec5	-0.027968774
73	0x3d0bad8c	0.034101054
74	0xbc1920a2	-0.009346159
75	0xbdb727a1	-0.089431055
76	0xbc4cda17	-0.012503169
77	0x3e175b08	0.1478082
78	0x3c966be3	0.018361991
79	0xbd4e12e0	-0.05031097
80	0xbd65071b	-0.05591498
81	0x3e2b4673	0.16726093
82	0xbcd270d2	-0.025688563
83	0xbcf15226	-0.029458117
84	0x3e251882	0.1612263
85	0xbe13bdfe	-0.14427945
86	0xbd03114d	-0.03199892
87	0x3d8c902d	0.06863437
88	0xbd7b00dc	-0.061280116
89	0x3e0c99de	0.1373057
90	0xbd6c8423	-0.057743203
91	0xbe22955b	-0.15877287
92	0xbc0b5f31	-0.008506582
93	0x3dddd0d1	0.10830844
94	0x3bc8bb13	0.0061258166
95	0x3dabff9d	0.08398364
96	0xbe4e2aba	-0.20133486
97	0x3d4e01be	0.05029463
98	0xbdb9fafe	-0.09081076
99	0x3da9e082	0.082947746
100	0xbe069cc3	-0.13145737
101	0xbd9be5f5	-0.0761222
102	0xbda330d4	-0.079682976
103	0xbd5e0eef	-0.05421346
104	0xbd9ef99e	-0.077624545
105	0x3cee13a3	0.029062098
106	0x3e640626	0.2226797
107	0xbde884b8	-0.11353439
108	0xbe2fbed7	-0.17162643
109	0xbb3a2d2b	-0.002840827
110	0xbe0e66db	-0.13906424
111	0x3ded66d6	0.1159188
112	0xbe2ecbaa	-0.17069879
113	0xbd9f3cd3	-0.07775273
114	0x3b48b832	0.0030627367
115	0xbd8e6439	-0.0695271
116	0xbd5716b6	-0.052511893
117	0xbd5e6def	-0.05430406
118	0xbe110f9e	-0.14166114
119	0xbc9bc854	-0.019016422
120	0xbdcf3801	-0.10118104
121	0x3dcd7151	0.10031379
122	0xbcde21bf	-0.0271157
123	0x3d473c8a	0.04864172
124	0xbc454cda	-0.012042249
125	0x3e3135a9	0.17305626
126	0xbdb31efb	-0.087461434
127	0x3cbae2da	0.02281325
128	0xbdeb856c	-0.115000576
129	0x3db6f5c6	0.08933596
130	0xbd18a272	-0.037264295
131	0xbe18ab8b	-0.14909188
132	0xbcbeea55	-0.023305098
133	0xbd88a081	-0.06671239
134	0xbd7cf1e1	-0.06175411
135	0x3d1b2f08	0.03788665
136	0x3c326225	0.010887657
137	0x3d25d000	0.040481567
138	0xbd262842	-0.040565737
139	0xbd0360b2	-0.032074638
140	0x3e09adcb	0.13445203
141	0xbce5e767	-0.028064443
142	0xbe14f5b1	-0.14546849
143	0x3d60be31	0.05486888
144	0x3dbf3d0f	0.09337818
145	0x3d94e106	0.07269482
146	0xbcff2faf	-0.031150667
147	0x3d8f432f	0.06995236
148	0xbcb47c6f	-0.02203199
149	0xbde329fa	-0.11091991
150	0xbcac9ad7	-0.021069927
151	0xbdfc7908	-0.123277724
152	0xbbb94bbd	-0.0056547807
153	0xbd073cc8	-0.03301695
154	0x3c965f29	0.018355923
155	0x3d1d0370	0.038333356
156	0xbe0e8607	-0.13918315
157	0x3b8ddbeb	0.004329195
158	0xbd50c2cf	-0.050967034
159	0xbbb4b0cc	-0.00551424
160	0x3d50ddca	0.050992765
161	0xbd89fc0d	-0.06737528
162	0xbcb9254d	-0.022600794
163	0xb92be9eb	-0.00016394972
164	0xbe5ab759	-0.21359004
165	0x3cde0874	0.02710364
166	0x3d30a80b	0.04312901
167	0x3d6ce31b	0.057833772
168	0xbe14bf09	-0.14525999
169	0xbdbf9b07	-0.09355741
170	0xbe9767f3	-0.29571494
171	0xbe0be61b	-0.13661997
172	0x3cee9823	0.029125279
173	0x3d03464d	0.032049466
174	0xbd90a050	-0.07061827
175	0x3cb8955c	0.022532158
176	0xbd94d5c7	-0.07267337
177	0x3d1064b7	0.0352523
178	0x3c3e2587	0.011605627
179	0x3e2420bb	0.1602811
180	0x3cb087eb	0.021549186
181	0xbcaf4172	-0.021393511
182	0xbe36e39e	-0.17860267
183	0x3e063d12	0.13109234
184	0x3ded9fcb	0.11602744
185	0x3cbafd62	0.0228259
186	0x3ce9ca1d	0.028538758
187	0x3dd83609	0.105571814
188	0xbd9ef779	-0.077620454
189	0x3d488a33	0.048959922
190	0xbaec1ca1	-0.0018013903
191	0x3d4fbec2	0.05071903
192	0xbd53e204	-0.051729217
193	0x3cea06e7	0.028567744
194	0x3d0663fd	0.0328102
195	0x3d0abbe1	0.03387058
196	0xbd009175	-0.03138872
197	0x3ca2b8c2	0.01986349
198	0x3dd61c1e	0.10454582
199	0xbd6ec471	-0.05829281
200	0xbd438ae4	-0.04773988
201	0xbd969d47	-0.07354217
202	0xbd72750e	-0.059193663
203	0x3d84bbb0	0.06481111
204	0x3ceb0c55	0.028692404
205	0x3d54d6a5	0.051962513
206	0xbdfc3cbb	-0.12316271
207	0xbd510283	-0.051027786
208	0x3de2d14a	0.11075075
209	0xbdae309c	-0.08505365
210	0x3d369427	0.044574883
211	0xbd98465e	-0.074352965
212	0xbdb33435	-0.08750192
213	0xbe29a10e	-0.16565344
214	0xbe031aba	-0.12803164
215	0xbce5bc61	-0.028043928
216	0xbdec9486	-0.11551766
217	0x3e603837	0.21896444
218	0xbdb7e2c8	-0.08978802
219	0x3e3d3b96	0.18479761
220	0x3e0e201c	0.13879436
221	0x3d6995e6	0.05702772
222	0xbdecfe25	-0.11571912
223	0x3b5a15c1	0.0033277126
224	0x3c90e6cb	0.017688176
225	0x3d91b32b	0.07114252
226	0x3d81c616	0.0633661
227	0x3d8ac032	0.067749396
228	0xbc7abd92	-0.015303986
229	0xbb07a512	-0.0020697755
230	0xbdd5d1d9	-0.10440416
231	0x3e016cd7	0.12639175
232	0xbc6d5bfa	-0.014487261
233	0xbd849ae7	-0.06474858
234	0xbdfc88cc	-0.123307794
235	0xbd3db803	-0.046318065
236	0x3d2317e7	0.039817717
237	0x3d1e2ef0	0.03861898
238	0x3d0606a7	0.032721188
239	0xbd90e135	-0.07074205
240	0xbe0982b7	-0.1342877
241	0xbddf6e6f	-0.109097354
242	0x3d6b71a6	0.05748143
243	0x3dd2d8c2	0.102952495
244	0x39dc3415	0.00042000474
245	0x3d2b00c5	0.04174878
246	0xbc116a1a	-0.008875394
247	0xbde6ee69	-0.11275942
248	0x3d82b796	0.063826725
249	0x3cb78928	0.022404268
250	0xbb9cec17	-0.0047888863
251	0xbd2c238e	-0.042026095
252	0xbe2ddbc0	-0.16978359
253	0xbd162c90	-0.03666359
254	0xbd1aa088	-0.03775075
255	0xbe1ebd5a	-0.1550192

network_body._body_endoder.seq_layers.4.bias f4 [256]
0	0xbd48d9ca	-0.049035825
1	0xbd266a5e	-0.040628783
2	0xbd93d86f	-0.07219016
3	0xbda3d3b3	-0.07999363
4	0xbd6f1f7a	-0.058379628
5	0xbd94184d	-0.072311975
6	0x3cbe2873	0.023212647
7	0xbd9e0613	-0.07716002
8	0xbd838980	-0.064227104
9	0x3dc0f455	0.09421603
10	0xbd966174	-0.073428065
11	0xbdd70f8c	-0.10501012
12	0xbd6ca29f	-0.057772275
13	0xbdb8be00	-0.090206146
14	0x3d175524	0.03694643
15	0xbd5e2ab7	-0.054239955
16	0xbd87486d	-0.06605611
17	0xbcb8bd80	-0.022551298
18	0xbda2cbaf	-0.07949006
19	0xbd8dca03	-0.06923296
20	0xbd451cda	-0.048123218
21	0xba4cfaa6	-0.0007819332
22	0xbd0351e7	-0.03206053
23	0xbd7c3390	-0.06157261
24	0xbc9d6f88	-0.019218221
25	0xbda2864c	-0.07935771
26	0xbd943fe2	-0.07238747
27	0xbd5228b8	-0.051308364
28	0xbc699201	-0.014256001
29	0xbdfdba91	-0.123891
30	0xbda6adb8	-0.08138603
31	0x3c02d3b2	0.007985042
32	0xbcb634e4	-0.022242017
33	0xbcdc97ef	-0.026927916
34	0xbd8bae82	-0.06820394
35	0x3b3f1555	0.0029157002
36	0xbda7c07e	-0.08191012
37	0xbbecff16	-0.007232557
38	0xbc43c919	-0.011949801
39	0xbd8d89b2	-0.06911029
40	0x3b9e7ac4	0.004836412
41	0x3b5c1b01	0.0033585432
42	0xbdae7b1b	-0.08519574
43	0xbcbe117b	-0.023201695
44	0xbd894dc5	-0.067042865
45	0xbdd84346	-0.105597064
46	0xbd0dbc4f	-0.034603413
47	0xbca08b91	-0.0195978
48	0xbdababe2	-0.083823934
49	0x3d3406e8	0.0439519
50	0xbda54664	-0.080700666
51	0xbda71ba6	-0.081595704
52	0xbd2c7b01	-0.042109493
53	0xbd5024e2	-0.050816424
54	0xbd110714	-0.03540714
55	0xbd8089b5	-0.062762655
56	0xbd886bc3	-0.06661179
57	0xbd45d92c	-0.048302814
58	0xbd45df5e	-0.048308723
59	0xbc6db4e2	-0.014508458
60	0xbda14ebf	-0.07876348
61	0xbd74d9ec	-0.05977814
62	0xbda9a4fa	-0.0828342
63	0xbd581f48	-0.052764207
64	0xbda210d7	-0.07913368
65	0x3c083d56	0.008315405
66	0xbd26c9c4	-0.040719762
67	0xbd880743	-0.0664201
68	0xbd20202a	-0.039093174
69	0xbdb82889	-0.089921065
70	0xbd39783a	-0.045280673
71	0xbd81a369	-0.06329996
72	0xbd3161d5	-0.04330619
73	0xbd492bf1	-0.04911417
74	0xbdc5af34	-0.09652558
75	0xbd301fa6	-0.042998932
76	0xbdae70a3	-0.085175775
77	0xbd78d165	-0.06074657
78	0xbdf0cc23	-0.11757686
79	0xbd5a6068	-0.053314596
80	0xbd8a39ab	-0.067492805
81	0xbd630f4e	-0.055434518
82	0xbd9404f8	-0.0722751
83	0xbd58f746	-0.052970193
84	0xbd8b1f68	-0.067931
85	0xbd56fcac	-0.05248706
86	0xbcc4836a	-0.023988444
87	0xbbbcae7d	-0.0057581053
88	0xbd76b325	-0.06022944
89	0xbd5f892f	-0.054574188
90	0xbe1a66e1	-0.15078308
91	0xbda71ffd	-0.08160398
92	0x3cd5028c	0.026002191
93	0x3cac3a8c	0.021024011
94	0xbc0ab4f9	-0.008465999
95	0xbd25c909	-0.040474925
96	0xbce9e76c	-0.028552733
97	0xbd1d5ae9	-0.038416777
98	0xbd32f30d	-0.043688823
99	0xbd8df63a	-0.069317296
100	0xbc65be48	-0.014022417
101	0xbd96d561	-0.073649175
102	0xbcf38570	-0.029726714
103	0xbd3609e9	-0.044443045
104	0xbd238f13	-0.039931368
105	0xbd11ebbd	-0.03562521
106	0xbd542b85	-0.051799316
107	0xbd8889b4	-0.0666689
108	0xbdb92e8c	-0.09042081
109	0xbc4677d4	-0.01211353
110	0xbd66f3e5	-0.05638494
111	0xbdf55694	-0.11979404
112	0xbc671ef1	-0.014106498
113	0xbdcfa522	-0.101389185
114	0xbd4c79f0	-0.049920976
115	0xbe23fecb	-0.16015165
116	0xbdb0ab98	-0.08626479
117	0xbd7d2276	-0.061800443
118	0xbdaa8868	-0.08326799
119	0xbdb0ee53	-0.08639207
120	0xbca80eae	-0.020514812
121	0xbd6116d4	-0.05495341
122	0xbd8b1350	-0.06790793
123	0xbd6d8086	-0.057983898
124	0xbda8bf4c	-0.08239612
125	0xbde579ff	-0.112049095
126	0xbc5149a8	-0.012773909
127	0xbda233df	-0.0792005
128	0xbda38b49	-0.07985551
129	0xbd286f11	-0.041121546
130	0xbc1f543d	-0.009724674
131	0xbd8c5515	-0.068521656
132	0xbd75983c	-0.059959635
133	0xbd45b3b3	-0.048267078
134	0xbd4767a2	-0.048682816
135	0xbde802f7	-0.113286905
136	0xbcd72e3a	-0.02626716
137	0xbd80affc	-0.06283566
138	0xbd5132c1	-0.051073793
139	0xbd2134d1	-0.03935701
140	0xbd706b2a	-0.05869595
141	0xbbd4a93e	-0.006489902
142	0xbd9ba992	-0.07600702
143	0xbca82d5d	-0.020529443
144	0xbd4c2ea3	-0.049849164
145	0xbc396e47	-0.011317796
146	0x3cafa4a3	0.02144081
147	0xbd989a79	-0.07451338
148	0xbd73b308	-0.05949691
149	0xbd0caa7e	-0.03434228
150	0xbd3fd1fd	-0.04683112
151	0xbd2dbc9b	-0.042416196
152	0x3d949eee	0.07256876
153	0xbd6d3fd5	-0.057922203
154	0xbd037430	-0.032093227
155	0xbd29e966	-0.04148235
156	0xbd815f8e	-0.06317054
157	0x3d405521	0.046956185
158	0xbd4b2f30	-0.04960555
159	0xbd0dfd16	-0.03466519
160	0xbdaa82f6	-0.0832576
161	0xbd21908c	-0.03944449
162	0xbd4b9539	-0.049702857
163	0xbde630ed	-0.112398006
164	0xbc46eb4f	-0.012141063
165	0xbd64e9ae	-0.055886917
166	0xbd9878bf	-0.074449055
167	0xbcc96033	-0.024582004
168	0xbd2ec691	-0.042669836
169	0xbd61a21a	-0.055086233
170	0xbc1adf76	-0.009452691
171	0xbdb54d1f	-0.088526
172	0x3c6debb1	0.014521525
173	0xbb77067c	-0.0037693074
174	0xbd435ef7	-0.047697987
175	0x3d861f90	0.06548989
176	0xbd967e07	-0.073482566
177	0xbd100e1b	-0.035169702
178	0x3d48231f	0.04886162
179	0xbd567ab0	-0.052363098
180	0xbd9846e2	-0.07435395
181	0xbd70ed83	-0.05882026
182	0xbdd481f0	-0.10376346
183	0xbd13e959	-0.03611121
184	0xbbc4f2f9	-0.00601041
185	0xbcca0521	-0.024660649
186	0xbd642234	-0.05569668
187	0xbd8d5e75	-0.06902782
188	0xbd8a7e69	-0.06762392
189	0xbd717f56	-0.058959328
190	0xbd1903d7	-0.037357178
191	0xbd9fcb32	-0.07802428
192	0xbd761bf0	-0.060085237
193	0xbd5a164d	-0.053243924
194	0xbba448f5	-0.00501358
195	0xbd0e0753	-0.034674954
196	0xbd797142	-0.060899027
197	0xbd175400	-0.036945343
198	0xbdb5be47	-0.08874183
199	0xbd8abaf0	-0.06773937
200	0xbd44df76	-0.04806467
201	0xbdc34653	-0.09534898
202	0xbd24c74e	-0.040229134
203	0xbd44ac3c	-0.048015818
204	0x3889f099	6.577484e-05
205	0xbdf9e18c	-0.12201223
206	0xbcf7d578	-0.030253157
207	0xbd536eb5	-0.05161925
208	0xbd9cb373	-0.07651415
209	0xbd9d15ac	-0.07670149
210	0x3d981b7f	0.074271195
211	0xbdb862f6	-0.0900325
212	0xbdc91386	-0.09818177
213	0xbcfa815c	-0.030579261
214	0xbd382768	-0.044959456
215	0xbc9efbb4	-0.01940713
216	0xbbc4af51	-0.0060023447
217	0xbdb5d1a3	-0.08877876
218	0xbd8c27c4	-0.06843522
219	0xbd39c6c9	-0.045355592
220	0xbd7f5c27	-0.062343743
221	0xbd37970e	-0.04482179
222	0xbd47d6be	-0.04878878
223	0xbd899c0e	-0.06719218
224	0xbde67f6f	-0.11254775
225	0xbdfc1c69	-0.12310106
226	0xbd82572f	-0.06364285
227	0xbd85b3fa	-0.065284684
228	0xbd8e70b8	-0.06955093
229	0xbd541ded	-0.051786352
230	0xbd1ddb69	-0.038539324
231	0xbd4a228e	-0.04934936
232	0xbd4d7c61	-0.050167445
233	0xbdc83083	-0.09774878
234	0xbd3e7067	-0.046493914
235	0xbcb48f76	-0.022041064
236	0xbd6f5cbd	-0.05843805
237	0xbd08af59	-0.03337035
238	0xbd577d05	-0.052609462
239	0xbd6b4c73	-0.057445955
240	0x3ce08a7d	0.027409786
241	0xbd7b5296	-0.061358057
242	0xbd2b6975	-0.04184862
243	0xbd4afea0	-0.049559236
244	0xbd525a2b	-0.051355522
245	0xbd8467fc	-0.06465146
246	0xbdb46952	-0.08809151
247	0xbccc877a	-0.024966944
248	0xbd2c7698	-0.042105287
249	0xbd8860c6	-0.06659083
250	0xbcb9ad75	-0.022665719
251	0xbd566ac9	-0.052347932
252	0xbd4aaeea	-0.049483217
253	0xbd0dfcb8	-0.03466484
254	0xbd5a2b20	-0.053263783
255	0xbd1c10a2	-0.0381018

action_model._continuous_distribution.log_sigma f4 [1, 2]
0	0xbf93f702	-1.1559756
1	0xc006d2de	-2.1066203

action_model._continuous_distribution.mu.weight f4 [2, 256]
0	0x3d27f982	0.041009434
1	0x3c3c8389	0.01150597
2	0x3c05857b	0.0081495
3	0xbcf7c47f	-0.030245064
4	0xbcebb7f4	-0.02877424
5	0xbcb77325	-0.022393772
6	0x3cb899b2	0.022534225
7	0x3d092c7e	0.033489697
8	0xbd8af98f	-0.06785881
9	0x3cfd7809	0.030941026
10	0x3d3c4964	0.04596843
11	0xbd3bc54e	-0.04584246
12	0xbc1df31d	-0.009640482
13	0xbc747e8d	-0.01492275
14	0x3c0e0f07	0.008670575
15	0xbd869e26	-0.06573133
16	0x3d5d6816	0.054054342
17	0xbe0baa8e	-0.1363928
18	0xbc385844	-0.011251513
19	0xbd085bec	-0.03329079
20	0x3abe4f48	0.0014519477
21	0x3c2db45b	0.010602082
22	0x3c470330	0.012146756
23	0x3d03be9a	0.032164194
24	0x3d44b455	0.04802354
25	0xbc7beced	-0.015376312
26	0x3c8bd582	0.017069582
27	0xbce6ad90	-0.028158933
28	0x3ce76ee7	0.028251125
29	0x3cd55c6f	0.026045052
30	0xbb354adc	-0.0027663028
31	0xbd0b625d	-0.034029353
32	0x3e0517f5	0.1299742
33	0x3b51566e	0.0031942385
34	0x3c46eed1	0.012141899
35	0xbdbeed78	-0.09322637
36	0xbbf28fbe	-0.0074023893
37	0xbc0acb18	-0.008471273
38	0xbd0f9744	-0.035056368
39	0x3ad809e0	0.0016482435
40	0xbd1e4df4	-0.03864856
41	0xbdaabeec	-0.08337197
42	0x3d303cc1	0.04302669
43	0x3cc77a0a	0.024350185
44	0xbc763ec9	-0.015029618
45	0x3d1d955a	0.03847251
46	0xbd8fad93	-0.070155285
47	0xbc547f32	-0.012969779
48	0x3bee003f	0.007263213
49	0xbc141f0d	-0.009040606
50	0x3d14629c	0.036226854
51	0x3d41a0e2	0.04727257
52	0x3c438cd7	0.011935434
53	0xbd5b7a03	-0.053583156
54	0x3c1b5525	0.009480749
55	0xbd4ddfa1	-0.050262097
56	0xbbea4fed	-0.007150641
57	0x3b5b59fc	0.0033470383
58	0x3d89433a	0.067022756
59	0xbc7da347	-0.015480823
60	0xbd464df1	-0.048414174
61	0x3d09c750	0.033637345
62	0xbcb68228	-0.02227886
63	0x3cf175c1	0.029475095
64	0x3ca61538	0.02027379
65	0x3dbdc409	0.09265906
66	0xbccefdb6	-0.025267463
67	0xbc1d1e83	-0.009589794
68	0x3cf8d490	0.030374795
69	0x3bc3cc81	0.0059753065
70	0x3c34709a	0.011013174
71	0xbd7e8974	-0.062142804
72	0x3c5ec139	0.013595873
73	0xbd558831	-0.052131835
74	0x3ca2d8ba	0.019878734
75	0xbce11f6d	-0.027480805
76	0x3d4d3ed2	0.05010874
77	0xbdb47bdc	-0.08812687
78	0x3d18ef8a	0.037337817
79	0x3cc1de1f	0.023665486
80	0x3d025e16	0.03182801
81	0x3c3f7c42	0.01168734
82	0x3df549e7	0.119769864
83	0xbbc6105a	-0.0060444297
84	0x3af2397e	0.0018480269
85	0x3b220071	0.0024719501
86	0xbca05a8f	-0.019574432
87	0x3d1105a0	0.035405755
88	0xbdd537ad	-0.1041101
89	0x3d3621bf	0.044465777
90	0x3b090f3b	0.002091362
91	0xbb04f106	-0.0020285263
92	0x3dc7e39c	0.0976021
93	0xbc3c049a	-0.0114757065
94	0xbbc696e3	-0.0060604676
95	0x3cb2e3b2	0.02183709
96	0x3cf558ab	0.029949507
97	0x3bde0469	0.006775428
98	0xbd2edc1d	-0.042690385
99	0xbcfdc936	-0.030979734
100	0xbda4771e	-0.08030532
101	0x3d9b979f	0.07597279
102	0x3d09623c	0.03354095
103	0x3da6fc8a	0.08153637
104	0xbc83d8a0	-0.016094506
105	0x3b705c59	0.0036676137
106	0xbd57a13d	-0.052644003
107	0xbdf90c0a	-0.121604994
108	0x3bb1a702	0.00542152
109	0xbce154de	-0.027506288
110	0x3cf13a85	0.02944685
111	0x3d4c3f4e	0.04986506
112	0x3ccb0265	0.024781415
113	0xbb8c94c1	-0.004290194
114	0x3becb705	0.007223966
115	0xbb586f50	-0.0033025332
116	0x3ca03809	0.01955797
117	0xbc5ea697	-0.013589523
118	0xbc859c0f	-0.016309766
119	0xbd21a80b	-0.0394669
120	0xbd14d991	-0.0363403
121	0x39978111	0.00028897126
122	0x3c5d9d9b	0.013526346
123	0x3c7fd00a	0.015613565
124	0x3cb6d70c	0.02231934
125	0xbb7c1572	-0.003846493
126	0xbd2e4c56	-0.04255327
127	0x3c466cac	0.01211087
128	0xbcfed06a	-0.031105239
129	0x3d4741c6	0.04864671
130	0x3cc2b9b8	0.023770198
131	0x3cc0b421	0.023523392
132	0xbc766276	-0.015038123
133	0xbd911336	-0.07083742
134	0xbd62e8a3	-0.05539764
135	0x3d02a481	0.031895164
136	0xbbc7588b	-0.006083553
137	0x3c859a9c	0.016309075
138	0xbd02c73e	-0.031928293
139	0xbda569dc	-0.08076832
140	0x3c77e808	0.015131004
141	0xbc373617	-0.01118233
142	0xbd89e413	-0.06732955
143	0xbbebe582	-0.0071989903
144	0x3bff7193	0.0077955215
145	0xbb80b4b2	-0.0039277906
146	0x3c6fda04	0.014639381
147	0x3d84d851	0.064865716
148	0x3c8fe9b9	0.017567502
149	0xbdabbc4c	-0.08385524
150	0xbd71c622	-0.059026845
151	0xbd771221	-0.060320023
152	0x3da663b0	0.08124483
153	0xbaedaeed	-0.0018133797
154	0xba4be08a	-0.00077772944
155	0x3c851538	0.01624547
156	0x3bf8bdbb	0.007590977
157	0x3d19d3e1	0.03755558
158	0x3b7a199e	0.0038162242
159	0xbdb20398	-0.08692092
160	0x3cf16a6d	0.029469693
161	0xbbc18294	-0.0059054587
162	0x3d3a8806	0.04553988
163	0xbd02f3fe	-0.03197097
164	0x3d7c6b0c	0.061625525
165	0x3aa554e8	0.0012613805
166	0xbd306d1d	-0.04307281
167	0xbbdb8530	-0.006699227
168	0xbda35ea1	-0.079770334
169	0x3c598043	0.013275209
170	0x3bbb669c	0.005719019
171	0xbca90775	-0.020633439
172	0x3da1f788	0.07908541
173	0x3ce781c4	0.02826012
174	0xbd5c078a	-0.053718127
175	0x3c3622d4	0.011116702
176	0xbd8c1b65	-0.068411626
177	0xbb417319	-0.0029518066
178	0x3dc08014	0.09399429
179	0xbcd2e7c8	-0.025745288
180	0x3c2f476a	0.010698179
181	0xbe2197fd	-0.15780635
182	0x3c852d34	0.016256906
183	0xbcbf7924	-0.023373194
184	0x3d2d8418	0.042362303
185	0x3b82ef10	0.0039957836
186	0xbd431d65	-0.047635455
187	0xbd56aca7	-0.052410748
188	0x3ccdef4c	0.02513852
189	0x3d638fdc	0.055557117
190	0xbd79aa93	-0.060953688
191	0xbd1a3d2f	-0.037656005
192	0xbb8a3039	-0.0042171744
193	0xbd293fca	-0.0413206
194	0xbd474eb4	-0.04865904
195	0xbdb02377	-0.086005144
196	0xba4fa9e2	-0.0007921738
197	0xbc46b196	-0.012127301
198	0x3ad2f299	0.0016094028
199	0x3c542dac	0.012950342
200	0xbc9aa8e8	-0.018879369
201	0xbd612c6c	-0.054974005
202	0xbd908915	-0.07057396
203	0xbced6d47	-0.028982772
204	0x3d37e89c	0.044899568
205	0x3d1fd2a1	0.03901923
206	0x3cf18307	0.029481424
207	0xbe1e3eed	-0.15453692
208	0x3c2836ef	0.010267003
209	0xbd1c4e17	-0.03816041
210	0x3b91dbd8	0.0044512562
211	0xbd521c14	-0.05129631
212	0xba437823	-0.00074565614
213	0x3b391f69	0.0028247482
214	0xbae32d06	-0.0017332144
215	0xba45150d	-0.00075180904
216	0x3cd8f1db	0.026482513
217	0xbd19c554	-0.037541702
218	0xbcd2a61e	-0.025713976
219	0xbc4920ea	-0.012275914
220	0x3c3442ba	0.011002237
221	0xbcbacab7	-0.02280174
222	0x3c2742dd	0.010208813
223	0xbbc23927	-0.0059272232
224	0x3cfe816d	0.031067574
225	0xbb7e3b09	-0.0038792512
226	0xb99ef872	-0.00030321215
227	0x3c066d15	0.008204718
228	0xbd80c2ad	-0.062871315
229	0x3d399b18	0.045313925
230	0x3d954a21	0.072895296
231	0x3c526020	0.012840301
232	0x3d528bc3	0.05140282
233	0xbbd2069f	-0.0064094807
234	0xbd41df83	-0.047332298
235	0xbcbdb438	-0.023157224
236	0x3d951218	0.07278842
237	0xbe008813	-0.12551908
238	0xbcad2c24	-0.021139212
239	0xbda51464	-0.0806053
240	0x3cb19381	0.02167678
241	0xbdd4d51b	-0.10392209
242	0x3c1cf442	0.00957972
243	0xbdcae2b3	-0.09906521
244	0x3d475ebd	0.048674334
245	0x3d491ff9	0.049102757
246	0xbb145db5	-0.0022638862
247	0xbd0eade5	-0.034833807
248	0x3cd8702e	0.026420679
249	0x3bb15ec7	0.0054129097
250	0xbce69a82	-0.028149847
251	0xbcba27ae	-0.022723999
252	0xbab3d503	-0.0013720099
253	0x3cdc3757	0.026881857
254	0x3c4cf93b	0.012510593
255	0x3cee8b68	0.029119208

action_model._continuous_distribution.mu.bias f4 [2]
0	0x3ccfe118	0.025375888
1	0xbcf189fe	-0.029484745
